model/qmix/5m_vs_6m/1_qmix_net_params.pkl (torch, 206715 bytes, 13 tensors)

hyper_w1.0.weight f4 [64, 230]
0	0x3d4ca857	0.04996523
1	0xbc2cf8ef	-0.010557397
2	0x3c8a4a7c	0.01688122
3	0xbd2350d6	-0.039872013
4	0xb9ced55c	-0.00039450347
5	0xbd6a6cbc	-0.057232603
6	0xbd1e9b73	-0.038722467
7	0xbd1aff78	-0.03784129
8	0x3d5fec71	0.054668847
9	0x3c56e97a	0.013117189
10	0x3cd16625	0.025561402
11	0xbb3d46b6	-0.0028881258
12	0xbd6b1671	-0.05739445
13	0x3d1f898b	0.03894953
14	0xbce1b203	-0.027550703
15	0x3d2d5cf9	0.042324994
16	0xbbf30d0b	-0.0074173263
17	0x3c340d3a	0.010989482
18	0x3d27a085	0.040924568
19	0x3d6c8fa7	0.057754185
20	0xbd6c5a55	-0.057703335
21	0xbcc806b5	-0.02441726
22	0xbc4b819a	-0.012421036
23	0x3b0965d0	0.0020965226
24	0x3d0ea863	0.034828555
25	0x3d63e22b	0.055635612
26	0xbd061449	-0.03273419
27	0x3ca20ae6	0.019780587
28	0xbcebf935	-0.028805355
29	0x3d626e95	0.05528124
30	0xbd684ed7	-0.056715813
31	0xbd783b54	-0.060603455
32	0xbd57f875	-0.05272718
33	0x3d7f522b	0.06233422
34	0x3c8149c9	0.015782254
35	0xbd5296d6	-0.05141338
36	0x3d0d4d5b	0.0344976
37	0xbd1c7045	-0.038193006
38	0x3d0e5329	0.034747276
39	0x3cb37351	0.021905573
40	0xbd5059b6	-0.050866805
41	0xbccee59f	-0.025255976
42	0x3c92418d	0.017853523
43	0x3bda6435	0.0066647776
44	0x3d1a1f45	0.037627477
45	0x3d3aab49	0.045573507
46	0xbba41ed6	-0.0050085587
47	0x3d5e516c	0.05427687
48	0xbd068323	-0.032839905
49	0xbce9cb41	-0.028539302
50	0xbd407c6a	-0.04699365
51	0x3d427081	0.047470573
52	0x3c99927d	0.018746609
53	0x3d68cc6d	0.05683558
54	0x3ca10a55	0.019658247
55	0xbc58c5c6	-0.013230747
56	0xbbf5278b	-0.0074815205
57	0x3d4f0f69	0.050551806
58	0x3b9ba5a5	0.004749971
59	0x3d53ec3f	0.051738974
60	0xbc712da6	-0.014720356
61	0x3c83add5	0.0160741
62	0x3c44ff5a	0.012023771
63	0xbc4fc67e	-0.012681602
64	0xbcd24f3d	-0.02567255
65	0x3c01988a	0.007909903
66	0x3d3e96c7	0.04653051
67	0x3c8423e4	0.016130395
68	0x3d3e1e99	0.0464159
69	0xbcf651b1	-0.03006825
70	0xbc85f5d1	-0.016352566
71	0xbd5f3615	-0.054494936
72	0xbd5b333f	-0.05351567
73	0x3a6ff3a8	0.0009153434
74	0xbc562e9a	-0.013072634
75	0xbd826e0f	-0.06368648
76	0xbcdf6907	-0.02727176
77	0x3d14e46f	0.036350664
78	0xbb955d1b	-0.004558218
79	0x3d552d45	0.052045126
80	0xbcc4db81	-0.024030449
81	0x3caf11c9	0.021370785
82	0x3d311861	0.04323614
83	0x3d374117	0.04473981
84	0x3d41d547	0.047322538
85	0x3d731fd3	0.05935652
86	0xbd77d375	-0.060504396
87	0x3d1c6a13	0.038187098
88	0xbd7c626a	-0.061617292
89	0xbd320e1d	-0.04347049
90	0x3d54030a	0.05176071
91	0x3d83ca47	0.06435066
92	0x3c9919c6	0.018689048
93	0xbd7d4239	-0.061830733
94	0xbd570434	-0.052494243
95	0xbd598f85	-0.053115387
96	0x3ce741c8	0.02822961
97	0xbba4417a	-0.005012688
98	0x3d60ae3b	0.05485366
99	0x3d869505	0.06571392
100	0x3d833501	0.06406594
101	0xbd3ebfdb	-0.046569686
102	0x3b733560	0.0037110671
103	0x3d6e5e68	0.0581955
104	0x3d0ea244	0.034822717
105	0x3c60d580	0.013722777
106	0x3d5b0872	0.05347485
107	0x3d335698	0.043783754
108	0x3d6c3e73	0.057676744
109	0xbd181734	-0.037131503
110	0xbd2dfe5f	-0.042478915
111	0xbd7ceff4	-0.061752275
112	0x3ab21540	0.0013586655
113	0xbd6c0cd8	-0.057629436
114	0xbd60667b	-0.054785233
115	0x3cbd3579	0.023096787
116	0xbca797d8	-0.020458147
117	0xbc84374a	-0.016139645
118	0x3d149f5a	0.036284782
119	0x3c886de7	0.016653968
120	0xbcd9fe0c	-0.026610397
121	0x3c959de1	0.01826376
122	0x3baa43d5	0.0051960745
123	0x3d105d6f	0.035245355
124	0x3d823c8b	0.06359204
125	0x3d5923e9	0.053012762
126	0xbcd53273	-0.026025033
127	0xbd09277f	-0.033484932
128	0xbd3dac54	-0.046306923
129	0xbccd5457	-0.02506463
130	0x3d2037db	0.039115768
131	0xbc11a1ca	-0.008888671
132	0x3aee1554	0.0018164315
133	0x3d529f3f	0.0514214
134	0x3d6fee3f	0.05857682
135	0xbd88a28e	-0.0667163
136	0xbd230f17	-0.039809313
137	0x3c9aedc7	0.01891221
138	0xbd14bc35	-0.0363123
139	0xbd3c3de1	-0.04595745
140	0xbd5343f8	-0.051578492
141	0xbc39a5ae	-0.011331005
142	0x3cbd3cd6	0.023100298
143	0x3d5f30af	0.054489788
144	0xbcdb6779	-0.026782738
145	0x3bdbd3d5	0.006708602
146	0x3d2459f1	0.040124837
147	0x3d81c711	0.06336797
148	0xbd449f4e	-0.048003487
149	0xbd4daedd	-0.05021559
150	0xbd377079	-0.044784997
151	0xbd87f31b	-0.066381656
152	0x3d267ef5	0.04064842
153	0xbd34b1e5	-0.044114966
154	0xbc10a1ea	-0.008827666
155	0xbd003845	-0.031303663
156	0x3beb4d65	0.007180857
157	0x3d691329	0.05690304
158	0xbd253040	-0.040329218
159	0xbc583fdb	-0.013198818
160	0x3c122a2d	0.008921188
161	0x3d7edf77	0.06222483
162	0xbd073753	-0.033011746
163	0xbd618488	-0.055058032
164	0x3c4261fa	0.01186418
165	0xbb732c16	-0.0037105135
166	0xbd464cbe	-0.04841303
167	0xbd6d85e5	-0.05798902
168	0xb93b2561	-0.00017847634
169	0x3d0b464d	0.03400259
170	0xbd26dd91	-0.040738646
171	0x3bbbcc45	0.005731138
172	0x3b29062a	0.0025791028
173	0x3bb589b5	0.0055400976
174	0x3b529bca	0.0032136315
175	0x3d25a4ef	0.040440496
176	0xbd6364e8	-0.055516154
177	0x3c6fb092	0.0146295
178	0xbc62d19a	-0.013843918
179	0x3c004572	0.007829057
180	0x3cb99721	0.022655072
181	0x3bf5eb58	0.007504862
182	0xbd144102	-0.03619481
183	0x3cd50e23	0.026007717
184	0x3c8d0ab5	0.01721702
185	0xbd8007c0	-0.06251478
186	0xbd0d736f	-0.034533914
187	0xbd12fd09	-0.035885844
188	0x3d6f391f	0.058404084
189	0x3d5a6f17	0.0533286
190	0xbcf5ba65	-0.029996106
191	0xbd441509	-0.047871623
192	0xbc3a8a36	-0.011385491
193	0xb91f2f61	-0.00015181072
194	0x3d3bf3df	0.04588687
195	0x3d165bff	0.036708828
196	0xbaff526c	-0.001947952
197	0xbc17470e	-0.009233249
198	0x3d735c13	0.05941398
199	0xbd6cb9de	-0.057794444
200	0xbcea6a8f	-0.028615264
201	0xbb801bab	-0.0039095483
202	0xbd69b8df	-0.057061072
203	0x3d4bc4bb	0.049748164
204	0x3c5109bf	0.012758671
205	0xbd72d0ba	-0.05928109
206	0xbcd478df	-0.025936542
207	0xbd7b8c40	-0.06141305
208	0xbcdc3341	-0.026879909
209	0xbc505a49	-0.012716838
210	0xbd866cb8	-0.06563705
211	0xbd1c9756	-0.038230263
212	0x3d6541ec	0.05597107
213	0x3d579cee	0.052639894
214	0xbbba0305	-0.0056766295
215	0x3c5e3308	0.0135619715
216	0x3c605c78	0.013693921
217	0x3ce3c6d4	0.02780477
218	0x3d3362e8	0.043795496
219	0xbd40bdbf	-0.047055956
220	0xbd62c78d	-0.055366088
221	0x3d0bbbcc	0.034114644
222	0x3d50716a	0.05088941
223	0xbd4b93e7	-0.049701598
224	0x3c297638	0.010343127
225	0x3d783dfe	0.060605995
226	0xbd691240	-0.05690217
227	0xbc821c1c	-0.015882544
228	0xbd0e0cf3	-0.034680318
229	0xbd67f3d1	-0.056629006
230	0x3c2ed228	0.010670222
231	0xbc8f1e44	-0.017470486
232	0xba9d5600	-0.0012003779
233	0x3d708044	0.058716074
234	0xbc31c1cc	-0.010849427
235	0x3c9a6ad4	0.018849768
236	0xbcbc9704	-0.023021229
237	0x3d1af42e	0.037830524
238	0xbc7eba28	-0.015547313
239	0xbb9dd760	-0.0048169345
240	0xbb3af7e0	-0.0028529093
241	0xbcc2961a	-0.023753215
242	0x3d16b502	0.036793716
243	0xba839680	-0.0010039359
244	0x3c8ab520	0.01693207
245	0xbd5204ec	-0.051274225
246	0xbd4d6661	-0.050146464
247	0x3d1745fa	0.03693197
248	0x3d433c5e	0.047664993
249	0x3d85c6c9	0.06532056
250	0xbd1048e8	-0.03522578
251	0x3c9c1328	0.019052103
252	0x3c008118	0.007843278
253	0x3a8790c0	0.0010342821
254	0x3c7e2da0	0.015513808
255	0x3cf39c8c	0.029737733

hyper_w1.0.bias f4 [64]
0	0xbc8e9f31	-0.017409893
1	0x3d511e4e	0.05105429
2	0xbc4ccb70	-0.012499675
3	0x3d84c21e	0.064823374
4	0xbd33d9ed	-0.043909002
5	0xbbe13c3d	-0.006873636
6	0x3c7b0218	0.015320323
7	0xbd745c71	-0.05965847
8	0xbc1f91ac	-0.009739321
9	0xbd838c32	-0.064232245
10	0xbbf64363	-0.0075153573
11	0xbcc1027e	-0.023560759
12	0x3d25cbb5	0.040477473
13	0x3c75b878	0.014997594
14	0xbc7cfde8	-0.015441395
15	0x3d473499	0.048634145
16	0x3c74587c	0.014913674
17	0x3d027b4a	0.03185586
18	0x3d4e0c60	0.05030477
19	0xbc366448	-0.011132307
20	0x3d6df019	0.058090303
21	0x3bf3c6a1	0.00743945
22	0xbd87a350	-0.06622946
23	0x3c3e72b7	0.01162403
24	0xbd84d437	-0.06485789
25	0x3c0ca368	0.008583881
26	0xbd74d86d	-0.059776712
27	0xbd578e0f	-0.052625712
28	0xbb188c80	-0.0023277104
29	0xbad79d00	-0.0016449988
30	0xba89bf0a	-0.0010509205
31	0xbd76fb26	-0.060298108
32	0x3cd9d4b0	0.026590675
33	0x3bbb9800	0.005724907
34	0xbd695328	-0.05696407
35	0xbd8463c8	-0.06464344
36	0x3c31bda5	0.010848437
37	0x3d2a9192	0.041642733
38	0x3c024ed8	0.007953368
39	0x3c808ca2	0.015692059
40	0xbc0855fc	-0.0083212815
41	0xbc433dce	-0.011916591
42	0xbd5646a2	-0.052313454
43	0xbc9210d0	-0.017830282
44	0x3d2fdca7	0.04293504
45	0xbd41089c	-0.04712735
46	0x3cb68758	0.022281334
47	0xbbfa7330	-0.007643126
48	0xbd760540	-0.0600636
49	0x3d6af592	0.0573631
50	0xbd84a7cb	-0.064773165
51	0xbce168ba	-0.027515758
52	0xbc3b98cc	-0.011450004
53	0xbc8aa1b0	-0.016922802
54	0xbbaa7e01	-0.005203009
55	0xbd81af7a	-0.063322976
56	0x3bb61bb0	0.0055575
57	0xbd33e918	-0.043923467
58	0x3d7a994c	0.06118135
59	0xbcd617a8	-0.026134327
60	0xbcdaf752	-0.02672926
61	0xbd36b0e8	-0.044602305
62	0xbc1c1328	-0.009526052
63	0x3c0dce40	0.008655131

hyper_w1.2.weight f4 [64, 64]
0	0x3db3000e	0.08740245
1	0x3c8cf698	0.017207429
2	0x3aa3ef00	0.0012507141
3	0x3dd1b1e9	0.10239012
4	0xbda73ac4	-0.081655055
5	0x3d197670	0.037466466
6	0xbd26e84c	-0.04074888
7	0x3da83d80	0.08214855
8	0x3dd49882	0.10380651
9	0xbd30f9dc	-0.043207034
10	0xbdcb54af	-0.099282615
11	0xbd93295e	-0.071856245
12	0xbd228ca9	-0.039684925
13	0xbdfda5a2	-0.123851076
14	0xbd345e47	-0.044035222
15	0xbd8eb30c	-0.06967744
16	0x3dc79447	0.097450785
17	0x3c1a5188	0.009418853
18	0x3ddb3d00	0.10704994
19	0x3de4d484	0.11173347
20	0x3d70286b	0.058632296
21	0x3d774e0e	0.060377173
22	0x3db9538a	0.09049137
23	0x3ddcac3b	0.10775038
24	0x3de2610e	0.11053668
25	0xbd02b164	-0.031907454
26	0x3dc03a5c	0.09386131
27	0x3dcafa2c	0.09910998
28	0xbd541eac	-0.051787063
29	0xbd88e2a8	-0.06683856
30	0x3d38b73f	0.045096632
31	0x3ca3c030	0.019989103
32	0xbd33f1e0	-0.04393184
33	0xbd2f88b0	-0.042854965
34	0x3cee3146	0.02907623
35	0x3df52d53	0.119715355
36	0x3de9dead	0.11419425
37	0xbd9a6a6c	-0.075398296
38	0x3dc906a1	0.098157175
39	0xbdf810c0	-0.1211257
40	0x3de4bc78	0.1116876
41	0x3ddc8a49	0.10768563
42	0x3db889bb	0.09010645
43	0x3d0bfaae	0.034174614
44	0x3bc6c043	0.0060654
45	0x3b98c200	0.0046617985
46	0xbcc37b60	-0.02386254
47	0xbd3edd28	-0.04659763
48	0x3b1950e9	0.0023394173
49	0x3d4a3a63	0.04937209
50	0xbd23287c	-0.03983353
51	0xbc89ddc8	-0.016829386
52	0x3d0b8a44	0.034067407
53	0xbda9f2c6	-0.082982585
54	0x3d0ba06d	0.03408854
55	0x3de6e0b0	0.112733245
56	0x3da59590	0.080851674
57	0xbda4e3ea	-0.08051284
58	0x3c8c7c3e	0.017149087
59	0x3d8a0524	0.06739262
60	0xbdb43d72	-0.08800782
61	0xbddf5b04	-0.10906032
62	0xbdf77e72	-0.120846644
63	0x3d15fb00	0.036616325
64	0x3b94f7f2	0.004546159
65	0x3c7180d0	0.014740184
66	0x3cd31c18	0.025770232
67	0x3d7b84f3	0.061406087
68	0x3dd83658	0.1055724
69	0xbce041e0	-0.027375162
70	0x3df99d0a	0.12188156
71	0xbd8ba074	-0.068177134
72	0x3ab77500	0.0013996661
73	0xbdde77aa	-0.10862668
74	0x3dc18760	0.09449649
75	0xbd97486c	-0.0738686
76	0x3d0b0333	0.033938598
77	0xbcdd55b6	-0.02701841
78	0x3ddd9e9b	0.10821267
79	0xbd304fae	-0.04304474
80	0xbde67d31	-0.11254347
81	0x3d123d1d	0.035702813
82	0xbc8eb438	-0.01741992
83	0x3dc1bc4e	0.094597444
84	0x3d5b8a24	0.053598538
85	0x3cd866de	0.026416238
86	0x3d0b6dc7	0.03404024
87	0x3db278d8	0.08714455
88	0xbc529250	-0.012852266
89	0xbd81223c	-0.06305358
90	0xbbe7860c	-0.00706554
91	0x3da26947	0.07930236
92	0xbd5b1e88	-0.053495914
93	0xbbc714a0	-0.0060754567
94	0x3d3e2222	0.04641927
95	0xbc98f0b3	-0.018669462
96	0xbdd11a4c	-0.10210094
97	0xbd327ddc	-0.04357706
98	0xbdb1aabc	-0.08675143
99	0x3d6a802d	0.057251144
100	0xbd43a40b	-0.047763865
101	0xbc3b2820	-0.011423141
102	0xbdce0a46	-0.10060553
103	0x3d28fb76	0.041255437
104	0xbbefec23	-0.007321851
105	0x3dc6358b	0.09678181
106	0xbcac4bf6	-0.021032315
107	0x3d4a6dc9	0.049421106
108	0x3ddcbd82	0.10778333
109	0xbc1901b0	-0.009338781
110	0x3dfe50fc	0.1241779
111	0x3c9199a0	0.01777345
112	0x3ddfaf37	0.109220915
113	0xbdd82c4a	-0.105553225
114	0x3d8549de	0.0650823
115	0x3d6034dc	0.05473791
116	0x3d37e6f0	0.044897974
117	0x3c5bf4a0	0.013425022
118	0x3cc822df	0.02443069
119	0xbd8db494	-0.06919208
120	0x3caae8e8	0.020863011
121	0x3dbbb684	0.091656715
122	0xbd0a93fd	-0.03383254
123	0xbd106888	-0.03525594
124	0xbdbd1f30	-0.09234464
125	0x3d6ecc8f	0.05830055
126	0x3d782cbc	0.060589537
127	0xbc3d96c0	-0.011571586
128	0x3cb34459	0.021883177
129	0x3d8cd75e	0.068770155
130	0x3d50d974	0.05098863
131	0x3dc2a566	0.095042035
132	0xbdbd0444	-0.09229329
133	0xbdb353d4	-0.08756223
134	0x3dcc52f4	0.099767596
135	0x3deb2a80	0.114827156
136	0xbdf8dc44	-0.12151387
137	0xbc380c30	-0.0112333745
138	0x3da3812c	0.07983622
139	0xbd70336c	-0.05864279
140	0x3d920a00	0.071308136
141	0xbdcf2d7d	-0.10116098
142	0xbdc7c6a5	-0.09754685
143	0x3db1a8ef	0.086748
144	0x3dfb4b50	0.12270224
145	0x3de3f684	0.111310035
146	0x3dd250fe	0.10269354
147	0x3d5c92ac	0.053850815
148	0xbda3a699	-0.0799076
149	0x3c1e2fce	0.009654952
150	0xbd1d0145	-0.03833129
151	0xbd292aa9	-0.04130045
152	0x3da6a02a	0.081360176
153	0x3ca575a8	0.020197704
154	0x3c2fcbbf	0.010729729
155	0xbca83aa5	-0.020535776
156	0x3dfc360e	0.123149976
157	0x3dd15d70	0.102229
158	0xbd47651e	-0.048680417
159	0xbdab92fa	-0.08377643
160	0xbd18eac8	-0.03733328
161	0xbddde9d6	-0.10835616
162	0x3db3ffab	0.08788999
163	0xbdf50ef3	-0.11965742
164	0xbdbd0064	-0.0922859
165	0x3bab29dd	0.0052234964
166	0x3ddc3786	0.10752778
167	0x3d8e9192	0.06961359
168	0xbd79c7a4	-0.060981408
169	0xbc139415	-0.0090074735
170	0xbd870d86	-0.06594376
171	0x3b19552a	0.002339671
172	0xbd7099cb	-0.05874042
173	0x3db8358a	0.08994587
174	0xbdcc915e	-0.09988664
175	0xbdb47896	-0.088120624
176	0x3d9ad846	0.07560782
177	0x3d8e92d3	0.06961598
178	0x3df24138	0.11828846
179	0x3d91326e	0.07089697
180	0x3c4b3e30	0.012404963
181	0xbdfc9372	-0.123328105
182	0x3dd13c78	0.102166116
183	0x3da7c8ce	0.08192597
184	0x3da536da	0.08067103
185	0xbdddc0da	-0.10827799
186	0xbceb3c93	-0.028715407
187	0x3b6295c0	0.0034574121
188	0xbd2d1344	-0.0422547
189	0x3dabe6cc	0.083936304
190	0x3dcb26e4	0.09919527
191	0xbd70d0c0	-0.05879283
192	0xbb3029bc	-0.0026880344
193	0xbb373400	-0.0027954578
194	0xbde1a49c	-0.11017725
195	0x3db578e1	0.088609464
196	0xbd842d14	-0.064539105
197	0x3c55075b	0.013002242
198	0xbd01a854	-0.03165467
199	0x3ca72728	0.020404413
200	0x3c28a330	0.010292813
201	0xbd25638c	-0.04037814
202	0xbbac157b	-0.005251584
203	0x3d8201bc	0.06347987
204	0xbdf502c5	-0.11963419
205	0x3c2b9d92	0.010474579
206	0xbd565465	-0.05232658
207	0x3caae3b7	0.020860536
208	0x3df9a1ea	0.12189086
209	0x3d03cb0f	0.032176074
210	0x3dd4f9b8	0.103991926
211	0xbd30e5d8	-0.043187946
212	0xbd081885	-0.03322651
213	0xbd6e857c	-0.05823277
214	0xbd9546d1	-0.07288898
215	0xbd88db65	-0.06682471
216	0x3c7dae60	0.015483469
217	0xbdac2750	-0.08405936
218	0xbdbad941	-0.09123469
219	0x3d84fd74	0.06493655
220	0xbd9bb5b8	-0.076030195
221	0x3cdf9948	0.02729477
222	0xbd212b2f	-0.039347824
223	0x3d352d46	0.04423263
224	0xbd2b26d0	-0.04178506
225	0x3c9e2ce8	0.019308522
226	0xbdfa9137	-0.12234729
227	0xbb881339	-0.004152682
228	0xbd6d8d71	-0.057996217
229	0x3dc5aa36	0.09651606
230	0xbd91b6aa	-0.071149185
231	0xbc6440c9	-0.013931462
232	0xbdb6e193	-0.089297436
233	0x3d08c835	0.033394057
234	0xbcae65b2	-0.021288726
235	0x3dba9989	0.09111316
236	0x3c737f31	0.014861868
237	0xbd82b506	-0.06382184
238	0x3df8c3c2	0.12146713
239	0xbdc41e9e	-0.09576152
240	0xbbc52c91	-0.0060172756
241	0xbcd4fcf6	-0.025999527
242	0x3cb484f0	0.022036046
243	0x3da0deb4	0.07854977
244	0x3d252134	0.040314868
245	0xbb475e00	-0.0030421019
246	0xbdf586f3	-0.1198863
247	0xbd2c8004	-0.042114273
248	0x3d96394c	0.07335147
249	0x3de789be	0.11305569
250	0xbdcf517e	-0.10122965
251	0x3bd818c0	0.0065947473
252	0xbdc55d10	-0.09636891
253	0xbda49caa	-0.08037694
254	0x3cae2638	0.021258458
255	0xbdaed810	-0.085373044

hyper_w1.2.bias f4 [64]
0	0xbdbc8a7f	-0.092061035
1	0x3dc003f5	0.09375755
2	0x3c2c24dd	0.010506836
3	0x3c6fe189	0.014641174
4	0x3d44d70a	0.04805664
5	0x3d9eba3d	0.07750366
6	0x3d317d2a	0.043332256
7	0xbde91ce0	-0.113824606
8	0xbd5e1737	-0.05422136
9	0x3d47ba41	0.04876161
10	0x3dd6d36b	0.104895435
11	0x3d5f70f1	0.05455107
12	0xbccc8263	-0.024964517
13	0xbd0a76aa	-0.033804573
14	0x3d1f3646	0.03887012
15	0x3db393cf	0.087684266
16	0xbd56b128	-0.052415043
17	0x3d94bc5e	0.07262491
18	0x3df33a93	0.118764065
19	0x3d9e3d51	0.07726539
20	0x3c79388f	0.0152112385
21	0x3ccb19be	0.024792548
22	0xbd4ae77e	-0.049537174
23	0x3d9ff5df	0.07810568
24	0xbac9398a	-0.0015352231
25	0x3c2e1bef	0.010626777
26	0x3d9871fb	0.07443615
27	0xbd2aaac7	-0.041666772
28	0x3c773817	0.015089056
29	0xbc78ba90	-0.015181199
30	0xbd982568	-0.0742901
31	0x3d0669e1	0.032815818
32	0xbd5db555	-0.05412801
33	0xbb4ed34d	-0.003155905
34	0xbc91c210	-0.017792732
35	0xbd4c0695	-0.049810965
36	0x3da3ae4c	0.07992229
37	0xbdf2e59a	-0.11860199
38	0xbd38e9d6	-0.04514488
39	0x3d4d0415	0.05005272
40	0x3d880339	0.0664124
41	0xbd03e00f	-0.0321961
42	0xbdf53eb9	-0.11974854
43	0x3ceca965	0.028889367
44	0xbd9b89ff	-0.0759468
45	0x3d66b6a8	0.05632654
46	0x3da7cc00	0.08193207
47	0xbda805aa	-0.08204205
48	0x3c316e67	0.010829545
49	0xbd508f98	-0.05091819
50	0xbd6d3c0c	-0.057918593
51	0x3dfba6d7	0.122876815
52	0x3d9c4f5c	0.07632324
53	0x3d39c761	0.04535616
54	0x3db6f4ad	0.08933387
55	0x3d75699a	0.059915163
56	0xbd648882	-0.055794246
57	0x3c6e91e8	0.014561154
58	0xbdb468aa	-0.088090256
59	0xbd882162	-0.06646992
60	0x3dd67455	0.10471407
61	0x3d6fc0fa	0.058533646
62	0x3db0a4db	0.08625194
63	0xbde59207	-0.11209493

hyper_w2.0.weight f4 [64, 230]
0	0x3c22bc6d	0.0099326195
1	0x3d1ab33a	0.03776858
2	0xbcda5b26	-0.026654791
3	0xbd0d0e6c	-0.034437582
4	0x3d3c06d9	0.045904968
5	0xbd4d2872	-0.0500874
6	0x3af12a28	0.0018399404
7	0xbd7b2c9f	-0.06132185
8	0x3d7647b5	0.06012698
9	0xbb60b8ec	-0.003428991
10	0x3c7245ed	0.014787179
11	0xbcb77a74	-0.022397257
12	0x3b846e6a	0.0040414827
13	0xbd682a11	-0.056680743
14	0xbc25eff3	-0.010128009
15	0x3ba0f5fa	0.004912135
16	0xbd2bf860	-0.041984916
17	0x3d6d0f7b	0.05787609
18	0x3ceb449e	0.028719243
19	0x3b028934	0.0019918205
20	0x3d761969	0.060082827
21	0x3cf59e86	0.029982816
22	0xbbac9b11	-0.005267509
23	0x3ca49fc2	0.02009571
24	0x3c2be904	0.010492567
25	0xbcfe6900	-0.031055927
26	0xbd6b5537	-0.057454314
27	0x3d76a48e	0.060215525
28	0xbd611437	-0.05495092
29	0x3c9d2eca	0.01918735
30	0x3d609b07	0.054835346
31	0xbd72e220	-0.05929768
32	0x3d2d724f	0.04234534
33	0xbd4caf4b	-0.04997186
34	0x3c9445e2	0.018099729
35	0xbc466d1b	-0.012110974
36	0xbd026996	-0.031838976
37	0x3d7b6cc5	0.061383028
38	0xbcfe06ea	-0.031009156
39	0xbd65344e	-0.055958085
40	0xbd0ce17f	-0.034394737
41	0xbd7838af	-0.060600933
42	0xbd18a72e	-0.03726881
43	0xbd8335e3	-0.064067625
44	0x3d6f3bf3	0.05840678
45	0x3d4f25ce	0.050573163
46	0x3d23d1a1	0.03999484
47	0x3cde03cf	0.027101425
48	0x3d3ca0c9	0.046051774
49	0xbc43951f	-0.011937409
50	0xbd586d9b	-0.052838903
51	0xbd8160a9	-0.063172646
52	0x3c61fbad	0.013792914
53	0x3c92326a	0.017846305
54	0xbd0bdcf3	-0.03414626
55	0xbd53640c	-0.051609084
56	0xbd7a8f7e	-0.061172
57	0xbd1d0c57	-0.038341846
58	0xbd51063b	-0.051031332
59	0x3d75a309	0.059969936
60	0xbcd31ed8	-0.025771543
61	0x3ccb6c3e	0.024831887
62	0x3d26143d	0.040546644
63	0x3aa01928	0.0012214528
64	0x3d18ba3b	0.03728698
65	0x3cb8a7b2	0.0225409
66	0xbd68395f	-0.05669534
67	0x3d7c72b4	0.061632827
68	0xbcdd68c2	-0.027027491
69	0x3cb5c1c8	0.022187129
70	0xbd65b716	-0.056082807
71	0x3bf7d1da	0.007562858
72	0xbd12c7a9	-0.035834942
73	0x3d4cffa3	0.05004848
74	0xbb990f0e	-0.004670984
75	0x3d266ee9	0.040633116
76	0x3d69402d	0.05694597
77	0x3d789f21	0.060698632
78	0xbd06c30c	-0.032900855
79	0x3ce2a45e	0.027666267
80	0x3d44e369	0.048068438
81	0x3d4b20c3	0.04959179
82	0x3d249f9f	0.04019129
83	0xbd5a0ad5	-0.053232986
84	0xbd716fb4	-0.05894442
85	0x3c6fddf5	0.014640321
86	0xbd446709	-0.047949824
87	0xbd80b283	-0.062840484
88	0x3d337551	0.043813054
89	0x3ba362e3	0.0049861534
90	0x3d4e48cf	0.050362404
91	0x3d14d95a	0.036340095
92	0x3cd21631	0.025645347
93	0x3d829498	0.06375998
94	0x3c55635c	0.013024177
95	0x3d540386	0.051761173
96	0x3d57c093	0.052673887
97	0x3c9dd1e2	0.019265119
98	0x3b51d79a	0.0032019378
99	0x3d03c476	0.03216978
100	0xbc84fdaa	-0.016234238
101	0xbd1056bc	-0.035238966
102	0x3d7205f6	0.059087716
103	0x3cae2b9c	0.021261029
104	0x3d86208d	0.06549177
105	0x3d01fdd0	0.031736195
106	0x3c1e7108	0.009670503
107	0xbd52ee05	-0.051496524
108	0x3d215413	0.03938682
109	0xbbf873b8	-0.007582154
110	0xbd7a063c	-0.0610411
111	0x3bbab220	0.0056975037
112	0x3d7962ea	0.060885347
113	0x3ba85ce0	0.0051380247
114	0x3d1b874e	0.037970833
115	0x3c866e22	0.016409937
116	0xbc8de33d	-0.01732027
117	0xbd04d117	-0.032425966
118	0x3d373cc8	0.0447357
119	0x3d594e5f	0.053053256
120	0x3d512ad1	0.051066224
121	0x3d74397f	0.059625145
122	0x3994459f	0.00028280632
123	0xbcc1d822	-0.02366263
124	0xbd413479	-0.047169182
125	0x3b20ecd4	0.0024555223
126	0x3d35f0a7	0.044418957
127	0xbc05d157	-0.008167586
128	0x3bd11bba	0.006381479
129	0x3c6ccb8d	0.014452827
130	0x3cef0066	0.029174995
131	0xbd64051f	-0.055668946
132	0x3cdc616e	0.026901927
133	0x3d5bcc63	0.053661715
134	0x3d3dc0c7	0.046326425
135	0xbb8c431e	-0.004280462
136	0x3bc6806a	0.0060577886
137	0xbd15b3bd	-0.036548365
138	0xbd4d18cf	-0.050072487
139	0x3c9c266a	0.019061286
140	0x3d3b077c	0.045661435
141	0xbd2cabcc	-0.042156026
142	0xbd174940	-0.03693509
143	0x3b81d92a	0.0039626556
144	0xbb0beb2c	-0.002134989
145	0x3d1ae077	0.037811723
146	0xbd520edb	-0.0512837
147	0x3ccee61a	0.025256205
148	0xbd805ea9	-0.06268055
149	0xbd64691e	-0.05576431
150	0x3d5b7e0f	0.053587016
151	0x3cb50852	0.022098694
152	0x3c60bef5	0.013717403
153	0xbce8668c	-0.02836921
154	0xbd6a5f3d	-0.057219733
155	0x3d477b57	0.04870161
156	0xbd4ed9bd	-0.05050062
157	0xbc503fb7	-0.012710503
158	0x3d69473b	0.056952696
159	0x3bd99de6	0.0066411374
160	0x3d45b0c0	0.048264265
161	0x3cdd0812	0.026981387
162	0xbcfa6935	-0.030567745
163	0x3d49a1e5	0.04922666
164	0xbd81bd3a	-0.0633492
165	0x3c59a4e5	0.013283943
166	0x3d6c5f5b	0.057708126
167	0x3d558ac1	0.05213428
168	0x3d19b763	0.037528407
169	0x3c257735	0.010099222
170	0x39d87a9f	0.0004129009
171	0xbd3252bd	-0.043535937
172	0x3c4f8935	0.01266699
173	0xbcf70be2	-0.030157033
174	0xbd3769af	-0.044778522
175	0x3d7ebf81	0.06219435
176	0x3cf7398e	0.030178811
177	0xbd1c8329	-0.03821102
178	0x3b544054	0.0032386975
179	0xbd2b956b	-0.041890543
180	0xbd3150fb	-0.04329012
181	0x3bb3dcc9	0.005488966
182	0x3d4c3c40	0.049862146
183	0xbd53630b	-0.051608127
184	0x3cb82dac	0.022482716
185	0x3d09226f	0.033480104
186	0xbd3fa1fd	-0.046785343
187	0xbc7a9c2f	-0.015296026
188	0x3d809a07	0.062793784
189	0x3d79da81	0.060999397
190	0x3d821efd	0.06353567
191	0xbd75b692	-0.059988566
192	0x3d011ccb	0.0315216
193	0xbcef103a	-0.029182542
194	0xbd7e3b8d	-0.06206851
195	0xbce4231a	-0.027848769
196	0x3d85fe35	0.06542627
197	0xbd7a7438	-0.06114599
198	0xbcd79db0	-0.026320308
199	0x3cd19bf6	0.025587063
200	0x3c28281d	0.01026347
201	0x3d6dec93	0.058086943
202	0x3c17e21d	0.009270218
203	0xbc46f771	-0.012143956
204	0x3d212ee4	0.03935136
205	0x3d103c09	0.035213504
206	0x3d1b87e8	0.037971407
207	0x3cf1a525	0.029497692
208	0x3d4c8a3a	0.04993651
209	0xbd6a41fd	-0.057191838
210	0x3d60d95e	0.054894798
211	0xbb867328	-0.004103083
212	0xbabfd440	-0.0014635399
213	0x3c506c58	0.012721144
214	0xbd60fcd9	-0.054928634
215	0xbcc3f9d2	-0.023922835
216	0x3bb771f0	0.005598299
217	0x3d82bd95	0.06383816
218	0xbc879536	-0.016550642
219	0x3d3bfd40	0.045895815
220	0x3d4bb18e	0.049729876
221	0xbb8ad908	-0.004237298
222	0x3d7a6aee	0.061137132
223	0x3d661ecb	0.05618171
224	0x3cb114ec	0.021616422
225	0x3d7c4b3e	0.061595194
226	0x3d41168a	0.047140636
227	0x3d84e943	0.06489804
228	0x3d5ad3c8	0.053424627
229	0xbc08aea8	-0.008342423
230	0x3d045af9	0.03231332
231	0xbb952f30	-0.0045527443
232	0x3d60f25f	0.054918643
233	0xbd3930ed	-0.045212675
234	0x3ced78dd	0.028988296
235	0x3d41cb8d	0.04731326
236	0xbd03de87	-0.03219464
237	0x3d5fb0bd	0.05461191
238	0xbbbe4135	-0.005806113
239	0x3cf11cc7	0.029432667
240	0x3b87105b	0.004121823
241	0xbcae49f9	-0.021275507
242	0xbcfd9ad9	-0.030957626
243	0xbd2f44af	-0.04279011
244	0x3d205ef9	0.039153073
245	0xbd7f105a	-0.062271453
246	0xbc2dd097	-0.010608814
247	0x3c0ef2f5	0.008724918
248	0xbb872315	-0.004124055
249	0x3c58af55	0.013225396
250	0x3d838118	0.06421107
251	0xbd0c61e9	-0.034273062
252	0x3d411e81	0.04714823
253	0xbbab6014	-0.0052299593
254	0x3d718275	0.058962304
255	0xbd27d9ec	-0.04097931

hyper_w2.0.bias f4 [64]
0	0xbc5dfc39	-0.013548904
1	0xbcaed8d7	-0.021343632
2	0xbb5a3fbc	-0.0033302149
3	0x3d13bd5c	0.03606926
4	0xbd2d1d8e	-0.042264514
5	0x3d7da3cb	0.061923783
6	0x3d21d3ca	0.03950862
7	0x3d830b1f	0.063986056
8	0xbce1dbc0	-0.027570605
9	0xbc9323ae	-0.01796135
10	0x3cd03748	0.025416985
11	0x3d023d91	0.031796996
12	0x3d156230	0.036470592
13	0x3c830baa	0.015996773
14	0x3c1645ec	0.009171944
15	0xbd4dbeba	-0.05023072
16	0x3b294560	0.0025828704
17	0x3cd3dd10	0.025862247
18	0xbd1e88d5	-0.038704712
19	0xbd8180af	-0.063233726
20	0x3cfaecc8	0.030630484
21	0x3d548731	0.05188674
22	0x3d1da009	0.0384827
23	0x3d4a3754	0.04936917
24	0xbcfa3c4d	-0.030546332
25	0xbce00844	-0.027347691
26	0x3b5458db	0.0032401595
27	0xbd2e633c	-0.042575106
28	0xbc6f4514	-0.014603872
29	0xbcb990b0	-0.022652
30	0x3c614583	0.013749483
31	0xbd85ef81	-0.06539822
32	0xbd4ad6a6	-0.04952111
33	0x3c3c7950	0.0115035325
34	0x3cfaf370	0.030633658
35	0x3cff083f	0.031131862
36	0xbd1ed056	-0.038772903
37	0xbc0864b0	-0.008324787
38	0x3d158d1f	0.036511537
39	0xbd125692	-0.03572709
40	0xbd4e618e	-0.050386004
41	0x3a232e00	0.0006224811
42	0xbd3b7068	-0.045761496
43	0xbcd5fbe2	-0.026121084
44	0xbd070f1c	-0.032973394
45	0x3d19058a	0.037358798
46	0x3cd17970	0.025570601
47	0x3d2a2e91	0.041548315
48	0x3abed100	0.0014558136
49	0x3c888053	0.016662752
50	0xbcd9d318	-0.026589915
51	0x3d8652fd	0.065587975
52	0x3d06ea24	0.032938138
53	0x3cbb9e10	0.022902519
54	0x3d6d6197	0.057954397
55	0xbba6ff04	-0.005096318
56	0x3cd274e0	0.025690496
57	0xbd5a9a14	-0.053369597
58	0xbb14eb2e	-0.0022723186
59	0xbd8221bd	-0.06354091
60	0x3b9a1288	0.004701916
61	0x3d0400af	0.032227214
62	0xbd81aa5a	-0.0633132
63	0xbd55fe1d	-0.052244294

hyper_w2.2.weight f4 [32, 64]
0	0xbd66725d	-0.05626141
1	0x3d2a3e97	0.041563597
2	0x3d9c827a	0.07642074
3	0xbd38bb4c	-0.045100495
4	0xbde805f5	-0.11329261
5	0xbd8ef082	-0.06979467
6	0xbc00c540	-0.007859528
7	0x3d13a0c0	0.036041975
8	0x3d899204	0.067173034
9	0x3debfab6	0.11522429
10	0xbdaf9dce	-0.08575021
11	0xbdb7cf98	-0.08975142
12	0xbd183861	-0.037163142
13	0x3d70c973	0.058785867
14	0x3dfb23e7	0.12262707
15	0xbd8c5782	-0.06852628
16	0x3d6a27d4	0.05716689
17	0x3c9c8ee8	0.019111112
18	0xbdf1b35e	-0.1180179
19	0xbdf43746	-0.11924605
20	0xbddde182	-0.10834028
21	0x3dbd655a	0.09247847
22	0xbc238683	-0.009980801
23	0x3b037fb7	0.0020065138
24	0x3ca5fa4e	0.020260956
25	0x3de3506e	0.11099325
26	0xbd8bda5a	-0.06828757
27	0xbd18eab8	-0.03733322
28	0xbca31d30	-0.019911379
29	0xbdbba5ca	-0.09162481
30	0x3df3a9ba	0.11897607
31	0x3d80f9dc	0.06297657
32	0xbdcf41f0	-0.101199985
33	0xbdb7ab06	-0.08968167
34	0x3da02c7c	0.07820985
35	0x3d9f074c	0.07765064
36	0xbdf4e152	-0.11957039
37	0xbd8167be	-0.063186154
38	0xbdcc1092	-0.09964098
39	0xbd4d9b98	-0.050197214
40	0x3cb9b14d	0.022667551
41	0xbd82bf9a	-0.06384201
42	0xbdca583c	-0.098801106
43	0x3ce42426	0.027849268
44	0xbddd0f06	-0.10793881
45	0x3d180ea4	0.037123337
46	0x3dddc17a	0.10827918
47	0x3d3efe87	0.046629455
48	0x3df7a2fa	0.12091632
49	0x3dfd7206	0.12375264
50	0x3db045b4	0.08607045
51	0x3daf593a	0.085619405
52	0x3d1e9a17	0.03872117
53	0xbc801400	-0.015634537
54	0xbdeeff43	-0.11669781
55	0xbc132713	-0.008981484
56	0x3c0ba681	0.008523584
57	0xbddab4a6	-0.10678987
58	0xbde001b2	-0.10937823
59	0xba92f91a	-0.0011213154
60	0x3dba7b46	0.09105544
61	0x3b28f036	0.0025777943
62	0x3df8e272	0.12152566
63	0xbd6dffa8	-0.05810514
64	0x3da46276	0.080265924
65	0x3ddc21ef	0.1074866
66	0x3d9ddc45	0.07708029
67	0x3da7c40c	0.0819169
68	0xbda0defb	-0.0785503
69	0x3e005d2c	0.12535542
70	0x3d9c877a	0.076430276
71	0x3dab65c6	0.08369021
72	0xbdef6e2e	-0.11690937
73	0x3d736feb	0.059432905
74	0x3d755d8b	0.059903663
75	0x3be888d8	0.007096391
76	0x3cdbf96e	0.026852336
77	0xbc56692e	-0.0130866
78	0x3d87e147	0.06634765
79	0x3d8b0074	0.06787196
80	0x3d33e718	0.04392156
81	0x3c389bc0	0.011267602
82	0x3dec1e70	0.11529243
83	0x3d9c0318	0.076177776
84	0x3daef304	0.08542445
85	0x3de5de24	0.112240106
86	0x3c1f482d	0.009721798
87	0xbc69da92	-0.014273303
88	0xbd397d36	-0.045285426
89	0x3de08f9e	0.10964893
90	0x3d1eda5c	0.038782462
91	0xbdfd44c2	-0.1236663
92	0xbda00152	-0.07812752
93	0xbd0dfc50	-0.034664452
94	0xbd79f3e6	-0.061023615
95	0xbdc9091e	-0.09816192
96	0xbdbf9254	-0.09354082
97	0x3c27d080	0.010242581
98	0xbd916f1a	-0.07101269
99	0x3d908fb0	0.07058656
100	0x3d361410	0.044452727
101	0xbda333d6	-0.07968871
102	0xbbde1726	-0.006777662
103	0x3ceae6a0	0.028674424
104	0xbda11a57	-0.07866352
105	0xbdeac67e	-0.11463641
106	0xbce88e58	-0.028388187
107	0xbd9c1dcf	-0.07622873
108	0x3cbe1d60	0.023207366
109	0x3df70c88	0.12062937
110	0x3dd820c6	0.10553126
111	0x39833fac	0.00025033706
112	0xbd3117bc	-0.043235525
113	0x3d0b1afb	0.033961277
114	0x3d8c01da	0.06836291
115	0xbd357ed8	-0.04431042
116	0xbde7b393	-0.11313548
117	0x3dcc3e28	0.09972793
118	0xbc832dfb	-0.016013136
119	0xbd3b96de	-0.045798175
120	0xbda1cc44	-0.07900289
121	0x3c6269dc	0.013819184
122	0x3dbb600a	0.09149177
123	0x3da70a78	0.08156294
124	0xbd156c6d	-0.036480356
125	0xbd21b581	-0.039479736
126	0xbb06740a	-0.0020515942
127	0xbcf74620	-0.030184805
128	0x3dbffe36	0.09374659
129	0xba637082	-0.0008676128
130	0x3ce636a6	0.02810223
131	0x3dd7bacc	0.105336756
132	0xbb61fc74	-0.003448275
133	0x3d5efb77	0.054439034
134	0xbdafe4ee	-0.08588587
135	0xbcdf38f0	-0.02724883
136	0xbd91b375	-0.07114307
137	0x3de7e5bf	0.113231175
138	0xbcffe620	-0.031237662
139	0x39a0dc2a	0.00030681613
140	0xbd2d0843	-0.042244207
141	0xbc73e6d2	-0.014886575
142	0xbcdaac03	-0.02669335
143	0x3deecade	0.116597876
144	0xbdec0c72	-0.11525811
145	0x3de3a56e	0.111155376
146	0x3dcc67a2	0.09980704
147	0x3d103554	0.035207108
148	0xbddb7ea6	-0.10717516
149	0x3dafb5fd	0.085796334
150	0xbd9b842f	-0.075935714
151	0x3d8b52ce	0.06802903
152	0x3db41382	0.08792783
153	0x3ddc3f4a	0.10754259
154	0x3cef4dc6	0.02921189
155	0xbd69a6c8	-0.05704382
156	0xbd30f1f8	-0.04319951
157	0xbd0dc6a4	-0.034613267
158	0x3de3c695	0.11121861
159	0x3da8c600	0.082408905
160	0xbd8a8be6	-0.06764965
161	0x3da806a2	0.0820439
162	0xbdae6988	-0.08516222
163	0xbdd0d46b	-0.101967655
164	0x3db73462	0.08945538
165	0x3d4eb3d9	0.050464485
166	0x3dfcfe31	0.12353171
167	0xbd2054e8	-0.039143473
168	0xbdf306d1	-0.118665345
169	0xbdd35af2	-0.10320081
170	0xbd048738	-0.032355517
171	0xbdc85e71	-0.09783638
172	0xbd52f668	-0.051504523
173	0xbd917acc	-0.071035
174	0x3d9336a2	0.07188155
175	0xbdb2386e	-0.08702169
176	0x3cd85b90	0.026410848
177	0x3dae8074	0.08520594
178	0x3d9e47cd	0.07728539
179	0xbd51656c	-0.051122114
180	0x3c92d518	0.017923877
181	0x3d573c28	0.052547604
182	0xbdc8ee94	-0.0981113
183	0xbc68d62d	-0.01421122
184	0xbcd34ce6	-0.025793504
185	0x3d526a8c	0.051371142
186	0x3d5e63b4	0.054294303
187	0xbcba4c39	-0.022741424
188	0x3d6e4773	0.058173608
189	0x3d95fb83	0.07323363
190	0x3c98acbd	0.018637056
191	0x3bdadc60	0.006679103
192	0xbda017ed	-0.078170635
193	0x3df8b1ee	0.121433124
194	0xbd8b00c3	-0.06787255
195	0xbda8a516	-0.08234613
196	0x3a5a279d	0.0008321943
197	0x3dc52419	0.09626026
198	0xbda412e4	-0.080114156
199	0x3dda47fc	0.10658261
200	0x3b1f9968	0.0024352912
201	0x3d8f70f7	0.07003968
202	0x3df49cbb	0.119439565
203	0x3d6f1852	0.058372803
204	0x3d7b8899	0.061409567
205	0xbddba289	-0.107243605
206	0x3dcd782a	0.10032685
207	0xba859500	-0.00101915
208	0xbb6549c0	-0.0034986585
209	0x3cfb90a8	0.030708626
210	0x3dafdd6e	0.08587156
211	0xbd6b3e1c	-0.05743228
212	0x3ce37f68	0.027770713
213	0x3cb2e3a6	0.021837067
214	0xbdf9a762	-0.12190129
215	0x3d312a12	0.043253012
216	0xbd10ed31	-0.035382453
217	0x3d32b46a	0.043629088
218	0xbd076f61	-0.033065204
219	0xbb567d80	-0.0032728612
220	0x3dd95eb0	0.10613763
221	0x3da9544a	0.0826803
222	0x3e00427b	0.1252536
223	0xbdb8e5be	-0.09028195
224	0xbcbe0038	-0.023193464
225	0xbd5ab4f8	-0.05339524
226	0xbdde1a9d	-0.1084492
227	0x3c8a8846	0.016910683
228	0x3cd57950	0.026058823
229	0xbce76762	-0.028247539
230	0xbd816b2a	-0.06319268
231	0x3d2553ec	0.040363237
232	0xbd299e9c	-0.041411027
233	0xbcb883e0	-0.02252382
234	0xbda58c04	-0.080833465
235	0x3db14ba9	0.08657009
236	0xbdc87c02	-0.097892776
237	0x3cc54650	0.02408138
238	0xbdbb5ac0	-0.091481686
239	0xbdd069f8	-0.10176462
240	0xbde22686	-0.11042504
241	0x3da94247	0.082645945
242	0x3db38493	0.08765521
243	0xbd961a76	-0.07329266
244	0xbdce2bf5	-0.10066978
245	0x3df83d6c	0.1212109
246	0xbdfda134	-0.12384263
247	0xbc1ffcad	-0.009764832
248	0xbde2fd26	-0.110834405
249	0xbdd761dd	-0.10516713
250	0x3ca06f56	0.01958434
251	0xbd33c955	-0.043893177
252	0x3dbc1b33	0.09184875
253	0xbd416ee5	-0.047224898
254	0xbd53a681	-0.051672462
255	0xbdea9f6c	-0.114561886

hyper_w2.2.bias f4 [32]
0	0xbd01af89	-0.031661544
1	0xbdb880b4	-0.09008923
2	0x3dac668a	0.08417995
3	0x3d136857	0.035988178
4	0xbca36c6e	-0.019949164
5	0x3dd251fa	0.10269542
6	0x3dbaf11e	0.09128021
7	0xbd20334d	-0.039111424
8	0x3d4628ef	0.04837888
9	0xbd826c36	-0.06368296
10	0xbd6d675d	-0.057959903
11	0xbc93318a	-0.017967958
12	0x3d726403	0.05917741
13	0xbd5cb2df	-0.053881522
14	0xbda9d48a	-0.08292492
15	0xbdc72b1c	-0.09725019
16	0xbd0024f9	-0.03128526
17	0x3defbf1a	0.117063716
18	0xbdc349f2	-0.09535588
19	0x3d0ad83b	0.03389762
20	0x3de11bba	0.109916165
21	0x3dde3e1e	0.10851692
22	0x3de537ac	0.11192259
23	0xbdf30057	-0.11865299
24	0x3d89ab9e	0.067221865
25	0x3dfc8750	0.12330496
26	0xbd1b1b1d	-0.037867654
27	0x3c6dea12	0.014521139
28	0xbdc09937	-0.094042234
29	0x3dd0f4c6	0.10202937
30	0x3d7ecb25	0.062205452
31	0xbdd8e2fc	-0.10590169

hyper_b1.weight f4 [32, 230]
0	0xbd6edfa0	-0.058318734
1	0x3ca7262c	0.020403944
2	0xbd77e53b	-0.060521346
3	0xbd4a2e63	-0.049360644
4	0x3c52537a	0.012837285
5	0x3d1a3365	0.03764667
6	0xbc569c1e	-0.013098745
7	0x3d202265	0.0390953
8	0xbce863bf	-0.028367875
9	0xbd452e3b	-0.048139792
10	0xbc2d0eea	-0.010562638
11	0xbc8ccf75	-0.017188767
12	0xbd5e4a03	-0.0542698
13	0x3cdaa9e7	0.026692344
14	0xbd816f06	-0.06320004
15	0x3b93ba2b	0.004508277
16	0x3a9bbf2d	0.0011882536
17	0x3d60b6cb	0.054861825
18	0x3d808638	0.062756
19	0xbcc7ef5b	-0.024406126
20	0xbcad7af1	-0.021176787
21	0xbd720ff0	-0.05909723
22	0xbd0f9978	-0.03505847
23	0xbbd61966	-0.0065337894
24	0x3c618c84	0.013766412
25	0x3d1083e2	0.035282023
26	0x3d1d3f96	0.03839072
27	0x3c274702	0.010209801
28	0x3c68aad6	0.014200887
29	0x3d3d6393	0.04623754
30	0x3d189e8b	0.037260573
31	0x3d3e54ed	0.04646771
32	0x3c1a9826	0.009435689
33	0xbc7c611a	-0.01540401
34	0x3d7f6d0f	0.062359866
35	0x3d66f575	0.05638643
36	0x3d7b1927	0.061303284
37	0xbd4c4f33	-0.049880218
38	0xbcba0d7f	-0.022711514
39	0x3d00e40f	0.031467494
40	0xbd5dbe4b	-0.054136556
41	0xbc57b61a	-0.013165975
42	0xbd7d66c1	-0.061865572
43	0xbd3697b3	-0.044578265
44	0x3cc7bd79	0.02438234
45	0xbc8a50c6	-0.016884219
46	0xbd60811d	-0.054810632
47	0xbd1ed971	-0.038781587
48	0x3d7e6327	0.062106278
49	0x3d466619	0.04843721
50	0xbaefc9d3	-0.0018294401
51	0x389f2ecb	7.590427e-05
52	0xbd17ee9b	-0.037092786
53	0xbcf10457	-0.029421015
54	0x3d49cecd	0.049269486
55	0x3bcd2eeb	0.0062616966
56	0x3aeda2ad	0.0018130146
57	0xbd207ed1	-0.03918344
58	0x3c130296	0.0089727845
59	0x3cbb2987	0.02284695
60	0x3d80e7e0	0.06294227
61	0xbbc301e5	-0.0059511536
62	0xbc8adfe7	-0.016952468
63	0xbb0790ea	-0.002068574
64	0x3d4ebe31	0.05047435
65	0x3d1e51b1	0.038652126
66	0xbbaf7485	-0.0053544664
67	0x3c97b476	0.018518668
68	0xbd57a116	-0.052643858
69	0xbcd73bef	-0.026273696
70	0x3c706c2e	0.01467423
71	0xbd86aa87	-0.06575494
72	0xbd71baa1	-0.059015874
73	0x3d37656b	0.044774454
74	0x3c96c927	0.018406464
75	0x3ccaf29f	0.024773894
76	0x3d7a3e23	0.061094414
77	0xbcfdc4ad	-0.030977571
78	0xbc9127a3	-0.017719096
79	0xbcfc491d	-0.030796582
80	0xbcae7605	-0.02129651
81	0xbcea05e1	-0.028567256
82	0x3c87bc1f	0.016569195
83	0x3d60be2f	0.054868873
84	0xbced20e9	-0.028946357
85	0xbc967241	-0.018365027
86	0xbb41678a	-0.0029511177
87	0xbbbdb0ad	-0.0057888837
88	0x3d713428	0.05888763
89	0x3d63723a	0.055528857
90	0xbd04964a	-0.03236989
91	0x3c383a03	0.0112443
92	0xbd129c30	-0.035793483
93	0xbcc05206	-0.023476612
94	0xbc1edc3a	-0.009696061
95	0xbcf341ca	-0.029694457
96	0x3d2f59ac	0.042810127
97	0x3d109148	0.0352948
98	0xbcaaefee	-0.02086636
99	0xbd75e1c5	-0.060029764
100	0xbccad632	-0.02476034
101	0x3d339fdc	0.043853626
102	0xbd417b54	-0.047236755
103	0x3d0499c6	0.032373212
104	0xbbe6fad0	-0.007048942
105	0x3c3c5690	0.0114952475
106	0x3c4eeb08	0.012629278
107	0xbd2dd61e	-0.042440526
108	0x3d1d429f	0.038393613
109	0xbc45eea8	-0.012080826
110	0x3ca6d9c8	0.020367518
111	0x3bebdfd0	0.0071983114
112	0xbc77523c	-0.01509529
113	0xbc71d3b0	-0.014759943
114	0xbc68161c	-0.014165428
115	0xbd288bb3	-0.041148853
116	0x3cb687d8	0.022281572
117	0xbd5ec066	-0.054382704
118	0xbd48ac91	-0.048992697
119	0xbc86a503	-0.016436106
120	0x3bd5f6bc	0.006529657
121	0xbb56548a	-0.0032704198
122	0xbb9b6fa5	-0.0047435337
123	0x3cf50a07	0.029912008
124	0x3cb8bebf	0.022551892
125	0xbcf09e35	-0.029372314
126	0xbb4d75ca	-0.0031350725
127	0xbd3d9e59	-0.04629359
128	0x3d7166f3	0.05893607
129	0x3d80a026	0.06280546
130	0xbc9b6c23	-0.018972462
131	0xbcc4c535	-0.024019817
132	0x3d5ea0e3	0.054352652
133	0x3c51b286	0.012798911
134	0x3c1cd866	0.009573078
135	0x3caba00f	0.020950345
136	0x3cdca933	0.02693615
137	0xbd11d1c3	-0.035600435
138	0x3cbc5111	0.022987874
139	0x3d2e4beb	0.04255287
140	0x3d0a52b2	0.03377027
141	0x3bb5c942	0.0055476734
142	0x3d86087d	0.06544588
143	0x3d27b5d5	0.040944893
144	0xbd615217	-0.055009928
145	0xbd37ee76	-0.04490515
146	0xbc5ea8f2	-0.013590084
147	0x3c34ab0e	0.011027111
148	0xbd4a515c	-0.049393997
149	0x3d7a4c87	0.06110814
150	0xbd7d2818	-0.061805815
151	0x3b228fd6	0.0024804971
152	0x3d08a89b	0.03336392
153	0x3d647bdf	0.055782195
154	0xbcaa9fe3	-0.020828193
155	0x3c48b76e	0.012250764
156	0x3d74fc03	0.05981065
157	0x3d5cd77d	0.053916443
158	0xbca4eabf	-0.020131467
159	0xbd6a499d	-0.05719911
160	0x3c384f63	0.011249396
161	0xbc8f73a0	-0.017511189
162	0x3cdf92c2	0.02729166
163	0xbd62becf	-0.05535775
164	0xbd07c486	-0.033146404
165	0x3cefd44f	0.029276041
166	0x3d4026b3	0.046911906
167	0x3d817e2c	0.063228935
168	0xbcd0fdb9	-0.02551161
169	0x3d341e6b	0.04397432
170	0xbd1a50fb	-0.037674885
171	0x3cda11df	0.02661985
172	0xbcd67897	-0.026180549
173	0xbd193f3d	-0.037413824
174	0x3cbe8a6f	0.02325937
175	0x3c28971e	0.010289935
176	0x3d2f1e61	0.04275358
177	0xbd30dd03	-0.043179523
178	0xbcbc7ff1	-0.023010226
179	0x3d7273ef	0.059192594
180	0xbd2bb6b7	-0.041922297
181	0xbd2b9dac	-0.041898414
182	0xbd7c2d65	-0.06156673
183	0x3c793558	0.015210472
184	0x3d8573c4	0.06516221
185	0x3c86b0e7	0.016441775
186	0x3c22e706	0.009942776
187	0x3d3b1657	0.0456756
188	0xbd4273f9	-0.04747388
189	0x3c57cb16	0.013170978
190	0xbceadaa9	-0.028668718
191	0xbd3673eb	-0.04454414
192	0xbbf30f4d	-0.0074175955
193	0x3d713387	0.05888703
194	0x3c967657	0.018366976
195	0x3d840530	0.06446302
196	0xbd41c433	-0.04730625
197	0x3d8412dc	0.0644891
198	0x3c93313f	0.017967818
199	0x3d0698a7	0.032860424
200	0xbbd74f45	-0.006570729
201	0x3d4c59f5	0.049890477
202	0xbcbf2dfd	-0.023337359
203	0xbcd256ba	-0.02567612
204	0x3d837518	0.06418818
205	0x3d2b391c	0.04180251
206	0xbd2ed0a7	-0.042679455
207	0x3d2dfd6a	0.042478003
208	0x3ae5027f	0.0017472057
209	0xbd3cdf76	-0.046111546
210	0x3d4d7098	0.050156206
211	0xbd6689e4	-0.056283846
212	0xbd54a0ca	-0.051911153
213	0xbd58a685	-0.05289318
214	0xbd171589	-0.036885772
215	0xbd8002fb	-0.062505685
216	0x3d1ace48	0.03779438
217	0x3c422558	0.011849724
218	0x3cffbdb4	0.031218387
219	0xbd75beab	-0.05999629
220	0x3c173ab0	0.009230301
221	0xbc46be64	-0.012130354
222	0x3d18cab2	0.03730268
223	0xbd0eac9f	-0.034832593
224	0x3cfaf01c	0.030632071
225	0x3cf6f7ec	0.030147515
226	0x3d1b137e	0.037860386
227	0x3d057cfe	0.032589905
228	0x3d796c0a	0.06089405
229	0x3be3a4c0	0.00694713
230	0xbd28d567	-0.04121914
231	0xbd3e57c8	-0.046470433
232	0xbd3fc85f	-0.04682195
233	0xbd614e51	-0.05500633
234	0xbd3dbc2a	-0.046322025
235	0x3c1ad97d	0.009451267
236	0xbd5a7374	-0.05333276
237	0xbc6c30e9	-0.014415958
238	0xbcda7f94	-0.026672162
239	0xbb52f7f4	-0.0032191249
240	0xbd82423f	-0.06360292
241	0xbd6a01a2	-0.057130463
242	0x3cba864e	0.02276912
243	0x3cff9346	0.031198155
244	0x3d496bf1	0.049175207
245	0x3cfd77e2	0.030940954
246	0xbd1373b3	-0.03599901
247	0xbd5ee1d6	-0.054414593
248	0xbd05c376	-0.03265711
249	0x3af019d8	0.0018318249
250	0x3d0d0a87	0.034433868
251	0x3c1d0dc3	0.009585801
252	0x3cb8e0e6	0.022568177
253	0xbb954915	-0.004555831
254	0xbcfb0957	-0.030644102
255	0x3caa3d03	0.020781046

hyper_b1.bias f4 [32]
0	0x3ca69471	0.020334454
1	0xbd5d4025	-0.05401625
2	0xbd1dc1a9	-0.038514767
3	0xbc4fb1b2	-0.012676643
4	0x3d0f3249	0.034960065
5	0x3cc0b7f6	0.02352522
6	0x3c25b35d	0.010113564
7	0x3d158a90	0.036509097
8	0xbc9ac329	-0.018891888
9	0xbd2d500c	-0.042312667
10	0x3d4671cb	0.048448365
11	0xbd5d85a1	-0.054082517
12	0xbd2e073f	-0.04248738
13	0xbcbc8adc	-0.023015432
14	0x3d7f6419	0.06235132
15	0x3d05aa62	0.032633193
16	0x3d5e4249	0.054262433
17	0x3d0c12e8	0.034197718
18	0xbc7868eb	-0.015161733
19	0xbd0dbf4d	-0.034606267
20	0xbd2068a6	-0.0391623
21	0xbc82025f	-0.015870271
22	0x3cebafd1	0.02877036
23	0x3d8008c0	0.06251669
24	0x3d688ec9	0.056776796
25	0x3cd4059a	0.025881577
26	0xbd2e04c1	-0.042485002
27	0x3d7bc590	0.061467707
28	0x3c6d59f3	0.014486778
29	0x3d868f19	0.065702625
30	0x3d70302d	0.058639694
31	0x3d1aeb2b	0.03782193

hyper_b2.0.weight f4 [32, 230]
0	0xbd4b2c09	-0.049602542
1	0x3d88720c	0.06662378
2	0x3d2e0119	0.042481516
3	0x3d6357dc	0.05550371
4	0xbd2cc271	-0.04217762
5	0x3d8714bc	0.06595752
6	0xbcdb429a	-0.026765157
7	0xbb83465f	-0.0040061916
8	0x3d224c1d	0.03962337
9	0xbb2573ad	-0.002524595
10	0xbd0763aa	-0.03305403
11	0x3d0f073b	0.034919005
12	0x383354ac	4.2755782e-05
13	0xbba0d5df	-0.004908308
14	0x3c864bba	0.016393531
15	0x3d659413	0.056049418
16	0xbd840d15	-0.06447808
17	0xbc23c0bb	-0.009994681
18	0xbcfc8e7a	-0.030829657
19	0xbd5e877f	-0.054328438
20	0xbc0b0b53	-0.008486587
21	0x3d3df5e1	0.046377067
22	0xbd508840	-0.050911188
23	0xbd342c74	-0.043987706
24	0xbd302f3a	-0.04301379
25	0x3ca3e5b1	0.020006986
26	0x3d6930c7	0.056931283
27	0x3d2c7ca4	0.042111054
28	0xbd642f39	-0.055709098
29	0xbd800d9b	-0.06252595
30	0xbd4e6add	-0.05039488
31	0xbcccaec0	-0.024985671
32	0xbd1bb395	-0.03801306
33	0xbd7a4506	-0.061100982
34	0xbc92e1dc	-0.017929964
35	0xbd1817bd	-0.037132014
36	0xbc922f38	-0.017844781
37	0xbd0e6ed9	-0.03477368
38	0xbd0b72f5	-0.03404518
39	0xbd377afb	-0.044795018
40	0x3d40a483	0.04703189
41	0xbd4fd8ca	-0.050743856
42	0xbcf6b520	-0.030115664
43	0x3b972039	0.0046119955
44	0x3bd52d17	0.0065056193
45	0xbada975f	-0.0016677192
46	0xbd09bd6e	-0.03362792
47	0x3c84fcee	0.016233888
48	0xbcf409b0	-0.029789776
49	0xbc96954e	-0.01838174
50	0x3d857ff9	0.065185495
51	0x3d239fe7	0.039947417
52	0xbd39c077	-0.045349564
53	0xbc993d76	-0.018706065
54	0xbbf49f1f	-0.007465258
55	0xbd3d94ff	-0.046284672
56	0xbb2961dd	-0.0025845685
57	0xbd35065b	-0.044195514
58	0x3d697bc5	0.0570028
59	0xbc9bb8f4	-0.019009091
60	0x3d79bc41	0.06097055
61	0xbc5d989b	-0.0135251535
62	0x3b448973	0.0029989153
63	0x3b987e39	0.004653719
64	0x3b5dc713	0.0033840581
65	0x3ced47b2	0.028964851
66	0xbb177b77	-0.0023114362
67	0x3c919405	0.017770777
68	0xbd09446d	-0.03351252
69	0x3d706773	0.058692407
70	0xbcbb1650	-0.022837788
71	0x3c6d84e5	0.014497017
72	0xbd0a1d74	-0.033719495
73	0xbd224097	-0.03961238
74	0xbd48f90b	-0.04906563
75	0xbd1a8bc6	-0.037730955
76	0x3d80d575	0.06290714
77	0xbd7eeeb3	-0.06223936
78	0x3d038f1d	0.032118905
79	0x3d7c5125	0.061600823
80	0x3d4c2f4b	0.04984979
81	0xbd391a4f	-0.045191105
82	0xbcdb1e30	-0.026747793
83	0x3d785045	0.060623426
84	0x3d2f9ab5	0.04287215
85	0xbbc73cd7	-0.0060802507
86	0xbbeb6687	-0.007183853
87	0xbd5f5b2c	-0.054530308
88	0xbd47192d	-0.048607994
89	0xbcee9abd	-0.02912652
90	0xbc5de718	-0.013543867
91	0xbd41e384	-0.047336116
92	0xbd7bcc66	-0.061474226
93	0xbb82bca0	-0.003989771
94	0xbd279922	-0.040917523
95	0xbcef5f50	-0.029220253
96	0xbd564c86	-0.052319072
97	0xbd1a1da1	-0.037625913
98	0x3d5b7eb3	0.053587627
99	0xbd42509c	-0.047440156
100	0x3d762e4e	0.060102753
101	0x3d6d68b2	0.057961173
102	0xbbdcb290	-0.0067351535
103	0x3d653234	0.05595608
104	0xbd25456a	-0.0403494
105	0x3caf0dc0	0.021368861
106	0xbd7dbadf	-0.061945792
107	0x3c8a7734	0.016902544
108	0x3d7c0edb	0.061537605
109	0xbd1f387a	-0.03887222
110	0xbcd65348	-0.026162758
111	0xbba98838	-0.0051737092
112	0xbc7656c8	-0.015035339
113	0x3b0acea0	0.0021180287
114	0xbd2acd5a	-0.041699745
115	0x3ad9c1a5	0.0016613497
116	0xbd78983b	-0.060692053
117	0x3d051741	0.03249288
118	0x3d3b6fbe	0.045760863
119	0x3d147a71	0.03624958
120	0xbd386d59	-0.045026157
121	0xbcc75f18	-0.024337336
122	0xbcd249f2	-0.025670025
123	0xbca56476	-0.020189505
124	0x3d323a55	0.04351266
125	0x3d388dcf	0.045057114
126	0xbd54d5de	-0.051961772
127	0xbd106d33	-0.03526039
128	0x3d462603	0.048376095
129	0xbd1286c1	-0.035773043
130	0x3cc6140e	0.024179485
131	0xbc9daabc	-0.019246452
132	0x3d2fe34d	0.04294138
133	0xbcaee4ce	-0.021349337
134	0xbd69c5ab	-0.057073276
135	0x3d07b749	0.03313378
136	0x3d08f909	0.033440623
137	0xbd4f884e	-0.0506671
138	0x3d8829ef	0.06648623
139	0x3cdb13e0	0.026742876
140	0x3d5cb33c	0.05388187
141	0x3d3cae57	0.0460647
142	0x3c9454a8	0.018106773
143	0x3ce68fd6	0.028144758
144	0xbd2c4c1c	-0.04206477
145	0x3d85c1f1	0.06531132
146	0xbc1bf0b3	-0.009517836
147	0xbc57f7a7	-0.0131816035
148	0x3c038225	0.008026634
149	0x3c9d8d6a	0.01923247
150	0x3cc17ade	0.023618158
151	0xbae4905b	-0.0017438041
152	0xbd0ac7b9	-0.033881877
153	0x3d847c53	0.064690255
154	0xbd726ddf	-0.059186812
155	0xbd2bd211	-0.04194838
156	0xbc962d0e	-0.01833203
157	0x3d124b8d	0.035716582
158	0x3d578c39	0.05262396
159	0xbd0b5cb9	-0.034023974
160	0x3c18c7cc	0.009324979
161	0xbca8ec46	-0.020620476
162	0xbd481575	-0.048848588
163	0xbca956da	-0.020671297
164	0xbd1ae64f	-0.037817296
165	0x3ccc661e	0.024951037
166	0xbd574424	-0.05255522
167	0xbd4cc637	-0.04999372
168	0xbc09ac77	-0.008402935
169	0x3c89ab86	0.016805422
170	0x3d37c365	0.044864077
171	0xbceb65f6	-0.028735142
172	0xbd68c9ec	-0.056833193
173	0x3d66fad9	0.05639157
174	0xbcaeb294	-0.021325387
175	0xbd3c52cf	-0.04597741
176	0x3c5493e5	0.012974714
177	0x3beb5e69	0.0071828854
178	0x3c99b3ce	0.018762495
179	0xbbec55d7	-0.0072123813
180	0xbd20dbf7	-0.039272275
181	0xbcd86221	-0.026413979
182	0xbc7c0e99	-0.01538434
183	0xbca72315	-0.02040247
184	0xbd70f7c5	-0.05883004
185	0xbd16b4fe	-0.0367937
186	0x3d20fbc3	0.0393026
187	0x3b77fcf3	0.0037839978
188	0xbcccd188	-0.025002256
189	0xbd3ae28b	-0.045626204
190	0x3d27062b	0.040777367
191	0xbc914686	-0.017733824
192	0x3ce53852	0.027980957
193	0xbc3d5f37	-0.0115583455
194	0x3d82012d	0.063478805
195	0xbd49331b	-0.049121004
196	0xbd044932	-0.032296367
197	0xbc9f2414	-0.019426383
198	0x3be9e169	0.0071374667
199	0x3c42fce5	0.011901115
200	0xbb8bc74f	-0.004265703
201	0x3d80291b	0.0625784
202	0x3d5a8a47	0.053354528
203	0x3d5bbbd5	0.053645927
204	0x3d818801	0.06324769
205	0x3b8e8a07	0.0043499502
206	0x3c7e79c6	0.015531963
207	0xbcfeacb7	-0.031088216
208	0x3cf841d4	0.030304827
209	0xbc934d0e	-0.017981078
210	0xbd6cd210	-0.05781752
211	0x3cfa56e2	0.030559007
212	0xbc9c9ff4	-0.01911924
213	0xbc4f8a9c	-0.012667324
214	0xbd7480e4	-0.059693232
215	0x3d20904a	0.039200105
216	0xbd404db8	-0.04694912
217	0x3ab56d00	0.0013841689
218	0x3d4b2f7e	0.04960584
219	0xbb812f08	-0.003942374
220	0xbca44962	-0.020054523
221	0xbd547fa0	-0.051879525
222	0x3cd5ab7c	0.026082747
223	0x3d4d0ef3	0.050063085
224	0x3d760cda	0.06007085
225	0x3cec8718	0.028873011
226	0xbd1e5b33	-0.038661193
227	0x3d267076	0.040634595
228	0xbd86e75f	-0.06587099
229	0x3befddb0	0.0073201284
230	0x3c2a3f5e	0.0103910845
231	0x3d2940d0	0.041321576
232	0xbd529c37	-0.05141851
233	0x3d70194f	0.058617886
234	0x3d278721	0.040900353
235	0x3cb64c55	0.022253195
236	0xbc47758e	-0.012174023
237	0xbbae2d03	-0.0053154244
238	0x3d30ae05	0.043134708
239	0xbbd425db	-0.0064742393
240	0x3d689e6b	0.056791704
241	0x396db0a0	0.00022667879
242	0xbc282faa	-0.01026527
243	0xbd31a1a1	-0.043367032
244	0x3d4333c9	0.047656808
245	0xbd45db1b	-0.04830466
246	0xbd30b727	-0.043143418
247	0x3cabb7a5	0.020961592
248	0xbb6fda36	-0.003659857
249	0x3d83b39c	0.06430742
250	0xbc0172a2	-0.007900866
251	0x3c8dc949	0.017307894
252	0x3d56ef15	0.0524741
253	0xbd2d5749	-0.04231957
254	0xbc6635c7	-0.014050907
255	0x3d341984	0.043969646

hyper_b2.0.bias f4 [32]
0	0x3c412b73	0.011790144
1	0x3d4aef9f	0.049544927
2	0x3d0216d9	0.03176007
3	0x3d0e32a7	0.034716275
4	0xbcc305e4	-0.02380652
5	0x3d064528	0.032780796
6	0x3d54420e	0.051820807
7	0xbd5395bc	-0.05165647
8	0x3d12c7d2	0.035835095
9	0xbd837641	-0.064190395
10	0x3d84466d	0.06458745
11	0x3ba04300	0.0048907995
12	0x3d82e453	0.06391206
13	0x3d731067	0.059341814
14	0xbd2b7faf	-0.041869815
15	0xbcc0cfb2	-0.023536537
16	0xbd3fed62	-0.046857245
17	0x3d068441	0.03284097
18	0x3d817b68	0.06322366
19	0xbd6a38cf	-0.057183083
20	0x3c2b4428	0.010453261
21	0x3b710e9b	0.0036782387
22	0xbd13905a	-0.036026336
23	0x3cb6de04	0.022322662
24	0xbd7ed26a	-0.062212385
25	0x3c9adf9e	0.018905457
26	0xbd588488	-0.052860767
27	0xbba820f0	-0.0051308796
28	0xbcf982b2	-0.030457828
29	0xbd02d0fd	-0.031937588
30	0xbcf283c6	-0.02960385
31	0xbc79df5c	-0.015251007

hyper_b2.2.weight f4 [1, 32]
0	0xbe1174d8	-0.14204729
1	0x3a43fc8c	0.0007476292
2	0x3e0cbc06	0.137436
3	0xbd4317ed	-0.04763024
4	0xbe2c8ed1	-0.16851355
5	0xbd06f138	-0.032944888
6	0xbd1f59c4	-0.038903967
7	0xbdd39e7c	-0.10332963
8	0x3d8a5ac9	0.06755597
9	0x3e15d8aa	0.14633432
10	0x3d885e06	0.066585585
11	0xbe0e2a2e	-0.13883278
12	0x3dbe8c58	0.09304112
13	0xbcbc74e5	-0.023004958
14	0xbdfe37ea	-0.124130085
15	0xbdd0e66d	-0.102002
16	0xbe2e9a2e	-0.17051002
17	0x3dfcff58	0.123533905
18	0xbd9e2c15	-0.07723252
19	0xbdab84d8	-0.08374947
20	0xbc07d5a0	-0.008290678
21	0xbd0825e5	-0.033239264
22	0x3e23b6d7	0.15987717
23	0x3d1baf2c	0.038008854
24	0xbd95298e	-0.072833166
25	0x3d817614	0.0632135
26	0xbd2e9d3d	-0.042630423
27	0xbe2ddcf5	-0.1697882
28	0x3d7f5394	0.062335566
29	0xbd5b8fa1	-0.053603772
30	0xbdb56d07	-0.08858686
31	0xbd87aa50	-0.066242814
