model/qmix/5m_vs_6m/1_rnn_net_params.pkl (torch, 142159 bytes, 8 tensors)

fc1.weight f4 [64, 136]
000000 85 51 13 bd 0a 8e f1 3a f4 58 2a bd 0e 5c 00 3d
       -0.035966415 0.0018429172 -0.04158874 0.03133779
000010 e8 95 93 bd 2d 5f 7d 3d 04 b1 81 bd 2e ab 8d bd
       -0.07206327 0.061858345 -0.06332591 -0.069174156
000020 5b 08 62 bd 4f f9 1a 3d 35 df 05 bd 9f ad fe 3c
       -0.05518375 0.037835415 -0.03268357 0.031088648
000030 d3 18 97 bd cb 31 59 bd f5 0e 05 bd e5 3c 92 bc
       -0.07377782 -0.053026002 -0.032484967 -0.017851302
000040 85 04 88 bd d3 e2 61 3d 3d da ad bc 1b 4a d9 3c
       -0.06641487 0.055147957 -0.021222228 0.026524594
000050 1f 46 74 3d c6 5c 75 3c d0 35 b8 3c ea 84 ab 3d
       0.059637185 0.014975732 0.022486597 0.08374961
000060 df 71 22 bd ec 78 e6 3c 9b 31 18 bd e6 de 7e 3d
       -0.039659377 0.028133832 -0.037156682 0.06222429
000070 3c 35 8a 3d a1 f5 a3 bd 68 dd 93 3d 17 9f 23 3d
       0.06748435 -0.08005834 0.07219964 0.03994664
000080 65 f5 14 3d 27 7f 0c 3d c2 f0 8f 3d f2 e2 49 bc
       0.03636684 0.03430095 0.07028343 -0.012322174
000090 90 90 96 bd b7 c2 d1 bc 0f 75 7b bd 1b fc 98 3b
       -0.07351792 -0.025605543 -0.061390933 0.004668725
0000a0 61 58 8b bc 50 7d 40 bd 72 1e 10 bc 84 54 a4 3d
       -0.017009916 -0.046994507 -0.008796321 0.080239326
0000b0 24 dd bc bb ec 2d e2 3a de ba 4a bc d5 7e 4c 3c
       -0.0057636667 0.0017256117 -0.012373654 0.012481411
0000c0 52 6d 9a 3d b7 ad 52 3d 97 27 f1 3c e7 75 90 3c
       0.075403824 0.0514352 0.029437823 0.017634345
0000d0 93 71 9d 3c 91 98 03 3d 22 ee 45 bc f4 43 a5 bd
       0.019219195 0.03212792 -0.012080701 -0.08069602
0000e0 bd 4c 5d bd b6 da 93 3d 7b 30 87 3b f5 4e 90 bd
       -0.05402826 0.0721945 0.0041256524 -0.0704631
0000f0 3e 36 4d 3c be 0e 8f 3d e1 00 a8 bd 87 8e 70 bd
       0.012525139 0.06985234 -0.08203293 -0.058729675
000100 5c fa 0f bd 17 08 20 3b d9 f8 ab bc 2f 74 29 bc
       -0.03515087 0.0024418884 -0.020992683 -0.010342642
000110 3b 3b ad bd 04 d8 27 3d c4 18 98 3d d7 96 52 3d
       -0.08458563 0.040977493 0.07426599 0.051413383
000120 ed cf 7c bd 79 9c 8f bd d1 c0 0d 3d db b9 72 3a
       -0.06172173 -0.07012267 0.034607712 0.0009259262
000130 59 e2 0b 3d 56 a6 ad bd 75 4b c8 bb 4b 9b 73 3d
       0.03415141 -0.08478992 -0.006112511 0.05947427
000140 fb d7 1e 3d f7 af 0b 3b f7 ec 81 3c 4a 66 15 bc
       0.038780194 0.00213146 0.015860064 -0.009118626
000150 8a 36 45 bd 22 d3 08 bd a5 fc 59 bd be d1 8f 3d
       -0.048147716 -0.033404477 -0.053219456 0.07022427
000160 41 5f 45 3d 0d 7b ed 3c 83 9f 84 bd 68 7c 85 3d
       0.048186544 0.02898934 -0.06475737 0.06517869
000170 c0 d0 e3 3c 80 11 77 3d ed 13 06 bd 40 eb 94 3c
       0.0278095 0.060319424 -0.032733846 0.018178582
000180 c0 83 ad 3d 54 5a 70 3d c6 e3 8e 3d 8b b1 9b bc
       0.08472395 0.058679894 0.06977038 -0.019005558
000190 f5 cb 85 3d 06 8c 89 bd 00 05 f3 3b e3 c2 45 bd
       0.06533042 -0.067161605 0.0074163675 -0.04828156
0001a0 ec d2 a3 bc d4 e5 b3 bc a0 3a d2 3b 71 d5 9f 3d
       -0.019998036 -0.021960177 0.00641568 0.078043826
0001b0 c1 fb 31 3d 00 73 be b9 82 51 79 3d 43 fd 33 bd
       0.04345298 -0.00036325306 0.060868748 -0.0439427
0001c0 72 03 35 3d 18 48 02 bc 80 78 74 bc 04 21 14 3c
       0.04419274 -0.007951759 -0.014921308 0.009041075
0001d0 e9 7d 84 bd 61 b9 32 3c 5d 61 f4 3c bd 2e 98 3d
       -0.06469328 0.010908456 0.029831583 0.074307896
0001e0 f7 e4 e2 bc bb b7 f4 3c 3b 7b ad 3d ec 92 12 bd
       -0.02769707 0.029872766 0.0847077 -0.035784647
0001f0 d6 fb a8 3d 87 4a 2a bd 46 ea 1e 3d 3e b0 0d 3d
       0.08251159 -0.04157498 0.03879764 0.034591906
000200 fa 67 cc 3c a3 d5 88 3d 93 dc 09 bd cb 6d b0 3c
       0.024951924 0.06681373 -0.03365762 0.021536728
000210 9c 17 c2 3a b5 20 86 bd 1e 60 a2 bc 23 a7 6e bd
       0.0014808062 -0.06549207 -0.019821223 -0.058264863
000220 c6 64 1f 3d e9 ab 0e 3c da 7f f2 3b 62 ea cc bc
       0.038914464 0.008707979 0.007400495 -0.025014106
000230 84 09 1a ba d5 4d d2 bc 83 08 d2 3c 75 99 ac 3d
       -0.0005876052 -0.025671879 0.025638824 0.08427707
000240 ce 2f 65 3c 50 78 17 bd db 71 52 bd 1d 8c f7 3b
       0.013988448 -0.036979973 -0.051378112 0.0075545446
000250 28 3b 80 bd eb f3 81 bd d8 82 60 bd 07 65 e6 bc
       -0.06261283 -0.06345352 -0.054812282 -0.028124345
000260 4d be f0 3b ce f4 75 3d 04 24 0c 3d eb 96 88 3d
       0.0073469044 0.060047917 0.034214035 0.0666941
000270 a4 70 58 bd 06 f1 06 3c 5b 13 9a bd e9 7c 4d 3d
       -0.052841797 0.008236175 -0.07523223 0.05016795
000280 3a 90 9a 3c 10 e0 ab 3d cd df 7d bd 13 ce 8a 3d
       0.0188676 0.08392346 -0.06198101 0.06777587
000290 6d 4e 96 3d 0d 09 90 3d 8e db 58 3c 09 bb a1 3d
       0.07339177 0.07032976 0.01323594 0.07897002
0002a0 ae a8 6e 3d ff 11 85 3d 33 c3 95 bb e6 b7 84 bd
       0.058266334 0.06497573 -0.0045703887 -0.06480388
0002b0 c2 bc 8c b8 ef ed 8b 3c 8b 26 6b bd 08 62 45 bd
       -6.710879e-05 0.017081229 -0.057409804 -0.048189193
0002c0 69 52 a6 bd a3 0d ee bc 2d 05 9b 3d 2b 4f 80 3c
       -0.08121187 -0.029059237 0.075693466 0.01566275
0002d0 24 64 cc bb e0 86 91 3b 5c e9 56 3d 0d 08 99 bd
       -0.0062375236 0.004441127 0.052468643 -0.07472239
0002e0 57 74 85 bd dd 5a e1 bc fb 0a 46 bd 2a 41 39 3d
       -0.06516331 -0.027509147 -0.048350316 0.04522816
0002f0 be 44 7c 3d 7e 56 a8 bd 1a fe 92 bd fa f7 a8 bd
       0.061588995 -0.08219622 -0.07177372 -0.08250423
000300 3c 99 08 3d 5f 64 8f 3d f3 1c 86 bd 09 82 1e bd
       0.03334926 0.07001566 -0.065484904 -0.03869823
000310 73 ba e7 3c 6a 40 61 bd 97 3a 97 3d 47 fa ab 3c
       0.028287148 -0.05499307 0.07384222 0.020993365
000320 79 5c bb bc 4d 44 d7 3b 2a 28 e3 3c fc 78 f1 bc
       -0.022871243 0.0065694214 0.027729113 -0.029476635
000330 38 0d 86 bd c8 de da b9 1a e5 27 3b da da 32 3b
       -0.0654549 -0.00041746185 0.0025618733 0.002729109
000340 fa a2 3c bc 5a 9c 65 3d f5 d5 bb bc 63 34 ef bb
       -0.011513466 0.05605731 -0.022929171 -0.007299946
000350 52 84 14 3d 1b fb 58 bd e7 47 c4 3c 05 22 93 bc
       0.036259003 -0.052973848 0.023960067 -0.017960558
000360 36 92 2c 3d f6 6e 3a bd fd 9c 88 3b 46 d3 19 3c
       0.042131625 -0.045515977 0.004169105 0.00938875
000370 3e 40 8b bd 34 4c 7b bd 00 cc 0a 3d 6d 43 c4 bc
       -0.067993626 -0.06135197 0.033885956 -0.023957932
000380 7b 7f 4c 3d 35 70 ab bd ea 86 29 bd 90 9f 8e bd
       0.049926262 -0.08371011 -0.04138843 -0.06964028
000390 59 ea 0f 3d 5d ec c2 ba 46 b4 75 bc e0 bc 69 bc
       0.0351356 -0.0014871467 -0.014996594 -0.014266223
0003a0 1c 51 8b bd a2 05 bf 3c f1 17 95 3a d5 4a 6e bd
       -0.0680258 0.023318116 0.0011374933 -0.058176834
0003b0 c6 29 04 3d 40 e6 e1 ba 5e d8 a9 bd ea ee 3c 3d
       0.0322664 -0.0017234758 -0.08293222 0.046126284
0003c0 2e de 3b 3d ac 59 84 bc 81 80 72 bd 40 a1 61 3b
       0.045866184 -0.01615604 -0.059204582 0.0034428388
0003d0 9f 77 82 3d 3b bf a0 3d d6 8d 84 bd a8 a3 1e bd
       0.06370472 0.07848974 -0.064723656 -0.038730294
0003e0 df bc 88 3d 52 ac 2b 3d 56 6a 59 3d a2 e9 32 bd
       0.06676649 0.041912384 0.053079925 -0.04367984
0003f0 1f 40 95 3d c9 51 8e bd 30 1a a8 bb 11 ac 4c 3a
       0.07287621 -0.06949193 -0.005130075 0.00078076223

fc1.bias f4 [64]
000000 62 0c a8 bd ab 5f 9c 3d 24 74 a7 3d 13 a3 cb 3c
       -0.08205487 0.07635435 0.08176449 0.024858033
000010 ae 59 17 3c d4 0c 45 3d 18 67 a8 3c 80 35 79 3a
       0.00923769 0.048107937 0.020556971 0.00095065683
000020 c3 b7 ab bd 8c cb f3 3c 8e 7b 64 bc 6d 15 81 bb
       -0.08384659 0.029760145 -0.013945473 -0.0039393217
000030 ee ea 9f bd 43 c5 f7 3c 8c ab 45 3d eb 23 95 3b
       -0.07808481 0.030245429 0.048259303 0.004551401
000040 a4 fa 08 bc d6 2e 16 3d 6c d1 67 bd 91 e1 74 3d
       -0.008360539 0.03666576 -0.056596205 0.05978543
000050 d3 a5 67 3c a6 df 25 3d 38 0d 5f 3c 47 0f 7a 3d
       0.014138657 0.04049649 0.013613991 0.061049726
000060 2b 27 93 3c d3 22 a1 3c b2 be 1b 3d cb b7 a7 3d
       0.017963013 0.019669926 0.038023658 0.081893526
000070 cb 6d 95 3d 31 12 f3 ba b9 de 17 bd b1 c1 16 3d
       0.07296332 -0.001854485 -0.03707764 0.036805812
000080 21 2e ab 3d 72 1c b0 bd 5f ca a3 3c 0c db 2b 3d
       0.08358408 -0.085991755 0.019993959 0.041956946
000090 d7 3b 2f 3d e1 8d 8d 3d cd 78 0a 3d a2 dc a8 bd
       0.042781677 0.06911827 0.03380661 -0.08245207
0000a0 b4 d4 88 3d 70 1b fa 3b b7 dc 97 3d ce f0 32 3d
       0.06681195 0.0076326653 0.07415145 0.04368668
0000b0 eb 5c 93 bd b6 d8 17 bd 01 af 83 3d 87 f1 89 3d
       -0.07195457 -0.037071906 0.06429864 0.06735521
0000c0 67 13 94 3c e9 c6 2a bd 3b c9 eb 3c 10 31 1d 3d
       0.018075658 -0.0416936 0.028782478 0.038376868
0000d0 86 d4 a5 bd cd 69 e4 3c 5c a7 3d 3d 98 82 61 bd
       -0.08097176 0.027882481 0.046302184 -0.055056185
0000e0 f0 5f 2c bd 94 7e a1 3c 3b 21 87 3d 87 d1 a9 bd
       -0.04208368 0.019713677 0.06598135 -0.08291917
0000f0 c5 a8 85 bd 1f bb 92 bc 32 0d 80 bd 93 76 78 bc
       -0.06526331 -0.017911492 -0.06252517 -0.015164989

rnn.weight_ih f4 [192, 64]
000000 55 69 a4 bd 77 de c2 3d 5a f4 50 3d 23 a2 ed 3d
       -0.08027903 0.09515088 0.05101428 0.11603191
000010 41 eb b0 3d 02 04 57 bc 52 7f 64 3d 6a c4 ff 3d
       0.08638621 -0.013123514 0.055785485 0.12488635
000020 18 1a 33 bd 83 14 ba bd 2c 1e 7f bd 26 63 99 3d
       -0.043726057 -0.090859435 -0.062284634 0.07489614
000030 08 a9 ef 3c c3 6d b2 bd 11 c4 1d bd a3 87 14 3c
       0.029255405 -0.08712342 -0.03851706 0.009065541
000040 a0 56 db 3d a3 de 85 3d 20 1e e0 3b e4 2c f4 bc
       0.10709882 0.06536605 0.0068395287 -0.029806562
000050 36 fb ba 3c f0 c7 e1 bd c8 cb 50 bd 66 23 f8 bd
       0.022824865 -0.11024463 -0.05097559 -0.12116127
000060 60 15 0f 3d 3f 6c 68 3d 50 89 23 bd a5 fb ee 3c
       0.034932494 0.056743857 -0.039925873 0.029172728
000070 c0 f0 1f 3d ed 65 88 3c b3 d7 c9 3d 9a c2 c4 bd
       0.039047956 0.016650164 0.098555945 -0.0960743
000080 54 23 c2 bd 60 70 0d 3c 0e 07 d8 3d d4 1d 8c 3b
       -0.094793946 0.008632749 0.105482206 0.0042760167
000090 2a aa 43 bd 0c d4 f1 bd 98 42 af 3d 3d 9d 69 bd
       -0.047769703 -0.11808023 0.085576236 -0.05703472
0000a0 23 4d fc bc 90 3e be bd d7 27 31 39 1b 04 e0 3d
       -0.0307985 -0.092892766 0.00016894877 0.10938283
0000b0 ae 42 8a bd 32 7c ac bd 01 12 25 3d 42 08 b5 3d
       -0.067509994 -0.08422126 0.040300373 0.08839466
0000c0 90 8c 11 3d 32 e3 5d bd 80 c6 68 bd 29 11 30 3d
       0.03553444 -0.05417175 -0.05682993 0.042985115
0000d0 33 97 c0 bd 2c a3 38 bd 82 43 ed bc 0f 19 a9 bd
       -0.09403839 -0.045077488 -0.028962854 -0.08256733
0000e0 2a 9c f6 3d 68 e3 8e bc f6 34 b5 3d 30 7c 66 bc
       0.12041505 -0.01744242 0.08847992 -0.014067695
0000f0 1a cf 9e bd 2a 9a 7a bd 76 a7 8b bd e6 18 9c 3d
       -0.07754345 -0.06118218 -0.0681905 0.076219365
000100 8e c9 53 bd ad 84 a5 bc cb 16 88 3d 3b 52 be bd
       -0.05170589 -0.020204866 0.066449724 -0.09293028
000110 b5 bc 0f bd 50 47 fb 3c 76 16 56 3d 92 b2 83 3d
       -0.035092074 0.030673653 0.052267514 0.06430544
000120 90 ba d9 3c 10 c3 83 3d 05 0a 3a 3d 53 b1 56 3d
       0.026578218 0.064336896 0.04541971 0.052415203
000130 00 d0 50 ba 3b aa 18 bb 3d ba a3 bd 56 74 cd 3c
       -0.0007965565 -0.0023294825 -0.079945065 0.025079887
000140 52 ad 95 bd 53 2d 12 3d f0 e6 66 3c 78 51 ba bd
       -0.07308449 0.035687756 0.014093146 -0.0909757
000150 f2 d2 a8 bd dc 8a 80 3d 90 0d 36 bd 02 ff 18 3d
       -0.082433596 0.06276485 -0.044446528 0.03735257
000160 41 0a b7 3d 50 a3 bc 3d f8 ea a1 3c 55 c5 eb bc
       0.08937503 0.09210837 0.019765362 -0.028780619
000170 ae 1e 1b 3d 10 12 b5 bd 5a 22 09 bd 21 a2 89 3d
       0.037871055 -0.08841336 -0.033480026 0.06720377
000180 c0 d9 c5 3b 10 0e ff 3d 15 03 13 bd 1b f9 be 3c
       0.0060379207 0.12453854 -0.03589161 0.023312142
000190 3d 91 6d bd 30 03 3e bd 65 de 01 3b 1e be 49 3d
       -0.05799984 -0.04638976 0.0019816395 0.049253576
0001a0 67 7b 62 3d c0 25 83 bd 34 33 c3 3d de 79 e7 3d
       0.055293467 -0.064036846 0.095312506 0.11302541
0001b0 cf 45 78 bc 4c db d6 bc c3 33 e7 bd 83 55 f7 39
       -0.015153362 -0.026227616 -0.1128917 0.00047175222
0001c0 ad 58 23 bb ff 1a 95 bd b0 14 ef 3c d5 1a ee bd
       -0.002492468 -0.0728054 0.02918467 -0.116262116
0001d0 5d cc d0 bc a1 39 a3 bc 29 b0 13 3d 60 be f9 bd
       -0.025488073 -0.01992494 0.03605667 -0.12194514
0001e0 7c 3a 71 bd 36 d9 e1 bd 85 d4 d7 bd 50 31 1e 3c
       -0.058893666 -0.11027758 -0.10538582 0.009655312
0001f0 68 cb 1c bd 3e b1 a0 bd db ea da bd 2d 0a 24 bc
       -0.03827992 -0.07846306 -0.106893264 -0.010012192
000200 1c dd 73 3d 7e f3 9a bd b8 60 84 bd 24 c8 e0 bc
       0.05953704 -0.07565974 -0.0646376 -0.027439184
000210 03 34 ba bd f8 3a ff 3c 6f da 54 bd da 97 e2 bd
       -0.09091952 0.031156048 -0.051966127 -0.1106412
000220 10 91 b9 bc bf 53 c3 bc d8 c5 25 bd 64 3f ff 3d
       -0.022652179 -0.023843644 -0.04047188 0.12463263
000230 4a b5 c4 bd 7c 24 20 bd bc 25 37 bd 3f e8 a4 bd
       -0.09604891 -0.039097294 -0.04471372 -0.0805211
000240 75 37 d8 ba f0 8f f0 3d 28 c4 d9 bc 96 d1 ef 3d
       -0.001649602 0.11746204 -0.026582792 0.11709897
000250 37 fd 74 3d 80 22 10 3b e4 44 bd 3d 06 95 ec 3d
       0.059811797 0.002199322 0.092416555 0.115518615
000260 52 94 11 bd ab 80 8d 3c 64 61 e6 bd 9c cd 9b bd
       -0.03554184 0.017273268 -0.112490445 -0.07607576
000270 58 96 34 bd 03 b5 a4 bd 34 52 71 bd be 4e 42 bd
       -0.04408869 -0.08042338 -0.058916286 -0.047438376
000280 98 bc cf bd de 97 e4 bd 64 02 6b 3d 3f 71 71 bd
       -0.10143393 -0.11161779 0.057375327 -0.05894589
000290 b9 96 00 bc 48 79 7e bd 72 6d 10 bd e1 7c 3f bc
       -0.007848435 -0.06212738 -0.035260625 -0.011687488
0002a0 53 4e 77 3d 88 95 5d bd 5c 5b 5f bd 92 47 d0 bd
       0.06037743 -0.054097682 -0.054530486 -0.10169901
0002b0 04 fc 0a bd db 65 5a 3d 37 df 68 bd 71 a6 93 3a
       -0.033931747 0.053319793 -0.0568535 0.0011264813
0002c0 0a 37 b8 3b 9e c5 98 bd 96 6d b4 3d 27 ca 38 bc
       0.0056217955 -0.074595675 0.08809964 -0.011278666
0002d0 7a 8c d8 bc f3 e0 60 bb cf d0 7b 3d cc 6c df bd
       -0.026434172 -0.0034313768 0.061478432 -0.10909423
0002e0 c8 88 21 3d 44 70 5c 3d e8 98 ac 3d 04 58 01 bd
       0.039437085 0.053818002 0.08427602 -0.03157808
0002f0 bc 0c 78 3d 96 97 0d bd ae 72 28 bd 41 e6 d7 bb
       0.06055902 -0.03456839 -0.041124992 -0.0065887277
000300 37 59 f3 3d 1f 02 d8 3d f0 a8 ab 3c 6a 5f 04 bd
       0.11882251 0.105472796 0.02095458 -0.032317556
000310 ce 3f 32 bd b3 5d e6 3d 8a 67 e1 bd 26 fb ea bd
       -0.04351788 0.112483405 -0.11006077 -0.11473684
000320 06 9c 88 bd b8 1f bf 3d 53 de bb bd f3 b1 5b 3d
       -0.06670384 0.09332222 -0.09173264 0.053636502
000330 66 1a ae bd a1 78 85 3d c2 0e 4f 3c f0 b7 76 bd
       -0.08501129 0.06517149 0.012637796 -0.06023401
000340 3f 4e 81 3c b4 c6 a3 3d 18 14 20 bd 75 8e a0 bd
       0.015784381 0.07996884 -0.039081663 -0.078396715
000350 e6 9b 36 3c 60 49 c9 3d 58 30 b3 bd 57 ec 24 bd
       0.0111455675 0.09828448 -0.08749455 -0.040264454
000360 56 e6 ce bd cc 8f c7 bc 98 d3 db 3d 17 3f 07 bc
       -0.10102527 -0.02436056 0.10733718 -0.008254788
000370 14 49 c7 bd 63 6c 06 bd 98 03 07 3b b6 aa bb bd
       -0.097307354 -0.03281821 0.0020601507 -0.0916342
000380 5c 34 1d 3d 78 d2 2d bd c7 42 81 3d fa 7c 00 3e
       0.038380012 -0.042437047 0.06311565 0.12547675
000390 38 c3 77 3b 90 54 27 3d 49 8b be 3d 43 c2 ba 3d
       0.0037805568 0.04085213 0.0930391 0.09119084
0003a0 a1 52 42 bc 04 65 78 bd a8 dc a9 3d 21 0d ab 3d
       -0.011860521 -0.06064321 0.0829404 0.083521135
0003b0 d4 d9 64 3c ad 11 c3 3c c2 2e a4 3d 34 39 ad bd
       0.01396795 0.02381214 0.08016731 -0.08458176
0003c0 61 e8 02 bc d3 ae 06 3c 32 ed cf 3c c0 97 d5 3d
       -0.007989974 0.008220392 0.025381658 0.10429335
0003d0 73 ce 2c 3c 78 86 78 bd 18 20 2b bd 1f e5 a0 3d
       0.010547268 -0.060675114 -0.041778654 0.078562014
0003e0 42 02 8b bd e6 2e a5 bd db e1 f5 bd 62 ec 8a bd
       -0.0678754 -0.08065586 -0.12005969 -0.06783368
0003f0 00 22 05 3b e7 db c9 bd 61 8f bd 3d f3 33 0a 3d
       0.0020314455 -0.09856396 0.09255863 0.03374095

rnn.weight_hh f4 [192, 64]
000000 d3 0f c6 3d 2b df 94 bd b0 9d ee 3d e4 40 2c bd
       0.09670987 -0.072691284 0.1165117 -0.042054072
000010 0d f0 29 bc 15 74 c0 bd 6a 46 12 3b 9a 7f 9f bd
       -0.010372174 -0.09397141 0.0022319802 -0.0778801
000020 9f 5a 1d 3d e4 e9 d1 bd f3 03 b2 3c 5c 0f ca bd
       0.0384165 -0.10249689 0.021730399 -0.09866211
000030 51 31 b2 3c ab e2 7a bd 79 d5 6d bb 55 76 c1 3c
       0.021752032 -0.061251324 -0.003629057 0.023615995
000040 e6 dd da 3d c8 9c 7e bd 90 7d 9d bd da f4 55 bd
       0.10686855 -0.062161237 -0.07689965 -0.05223546
000050 74 4c d8 bd 38 d2 de bd 3d c0 d9 bd 91 24 ed 3d
       -0.10561457 -0.1087994 -0.1063237 0.1157924
000060 4e 72 fa 3d 53 0f 14 bc 56 7f 94 3c 07 29 a2 3c
       0.12228833 -0.009036857 0.018127125 0.019794954
000070 9b 8b 36 bd 40 5e af 3d 84 6b 60 bd 7e a5 3c 3d
       -0.044566732 0.08562899 -0.054790035 0.046056263
000080 c3 ce cf bc bb ef 99 3d ef 62 81 bc a1 cd 31 bb
       -0.025367146 0.07516428 -0.015794246 -0.002713062
000090 2c c2 f3 3d af eb 4a bd 85 c2 bc 3d a4 04 0b 3b
       0.1190227 -0.04954117 0.09216789 0.0021212483
0000a0 33 42 28 bd 42 2d 6a 3d df 29 8d bd c1 29 b7 bd
       -0.041078757 0.057172067 -0.06892752 -0.08943511
0000b0 a8 1c d1 3d c6 bc 91 bd 4e 7b 57 3b 6c 3d ba 3d
       0.10210544 -0.07116084 0.0032879892 0.090937465
0000c0 98 a7 eb bd f2 b5 16 3b 00 10 dd 3b 68 ed 74 bd
       -0.11506575 0.0022996631 0.006746292 -0.05979672
0000d0 75 d5 a0 3c d9 93 97 3d cf e2 4d bd 04 1c 90 bd
       0.019633034 0.074012466 -0.05026513 -0.070365936
0000e0 94 8a db bd 07 b3 26 3d ab b1 f9 3c aa 34 50 bd
       -0.10719791 0.040698078 0.030480227 -0.050831474
0000f0 d9 82 85 bb 0e 7b f8 3d 7a 30 92 bd 94 90 cd bc
       -0.004074436 0.12132846 -0.071381524 -0.025093354
000100 42 4a c7 bc 75 5c 94 bd 10 76 19 bd dd 0c c7 bd
       -0.024327401 -0.07244197 -0.03746611 -0.0971925
000110 e6 17 f4 3d 9e 70 ee 3d 59 38 fe 3d 65 26 94 bd
       0.11918621 0.11642574 0.12413091 -0.07233886
000120 82 f3 f9 3b 0b 37 f8 bd 06 0b cf 3c 05 24 96 bc
       0.0076279053 -0.121198736 0.025273811 -0.018327722
000130 9e 6d d8 3d 79 dc e3 bd 78 44 ce 3d a2 d5 07 bd
       0.10567783 -0.11126036 0.10071653 -0.03316272
000140 57 5f dd 3c a2 30 53 3d 74 c8 90 3c f7 43 4c bd
       0.027023 0.05156005 0.017673708 -0.049869504
000150 37 52 fd 3d e4 e8 12 bd 2a 89 cd 3d 47 cd ce 3d
       0.12369197 -0.035866633 0.100359276 0.10097747
000160 f9 d8 79 bc c0 2e af 3d 11 6b 7d 3d d7 31 4d bd
       -0.015249484 0.08553839 0.061869685 -0.05009636
000170 31 86 d9 3c c5 f0 a0 3d 3c e6 e5 bd dc a9 ce bd
       0.026553245 0.07858423 -0.11225554 -0.10090992
000180 f7 7c b1 3c 0f f0 6b bd 83 34 90 bc 5c 96 a1 bd
       0.021666033 -0.057601985 -0.017603165 -0.07890007
000190 a4 2b 63 3a 5e 8b 61 bc b6 c2 1a bd b3 cb 98 3d
       0.0008665866 -0.013766138 -0.037783347 0.074607275
0001a0 7e 82 f8 bd 62 03 25 3c 8a 68 0a 3d 2a be 94 ba
       -0.121342644 0.010071607 0.033791102 -0.0011348177
0001b0 59 a5 bb 3d ab b0 e7 bb e1 f1 85 3d e5 8e 79 bc
       0.09162397 -0.007070621 0.06540275 -0.015231823
0001c0 c1 5c c3 3d 48 8a a7 3d d1 d4 72 bd 68 0c cb bd
       0.09539176 0.08180672 -0.05928499 -0.09914476
0001d0 53 1d c6 bd d5 16 bd 3d be 1e ba 3d c4 36 4f 3d
       -0.09673562 0.092328705 0.09087895 0.050589338
0001e0 5a 4f fa 3d 47 89 2f 3d ff 16 9b bc 3d 8f b5 bd
       0.12222166 0.042855527 -0.018931864 -0.08865211
0001f0 a1 4b a8 3d a1 11 50 b6 f8 e6 4f bd 83 06 ac bd
       0.0821755 -3.1004677e-06 -0.05075738 -0.083996795
000200 e9 4d ce bd 9d 30 f0 3d fa 49 25 3d a6 28 12 3c
       -0.10073454 0.11728022 0.040353753 0.008920824
000210 b8 d8 4d 3b 39 38 c7 3d 2d ef 36 3d 37 55 2f 3d
       0.0031409692 0.097275205 0.04466169 0.042805877
000220 90 2c b1 3d 39 1f 88 3c 21 ef 95 bd aa fd 31 bc
       0.08651078 0.01661645 -0.07321001 -0.010863701
000230 03 d2 94 3c 95 e6 c7 bc 98 3e af bd cc bd 94 bc
       0.018166548 -0.024401942 -0.08556861 -0.018156908
000240 71 84 e5 3d 55 a6 bd 3d 11 e6 94 bc b1 ed 30 3c
       0.11206902 0.09260241 -0.01817611 0.010798858
000250 7f 60 19 bd 5f 4d 4f 3d 74 7b a9 bc 5a d3 ca 3d
       -0.03744554 0.050610896 -0.02068875 0.09903593
000260 79 49 93 bd 44 71 0f bd 2f c8 aa 3d ac f1 4e 3c
       -0.07191748 -0.035020128 0.08338963 0.012630861
000270 85 4f c8 bb e0 96 0e bd 52 31 e2 bd 7f cf 26 bd
       -0.006112995 -0.034811854 -0.11044563 -0.040725227
000280 6b a9 aa 3d 6b 65 5b 3d 75 b1 87 3d dc 72 7a 3d
       0.08333095 0.053563517 0.06625644 0.061144695
000290 54 23 0a 3b 48 72 f5 3c 9d 88 89 3d 33 a3 04 3d
       0.0021078186 0.02996172 0.0671551 0.0323822
0002a0 c4 e2 03 3d 53 3d 38 bd e8 1b 04 bd 11 29 82 3d
       0.032198682 -0.04498036 -0.032253176 0.06355489
0002b0 2d 41 3d 3d 03 ce 63 3c c7 02 15 3d da bb 07 bd
       0.046204735 0.0139040975 0.0363796 -0.033138134
0002c0 53 c3 74 3d 23 ab 2b 3d 12 92 6b 3d 23 e8 b6 bd
       0.05975659 0.041911256 0.05751235 -0.08930995
0002d0 30 73 3d bd 9a 78 04 bd 21 7d 93 3c d8 d0 c0 3d
       -0.04625243 -0.032341577 0.018004002 0.09414834
0002e0 9f f2 3d 3d 29 a3 f1 bc 28 fe d3 3b c3 c7 1b 3c
       0.04637396 -0.029496746 0.006469507 0.009508076
0002f0 c0 c7 c3 3d fc be b4 3c 93 10 e7 bc cd 07 83 bd
       0.09559584 0.022063725 -0.028206145 -0.06397972
000300 3c 7d fa bd 3a db cd 3d 27 e8 b9 bd ce f3 fe bc
       -0.12230918 0.1005158 -0.09077483 -0.031122115
000310 75 5e fc 3d ac 01 e3 3d 31 de a7 3d 6b 70 aa bd
       0.12322704 0.11084303 0.081966765 -0.08322223
000320 7a 42 f8 bd 70 79 31 bc 88 37 85 3c 52 c4 74 ba
       -0.121220544 -0.010832176 0.01626183 -0.00093371153
000330 8f b6 a9 bd c9 68 23 3d 86 4a 69 3d cc 98 c7 3d
       -0.082867734 0.039894853 0.056955837 0.097459406
000340 9b ef 21 bd e2 2f ac 3d 39 45 a8 bd 8d 7c 82 bd
       -0.039535146 0.084075704 -0.08216328 -0.063714124
000350 0e 03 2d 3d a7 92 b1 bd 83 ff 82 bd d4 43 57 bd
       0.04223924 -0.0867055 -0.06396391 -0.05255492
000360 15 e4 5a bc 4e 6b c8 3d 5c 3f 1c 3d 06 90 f7 bd
       -0.013360043 0.09786092 0.03814636 -0.12088017
000370 4f be 18 bd 2d 2e 9f 3d 00 ad d8 bc 51 e7 a4 3d
       -0.037290867 0.07772479 -0.02644968 0.080519326
000380 53 d4 9f 3d 5f 5b d6 bd 52 12 f2 3c a0 67 44 3d
       0.078041695 -0.104666464 0.029549751 0.047950387
000390 80 3d 8c bd cc 50 cf bd 4e b7 54 bd f2 57 14 3d
       -0.06847668 -0.10122833 -0.051932625 0.036216684
0003a0 1f 7e c6 3c cf f9 8a bd 02 68 bf bc 24 ad 83 bd
       0.024230061 -0.067859285 -0.023365024 -0.06429508
0003b0 d8 8f 0f 3d 51 18 ee 3c 24 8c d2 3d cc 8a 82 3c
       0.03504929 0.02906433 0.10280636 0.015935324
0003c0 78 b8 65 3d 4e 8a 38 bd 8b fb c2 bd b1 4d 18 3c
       0.056084126 -0.045053773 -0.09520634 0.009295867
0003d0 ce 27 ea 3d f8 10 9a 3d b3 9a 4f 3d 3e 17 92 bd
       0.114333734 0.07522768 0.050684642 -0.07133339
0003e0 d4 69 db bd b5 06 19 bb b0 61 9e bd ba 4f 90 3d
       -0.107135445 -0.0023349945 -0.07733476 0.07046457
0003f0 bc 24 00 be 9f d0 80 bd ac bb f4 bd 5c ce 28 bd
       -0.12514013 -0.06289791 -0.11949858 -0.041212425

rnn.bias_ih f4 [192]
000000 de 37 b6 3c 02 af 67 bd b5 a7 bb 3d bd d9 90 bd
       0.022243436 -0.056563385 0.09162847 -0.0707278
000010 88 32 5c bd 29 6c dd ba 7e 03 d1 3d a6 f7 c1 3d
       -0.053759128 -0.0016893196 0.10205744 0.09471063
000020 c0 a3 15 bc a8 26 fb 3d 18 31 05 3d 46 5d c9 bc
       -0.009133279 0.122632325 0.032517523 -0.024580609
000030 8e 54 18 3d 11 ca dd 3d 0a 3f a0 bd dd 1c 50 3d
       0.037190013 0.10829557 -0.07824524 0.050808776
000040 bd a0 8d 3d da b1 1f 3c 31 b7 61 bd ba a1 d6 bd
       0.06915424 0.009746993 -0.055106346 -0.10480066
000050 58 ea aa bd bb bc a7 3d 34 7e 8c 3d b0 d3 97 3d
       -0.08345479 0.08190294 0.06860009 0.07413423
000060 1f 51 72 3d 52 fd 2d bd cb 84 e9 bd 38 d6 98 bd
       0.059159394 -0.042477913 -0.114022814 -0.07462734
000070 33 8d 93 3d 09 a6 5b 3d 2b 8f 25 bd a7 4c cb bd
       0.07204666 0.05362514 -0.04041974 -0.0992673
000080 68 f7 1d bc cc c1 46 bd 5d 51 95 bd 36 c8 15 bd
       -0.009641506 -0.048524663 -0.072909094 -0.03656789
000090 9a 2e b4 bb 4e 5b 11 3d 3a 9c 8b bd 62 d0 1b 3d
       -0.0054987194 0.035487466 -0.06816907 0.038040526
0000a0 3e 84 a4 ba af 60 27 bd 7f 9e 55 3d d4 3d 9d 3d
       -0.0012551618 -0.04086369 0.052153107 0.076778084
0000b0 9f ce b2 bc 22 77 80 bb 9b 9a 72 bd e3 70 e8 3d
       -0.02182704 -0.0039204517 -0.059229475 0.113496564
0000c0 af b4 3d 3d e5 a4 b1 bd e5 d2 40 3d 2f 4a 17 3d
       0.04631489 -0.08674029 0.047076125 0.03693598
0000d0 b7 a3 ee 3c 82 dc f0 3d 0f b3 0d 3d 98 07 4e bd
       0.0291308 0.117608085 0.03459459 -0.05030021
0000e0 9c 83 98 3d b0 51 dd bd 86 47 d7 bd c4 58 a9 bd
       0.074469775 -0.10806596 -0.10511689 -0.08268884
0000f0 cc f5 7b bd a6 c5 8f 3d 71 72 a5 3d 74 11 96 bd
       -0.061513707 0.0702012 0.080784686 -0.07327548
000100 10 a0 80 3d b9 ac 6f bd f0 1d 0c 3d a7 00 b6 3c
       0.062805295 -0.05851433 0.034208238 0.022217108
000110 c6 c7 fe 3d be fd 12 bd 72 f5 f7 3d 17 6b f2 bd
       0.124404475 -0.03588652 0.12107362 -0.11836832
000120 83 4a ac bd b3 61 c1 3c b5 a1 98 bc 1d 7c e5 bd
       -0.084126495 0.023606157 -0.018631795 -0.11205313
000130 ba 9b 3d 3c 48 9a 8d bd cf 2d ca 3d 64 fa 8d 3d
       0.011572773 -0.069141924 0.098720185 0.06932524
000140 6e be 40 3c 97 12 18 3c b2 cc fa 3d 01 05 d5 3d
       0.011764152 0.009281776 0.12246074 0.10401345
000150 e5 6c 23 bd ee 27 d6 bd ad ec 41 bb d4 8c f7 bd
       -0.03989877 -0.10456835 -0.0029590533 -0.12087408
000160 94 ff e5 3d 23 4e 7b 3d 16 94 71 bd b1 9e 0a 3c
       0.11230388 0.061353814 -0.058979116 0.008460687
000170 f1 95 5a bd 00 91 5e bd a3 c0 b4 bd 83 27 dd bc
       -0.05336565 -0.0543375 -0.08825805 -0.02699638
000180 5b 3c bd 3d 71 b6 a8 3d dd c4 b9 bd ce c4 6a 3d
       0.092400275 0.08237923 -0.09070752 0.057316594
000190 f5 66 07 3d 1d f5 46 bd 40 86 b3 bd 51 31 f5 bc
       0.03305717 -0.048573602 -0.087658405 -0.029930742
0001a0 be 86 c4 3c 72 c1 17 3c ce 63 9c 3d 8d 70 38 bb
       0.023990031 0.00926243 0.07636224 -0.0028143257
0001b0 4d 7b e2 3d 22 5f e7 bd 5a 99 e7 bd ea ae 38 bd
       0.11058674 -0.11297442 -0.11308546 -0.045088686
0001c0 30 83 0c 3d e7 3e 86 3d f6 e1 3e bd d4 a6 28 3d
       0.034304798 0.065549664 -0.046602212 0.041174725
0001d0 22 94 83 3d fd 24 9c 3d 3d e8 a9 bd 38 c8 45 bd
       0.064247385 0.076242425 -0.08296249 -0.048286647
0001e0 67 6d 0a bd 69 ab ab 3c 82 8e 05 bd b4 a7 4c 3d
       -0.03379574 0.020955758 -0.03260661 0.04996462
0001f0 2c 01 12 bc 48 59 93 bc b8 80 a0 3d f0 fb 8f 3d
       -0.008911412 -0.017986909 0.07837051 0.07030475
000200 c8 db e1 3d 1f 7f f3 3d 68 34 33 bd 80 73 fd 3d
       0.11028248 0.11889481 -0.04375115 0.123755455
000210 60 3b b2 3c 60 cd d7 3a c7 6a 00 3e 14 61 aa 3c
       0.021756828 0.0016464405 0.12540732 0.020798244
000220 65 84 14 3d 57 85 a6 3d 5a 49 e1 3d c6 ee 36 bd
       0.036259074 0.08130901 0.11000319 -0.044661306
000230 97 ab eb 3d c0 52 38 3d a4 70 39 3d 71 1f d2 bd
       0.115073375 0.04500079 0.045273438 -0.10259903
000240 a3 a3 c3 3d cc 1f f8 bd 49 8b e7 bd 1c 87 ec bd
       0.095526956 -0.1211544 -0.113058634 -0.115492076
000250 6d 4a e1 3d ea 82 fd bd 8f 17 b3 bd d5 bb 5a 3d
       0.11000524 -0.123784855 -0.08744728 0.053401787
000260 5f da 0d 3c e8 b8 d9 bb 9d 58 cd 3d 3f 37 71 bd
       0.008658021 -0.006644357 0.10026667 -0.058890577
000270 de 10 7c 3d aa 85 62 3d b5 a9 5b bd f2 d9 39 3d
       0.061539523 0.055303253 -0.053628642 0.045373864
000280 c7 9b f0 bd d1 82 47 3d de 50 d4 bd fd a4 ca 3d
       -0.11748462 0.04870874 -0.10366987 0.0989475
000290 f2 2f 83 bd 66 0c e4 3d 3c b0 42 3c 8f d1 aa 3d
       -0.06405629 0.11135177 0.011882838 0.083407514
0002a0 37 da d8 bd d6 e8 80 bc 04 e2 c3 3d dd 15 d1 bd
       -0.10588496 -0.015736025 0.095645934 -0.10209248
0002b0 a0 51 05 bd d5 3a 25 3c 76 c2 8d 3d 9e c4 80 3d
       -0.032548547 0.010084827 0.06921856 0.06287502
0002c0 13 ef 76 3d 68 ec 89 bd 5b 80 87 bc 56 a2 d0 bd
       0.060286593 -0.06734544 -0.016540697 -0.10187213
0002d0 1a 7d f5 bc 2c b1 30 39 84 3a 1b bc 07 c4 00 be
       -0.02996688 0.0001685067 -0.0094744 -0.12574778
0002e0 da 25 f2 bd 77 6a 97 bd 2d 61 b8 3d 5b e9 83 3d
       -0.11823626 -0.073933534 0.0900291 0.064409934
0002f0 43 07 ad bd fb ee d3 bc a2 7d 42 bd 7b 78 70 3d
       -0.08448651 -0.02587079 -0.047483094 0.05870865

rnn.bias_hh f4 [192]
000000 6d e1 3d bd 1d da b3 3d a7 95 80 3d 7d fe f6 bd
       -0.04635756 0.08781836 0.06278544 -0.120602585
000010 e4 10 33 3d d5 25 52 bd 5a b6 ca 3d f2 e1 c4 bc
       0.04371728 -0.05130561 0.09898062 -0.02403352
000020 08 e1 0a bd 00 71 61 bb f2 04 1c ba 9d c2 58 bc
       -0.033906013 -0.0034399629 -0.00059516646 -0.013229993
000030 f4 a4 d8 bc 3b 3a 81 bd 14 06 b9 3d dc 0d d3 3d
       -0.026445843 -0.06309935 0.090343624 0.10305378
000040 0b 00 62 3c 47 ae db bd 0a 85 bc 3d 52 52 db bd
       0.013793956 -0.107266 0.09205063 -0.10709061
000050 26 e8 8e 3d a1 f4 a7 bd 29 ce 9f bc 68 82 1c 3d
       0.069778726 -0.08200956 -0.019507485 0.038210303
000060 5f ca af bd 52 b0 23 bd a1 32 72 bd 14 20 b4 bd
       -0.08583521 -0.039963074 -0.059130315 -0.08795181
000070 85 56 ec bd 03 9e 95 bd f3 ac b6 3d 71 f1 7b bd
       -0.1153994 -0.07305529 0.08919706 -0.061509553
000080 13 ef 8b bd 8c c2 ae 3d 59 c6 8f 3d 83 06 b7 3d
       -0.06832709 0.085332006 0.07020254 0.08936789
000090 c9 48 26 3d ad 86 95 bc 5c 7f 4c bd 9c 60 8c 3c
       0.040596757 -0.018252695 -0.049926147 0.01713591
0000a0 d4 e8 9e 3c fe dc 98 bc f5 1b 21 3b 8c 2c bc 3d
       0.01939813 -0.018660065 0.0024583314 0.09188184
0000b0 4a a2 8d 3d e0 3b 28 bd 45 f9 2a 3d ed 66 87 3d
       0.0691572 -0.041072726 0.04174163 0.066114284
0000c0 e9 1a 12 bd 19 1b 28 bd 26 c0 e4 3d af 38 f0 3d
       -0.035670195 -0.041041467 0.11169462 0.117295615
0000d0 ad 5c 7b bd ac f3 81 bd 4a eb eb bd cc 93 f3 bd
       -0.06136768 -0.06345305 -0.11519487 -0.118934244
0000e0 15 57 2d 3d 2e a2 7f 3c 9a 6f 98 3d 21 3a a6 3c
       0.042319376 0.0156026315 0.07443161 0.02029139
0000f0 34 cb 2f 3d b0 01 fd bc 9e 69 66 bd 6f e8 db 3c
       0.0429184 -0.030884594 -0.05625307 0.026844231
000100 7a 9a 8f 3d 8d a7 bc bd 5f dc 7a bc 93 22 06 3d
       0.07011886 -0.09211645 -0.01531133 0.032747816
000110 e6 99 91 3d b2 57 5a 3d dc 67 ec 3d cc 20 da 3c
       0.07109432 0.05330629 0.11543247 0.026626967
000120 e9 c1 a4 3d 23 2c ae bd f4 2b d7 bb 27 9f f1 3d
       0.08044798 -0.08504512 -0.006566519 0.11797934
000130 e9 3d 65 3b 02 f5 cc bb 92 3a 73 3d 08 6f 08 bd
       0.0034979528 -0.006254793 0.05938203 -0.033309013
000140 67 59 11 3d a5 6c a6 bd 30 3d 14 3d 0e cf 59 bd
       0.03548565 -0.08126191 0.036191165 -0.05317598
000150 21 61 4e bd 6e fc 9c 3d b9 05 ce 3d 8b 9e 59 3d
       -0.050385598 0.07665335 0.10059685 0.053129714
000160 13 8c 4f bd 8d 08 2e bd f3 fa ee 3d a2 91 ea 3b
       -0.050670695 -0.042488623 0.116689585 0.007158474
000170 75 7c 4f bd 0f 02 8f 3c 1a a4 09 3d b3 ed 9c 3b
       -0.0506558 0.017457036 0.033603765 0.004789078
000180 65 d3 d9 3d 66 20 35 bd fe 1d bc bc eb 62 c2 bd
       0.106360234 -0.04422035 -0.02296352 -0.09491523
000190 a0 42 8c 3a ef ed ee 3d b6 99 bd bd c0 53 53 3d
       0.0010701008 0.11666476 -0.09257834 0.051593542
0001a0 c8 d7 8e bd f4 29 c3 3d 6c 2b d2 bd c6 cd e0 3d
       -0.06974751 0.09529486 -0.10262188 0.10976748
0001b0 91 00 a3 bd 2d 07 36 bd f4 4d e7 bd a8 af 6c bc
       -0.079590924 -0.044440437 -0.11294165 -0.014446177
0001c0 ef 36 be 3c 3b 6c d3 3d 4d 54 d6 bd b4 86 49 bd
       0.023219554 0.10323378 -0.10465298 -0.04920073
0001d0 93 bc 72 bd c3 50 4a bd 8e 30 03 3d dc fb ce 3d
       -0.05926187 -0.049393427 0.032028727 0.10106632
0001e0 b9 4d 67 3d 19 06 96 3c 11 94 8f bd 5c fe 63 3d
       0.056470606 0.018313454 -0.07010663 0.055662498
0001f0 80 70 a3 bd 9e 59 bf bd 07 47 1e 3d 64 9c 63 bd
       -0.07980442 -0.09343265 0.038641956 -0.055569068
000200 f5 eb 8c bc ef dc 85 bd 4d 88 54 bd 27 11 35 3d
       -0.017202357 -0.0653628 -0.0518878 0.04420581
000210 61 e3 fa 3c f8 8c 9a 3d 45 dc 22 39 0c 35 5d 3c
       0.030626 0.07546419 0.0001553158 0.013501417
000220 af 8f d2 bd 92 a9 4d 3c 20 bb f3 bd 90 a8 da bd
       -0.10281312 0.012552636 -0.11900926 -0.10676682
000230 6c 45 8b 3d 29 02 7e 3c e8 95 77 bd 67 5e 1d bd
       0.068003505 0.015503445 -0.060445696 -0.038420107
000240 94 ea 59 bd 26 1f b6 bc 6f 96 28 3d 8b 46 ad bd
       -0.053202227 -0.02223165 0.04115909 -0.08460721
000250 43 17 58 bd 32 55 9a 3d 17 d1 58 bb 6b 14 e3 3d
       -0.05275656 0.07535781 -0.0033083612 0.11087879
000260 7d 42 77 3d 9f 05 e3 bd d0 8e 98 bd e3 87 da 3d
       0.060366143 -0.110850565 -0.07449114 0.106704496
000270 3f b5 4c bd d9 f6 91 bc 63 41 89 3d 1c 7a 52 3d
       -0.049977537 -0.017817901 0.06701925 0.051385984
000280 70 ff e2 3d a6 f7 a0 3d 18 af db bc 26 ca 6b bc
       0.11083877 0.07859735 -0.02681689 -0.014391458
000290 aa e1 e7 3d 9e 26 05 bd d9 da 57 3c 40 c1 f8 bd
       0.11322339 -0.03250753 0.013174736 -0.121462345
0002a0 3d 08 a1 3d 55 48 3b bd 56 c9 47 3d 28 33 bd 3d
       0.078628995 -0.045723278 0.048775993 0.09238273
0002b0 df 35 a5 bd 7b 8a be bc 7e 5d c9 bd 73 1f 4e 3d
       -0.08066916 -0.023259392 -0.09832285 0.05032296
0002c0 8a cb ed 3d 22 02 50 3d 0e 03 87 bd 62 99 a0 3b
       0.116110876 0.050783284 -0.065923795 0.004901097
0002d0 84 98 8f 3c 6a 83 a9 3d 7e 70 5f 3d 4b fc 97 3c
       0.01752878 0.08277018 0.05455064 0.01855292
0002e0 bd 8a cd bd 56 57 d4 3d 21 96 d6 bc 3b c8 7a bd
       -0.10036228 0.103682205 -0.026194634 -0.06122611
0002f0 ec c3 8c bd c4 76 61 3d 7b 54 bd 3d 53 fa 3e 3d
       -0.06873307 0.055044904 0.09244629 0.046625447

fc2.weight f4 [19, 64]
000000 c8 17 0c 3b 68 51 a6 3c ab d4 73 3d 5e 16 73 bc
       0.002137648 0.02030249 0.059528988 -0.014836876
000010 50 b0 9a 3c d9 11 af 3d 41 af d3 bd 83 6e ae bc
       0.0188829 0.08548326 -0.103361614 -0.02129293
000020 1f 60 95 bd 00 c5 0f 3d d6 9f c7 3d f8 08 b7 bd
       -0.07293724 0.035099983 0.09747283 -0.089372575
000030 1d 80 94 3c 0b 55 52 3d 8b 0a fc 3c 42 62 a4 3c
       0.018127495 0.051350635 0.030766746 0.020066384
000040 f5 d3 e8 bb 24 d6 a3 3c 5d 94 1c bb 43 c4 88 bc
       -0.0071053454 0.019999571 -0.0023892142 -0.016695147
000050 ed 2a af 3d 39 f6 d3 3d 64 87 4f bd 62 e3 46 bc
       0.08553109 0.103496976 -0.050666228 -0.012139173
000060 37 ef a9 3c 06 4f b6 3b d6 35 e1 3a 96 1d b9 3d
       0.02074395 0.0055636195 0.0017182182 0.09038846
000070 6e 41 d0 3c 1b f8 61 bc 03 3e ba bd be 46 af bd
       0.025421824 -0.013792063 -0.09093859 -0.08558415
000080 6f b8 e8 bd 97 7c f4 bd 1d 24 fd 3b 20 cd 4a bd
       -0.11363303 -0.11937826 0.0077252523 -0.04951203
000090 be c8 8e 3d b4 d6 ad 3d 24 45 db 3d bd 42 54 bc
       0.06971882 0.08488217 0.10706547 -0.012955365
0000a0 12 08 3d 3d df f3 01 bb 5f 92 88 bc 68 68 1c 3d
       0.046150275 -0.0019829196 -0.016671358 0.038185507
0000b0 ed 8f 9a bd 33 bd bc bd 6c ff 7e bd 8a bd e0 bc
       -0.07546983 -0.092157744 -0.062255308 -0.02743413
0000c0 6d 57 1c 3d 5b 57 d9 bd d4 e5 4f bd d3 a6 9b bd
       0.038169313 -0.10612365 -0.05075629 -0.076001786
0000d0 c2 bb 6f bd 78 85 82 bd ca 02 b5 3d a3 ec a6 3d
       -0.05852867 -0.063731134 0.088384226 0.081506036
0000e0 ab 02 97 bd bd 93 9d 3d 4a d3 85 3d 46 bb 0c bd
       -0.07373556 0.076941945 0.06534441 -0.034358285
0000f0 ae ea db 3d 92 64 d7 bd af e8 b6 3d ac eb 45 bd
       0.10738121 -0.10517229 0.089310996 -0.048320457
000100 6b 24 6d 3d 64 6f 4a bd 72 f2 ed bd eb f7 26 3c
       0.05789606 -0.049422637 -0.116185084 0.010190944
000110 e0 c4 42 bd b8 e1 ff bd 1b 48 a9 bb 40 3d 84 bd
       -0.047551036 -0.12494224 -0.0051660663 -0.06456995
000120 b0 c1 d4 bd d5 1c d6 3c da d7 bb bd a1 65 c8 bd
       -0.103885055 0.026136795 -0.0917203 -0.09785009
000130 2f a7 e6 bd 48 f7 9e bc 07 51 57 ba 08 a6 b7 3d
       -0.112623565 -0.019405022 -0.0008213673 0.08967215
000140 69 9a 32 bd e0 2e cc bd 5a d5 e7 3b 7a 43 f4 bd
       -0.04360429 -0.09969878 0.007074994 -0.11926933
000150 8e cc 0b bc a3 1d 36 bc 78 7b de bc ed 70 d7 3d
       -0.008532656 -0.011115464 -0.027158484 0.10519586
000160 d0 cc fa bd 24 c6 b7 bd 50 f5 0e 3d b3 09 d9 3d
       -0.12246096 -0.08973339 0.034901917 0.10597553
000170 b0 14 49 3d e0 7a 00 3e 2a cd ad 3d 2f 41 78 3d
       0.049091995 0.12546873 0.084863976 0.06060904
000180 77 9e a5 3c a6 95 8c bd 21 20 97 bd 84 7c 3b bd
       0.020217163 -0.06864481 -0.07379175 -0.045773044
000190 45 1d 90 3d 94 82 d6 bd bd e4 82 3c a8 66 d5 3d
       0.07036833 -0.104741246 0.015978212 0.10419971
0001a0 de 3c 9e 3c 72 ef 88 3d 92 73 a3 bd 96 7d f5 bd
       0.019316133 0.066862956 -0.07981028 -0.11986844
0001b0 ea 6a d3 3d 72 8b f1 3d 41 f0 90 3d 78 9e 19 3d
       0.103231266 0.11794175 0.07077075 0.037504643
0001c0 e8 72 81 bc 0d fe 4d bd 2f 86 ea bd 56 d4 ad bd
       -0.015801862 -0.05029111 -0.11451375 -0.084877655
0001d0 08 7d c2 bd fe 41 5f 3d 76 be 88 bd e5 39 fc bd
       -0.09496504 0.054506294 -0.066769525 -0.1231573
0001e0 84 37 73 3d 6e 36 16 bd 73 20 65 bd ff b3 14 3d
       0.059379116 -0.036673002 -0.05593915 0.03630447
0001f0 4b cd e5 bc e4 bb 85 3d 90 26 fb 3b a9 32 f3 3d
       -0.028051993 0.06529978 0.007664509 0.11874897
000200 b2 a7 a6 bc 7b 55 f9 bc a2 90 bd 3d d4 52 8e 3d
       -0.020343635 -0.030436268 0.09256102 0.06949392
000210 24 c1 46 3d 54 67 94 bd 49 c2 71 3d ef 82 8f 3c
       0.048524037 -0.07246271 0.059023175 0.017518489
000220 e4 d6 e2 bd 42 3d f1 3d fa 88 69 3d 3b 25 e0 3d
       -0.110761434 0.11779262 0.057015397 0.10944601
000230 12 bf f8 3c e8 a1 2d 3d b8 4f 0e bd ca 68 cf 3d
       0.030364547 0.042390734 -0.034743994 0.10127409
000240 25 e7 9b bd 45 81 de 3d 15 76 c9 bd 23 f7 5d bc
       -0.07612447 0.108645 -0.098369755 -0.0135476915
000250 0b 24 58 bd 60 98 4c bc 56 56 35 3d 57 7e 97 bd
       -0.05276875 -0.012487501 0.04427179 -0.07397144
000260 99 7b 20 bd e5 50 1e bd ce 3e aa bd 23 ed 49 3d
       -0.039180372 -0.038651366 -0.0831276 0.049298417
000270 21 bb cd bc 60 40 ec 3d 3c 39 7e bd 78 81 cc bc
       -0.025113644 0.11535716 -0.0620663 -0.02496408
000280 7b 9a 6e bd e5 57 63 3d 0c 2a f3 bd 85 39 f1 bd
       -0.058252793 0.055503745 -0.11873254 -0.11778549
000290 a4 e4 f9 3c 82 09 dd 3d 54 8a d3 bd 1b 51 ea bd
       0.030504532 0.10792829 -0.10329118 -0.11441251
0002a0 1d 79 2e bb 3c 2f b6 bd 91 77 79 3c ae 93 49 3d
       -0.0026622482 -0.08895728 0.015226261 0.049213104
0002b0 14 3f 2e 3d 12 61 d3 3d eb b2 f5 bd ae f7 85 bc
       0.042540625 0.10321249 -0.119970165 -0.016353454
0002c0 30 5f 8a bd 4c c4 70 bd 1b cf 89 bd da 8a 92 3b
       -0.06756437 -0.058780953 -0.06728955 0.004472119
0002d0 33 1b b2 3d 0f ea f5 3d 03 d3 bf bd 5a 24 4b 3c
       0.08696594 0.12007534 -0.09366419 0.012398804
0002e0 28 15 b5 3d 32 b8 65 3d d4 dd 29 3c 99 dd 3b bc
       0.08841926 0.056083865 0.010367829 -0.011466407
0002f0 36 fd 74 bd cf 11 d9 bd f3 5e 17 bd 79 28 bd 3d
       -0.059811793 -0.105991 -0.036955785 0.09236235
000300 b0 a4 da 3d f8 b7 5d 3c 8d 09 50 bd 3c ae 27 bc
       0.10675943 0.013532631 -0.05079036 -0.010234412
000310 3c 5a 97 3d 01 0e fe 3c 02 4c 00 3e 55 69 c5 3c
       0.07390258 0.031012537 0.12528995 0.024098078
000320 12 7b 5f 3d 7a 57 d2 3d 6a c3 f2 3d 61 b6 c5 3d
       0.05456073 0.10270591 0.118536785 0.09653927
000330 20 7a e3 bd 7a 34 6a bc 22 af 4e bd 0b 1d b6 3c
       -0.11107278 -0.014294738 -0.05045999 0.022230646
000340 57 78 ca 3c 15 81 23 3d 6e 14 7c bd 4f 38 e5 bb
       0.024715586 0.039918024 -0.06154292 -0.006995238
000350 3b 94 39 bd 2f 58 a9 3d 88 86 13 3d 0d 53 76 3d
       -0.04530738 0.08268773 0.03601697 0.060137797
000360 bd 14 c5 3d 11 57 7d 3d 95 31 9d 3c 3e e3 97 3d
       0.09623096 0.06185061 0.019188682 0.0741639
000370 fd f3 b3 3c 6b 27 b2 3b 9f 00 a9 bd 6d f5 bc bd
       0.021966929 0.005436828 -0.082520716 -0.09226499
000380 7d 21 e4 3d 23 b7 83 bd 76 f3 97 3d 64 23 8e bd
       0.111392 -0.06431415 0.07419483 -0.06940344
000390 4a 89 e7 bd 7f ad b8 bd 30 35 9d 3d de 30 eb bd
       -0.11305483 -0.09017467 0.0767616 -0.1148393
0003a0 6d 59 48 3d 39 f1 c1 3d 9d 13 ee bd 74 de 9d 3d
       0.048913408 0.09469838 -0.11624835 0.07708445
0003b0 7a f0 0f 3d 5b 79 99 3d 37 9a d5 3d 8f d0 b0 3c
       0.035141446 0.0749385 0.10429805 0.021583823
0003c0 52 91 25 bd 8b ca 9f bd 00 91 e2 bc 47 a2 a5 3d
       -0.04042179 -0.07802304 -0.027657032 0.080875926
0003d0 06 3a 76 bd c4 86 ef bd e6 24 e1 3d d9 d3 97 3d
       -0.06011393 -0.116956264 0.10993366 0.074134536
0003e0 87 e9 f2 bd 03 cb e0 bd 1c 37 ec 3d e9 dc e3 bd
       -0.11860948 -0.109762214 0.11533949 -0.1112612
0003f0 f0 fd e5 3d bf 06 6e bc 73 98 2f bc 62 20 b6 3c
       0.11230075 -0.014527976 -0.010717499 0.022232238

fc2.bias f4 [19]
000000 a3 6a a4 bd e9 b5 83 3d bb a6 45 39 b7 c7 b2 bd
       -0.08028152 0.06431181 0.00018849496 -0.08729499
000010 11 a3 e3 3d d2 f7 ee bc ee 7c aa 3c 53 03 82 bd
       0.11115087 -0.029170904 0.020811524 -0.0634829
000020 85 8f 7d bd 25 7d f0 3c 22 12 5e bd 2b 0d b9 3d
       -0.06190445 0.029356549 -0.05421651 0.09035715
000030 cd 76 39 bd 5c 5c dd bd 29 c7 21 3c 56 c2 b5 3c
       -0.045279313 -0.10808632 0.009874144 0.022187393
000040 85 b3 ab 3c 31 76 c1 bd d7 78 f4 3b
       0.020959625 -0.09446371 0.0074606943
