model/iql/5m_vs_6m/0_rnn_net_params.pkl (torch, 123855 bytes, 8 tensors)

fc1.weight f4 [64, 72]
00000000: cfef 48bd 004e 3e3b 89d7 73bd 9cf1 313d
00000010: d9b2 cfbd 0de1 ae3d 287a b1bd e6d7 bdbd
00000020: 3c8f 9abd d186 563d bd74 36bd 5e8b 303d
00000030: 24cd cabd 6f7c 94bd 7456 35bd 16eb c5bc
00000040: f62b babd 4216 a03d 05df ebbc 21da 163d
00000050: bfa0 a83d 28ad ab3c ff17 083d 20ed e63d
00000060: 13cd 5dbd 6cce 143d 36dd 5abd cb88 ae3d
00000070: 1fb7 be3d df92 e0bd cdfc cb3d e068 623d
00000080: 7972 563d a0a0 423d 0098 c63d a0aa 87bc
00000090: 032a cebd f26c 06bd ed07 acbd c485 de3b
000000a0: b971 bcbc e7d5 7ebd 1c2e 1fbc e39d e23d
000000b0: 65ae 28bc c0b2 333b 1c63 8ebc aa95 8f3c
000000c0: 9601 d53d a08a 913d 4440 273d 4b9c c93c
000000d0: 3b74 db3c f464 363d d6f2 84bc 105e e2bd
000000e0: 764e 97bd 13f9 cb3d 0a13 c63b e090 c5bd
000000f0: ee15 903c 7862 c53d 9415 e4bd 0072 a0bd
00000100: 0440 40bd 4000 9b3b db5a e9bc b890 64bc
00000110: a458 edbd ddf3 5d3d b9cd d13d 0c7b 913d
00000120: c6dd a8bd 3283 c0bd b18b 4c3d d3fd 6e3b
00000130: fcf9 493d efcb e9bd 0c7c c5bb c12b a83d
00000140: c008 643d 00c8 ad3b 9003 c63c 0b6f 26bc
00000150: f2c0 86bd c652 32bd 61ef 90bd e085 ca3d
00000160: 51dd 863d 2db9 243d fb09 b7bd 2049 bc3d
00000170: c772 1b3d c804 a93d d2fd 41bd 5fdc d43c
00000180: c9b4 ed3d 6e66 a43d ed9d c33d 7aea d2bc
00000190: 0cef b93d 18fe babd 9861 373c c7d9 85bd
000001a0: f657 e9bc f40d efbc 75d9 203c e2b7 dd3d
000001b0: a814 733d af5e c4ba 2560 ad3d a946 73bd
000001c0: dcdf 7c3d d46b 43bc a52f b0bc aa6f 723c
000001d0: 48db b6bd e981 6f3c cd37 1e3d 8b64 d03d
000001e0: 0032 12bd 3de3 313d 044a f33d fef9 4abd
000001f0: 407b e73d ea91 6bbd 24e0 583d 6604 393d
00000200: c4ed 0a3d 4eea c03d 0201 3fbd 71f6 023d
00000210: 0fb7 d93a 4689 b5bd 9f4a e2bc 4823 9fbd
00000220: ba6f 553d e893 2d3c b886 4d3c ed58 0ebd
00000230: 2555 cd3a 583d 1abd 23cc 0e3d c372 ec3d
00000240: 196d 9a3c 92b5 51bd 9561 91bd e1f9 233c
00000250: 4701 b1bd 505f b3bd d10c 9bbd e40b 28bd
00000260: e04a 1f3c 983f a83d fe11 3f3d fcf4 ba3d
00000270: 7698 99bd 6b52 333c 377e d4bd 4281 8c3d
00000280: 7f65 d13c 2366 e73d 219c a9bd 7b99 c33d
00000290: fece cd3d 7230 c53d fa92 813c 8482 dd3d
000002a0: dc24 9f3d 9b1e b63d fa1f dabb cf43 bbbd
000002b0: bce1 f4b9 0c3e bd3c e273 a6bd ef7f 8cbd
000002c0: db72 e9bd 5d28 25bd be49 d43d 4a46 ad3c
000002d0: 1c4f 06bc bca5 743b d38b 983d 6f16 d3bd
000002e0: c22e b8bd ac66 1cbd 36f4 8cbd 0d13 7d3d
000002f0: 5d96 ac3d 361b ecbd b0e0 cebd 4116 edbd
00000300: 5533 3a3d 864e c43d 2b17 b9bd ab90 63bd
00000310: 2a85 153d 688e 9bbd d213 cf3d 356a d93c
00000320: c54b 02bd 62c8 0d3c a296 1a3d ae99 26bd
00000330: 3bf9 b8bd 80a8 4f3a 4449 973a 9507 5d3b
00000340: ece2 8cbc 65f8 9a3d d6cc 0abd 4a84 2abc
00000350: b764 423d 56f7 99bd ed58 053d f248 cdbc
00000360: 9573 633d fef9 84bd b3ea 5b3b 7583 2c3c
00000370: 0e33 c0bd 578c b1bd a709 353d 2392 10bd
00000380: 4a4c 8d3d af6e ecbd 8987 6abd 90c0 c4bd
00000390: f7d9 443d 456d 1ebb 19fe abbc cacf a8bc
000003a0: acb4 bebd 52f8 0c3d 53fb fd3a 3d86 a4bd
000003b0: 038d 313d 7aa6 5cbb f466 e7bd 4093 7f3d
000003c0: df18 833d bdb6 adbc e798 a4bd a613 763b
000003d0: d02b b83d 43ec de3d 8738 b8bd 9c1c 5ebd
000003e0: 02e5 b93d cb06 703d 495b 933d 465c 74bd
000003f0: 51e4 cd3d 805e c4bd f8c7 dabb d8aa bd3a
-0.049056824 0.002903819 -0.059531722 0.043443307 -0.10141534 0.08539019 -0.086658776 -0.09269695
-0.07546851 0.052374665 -0.044544924 0.04310166 -0.09902409 -0.07250296 -0.0442719 -0.02415995
-0.09090416 0.07816745 -0.028792867 0.036829118 0.08233785 0.02095659 0.03322601 0.11275697
-0.054150652 0.03632967 -0.05343362 0.08522185 0.09312271 -0.109655134 0.09960327 0.055275798
0.052355263 0.047516465 0.096969604 -0.016560853 -0.10066607 -0.032818742 -0.08399949 0.0067908484
-0.023003446 -0.062215712 -0.009715583 0.11065271 -0.010295485 0.0027419776 -0.017381243 0.01752742
0.10400693 0.07106519 0.040832773 0.02461066 0.026788821 0.04452987 -0.016229074 -0.11053097
-0.07388012 0.099596165 0.00604475 -0.09646773 0.017588582 0.09637922 -0.11136928 -0.07834244
-0.04693605 0.0047302544 -0.028485706 -0.013950519 -0.115891725 0.054187644 0.102443166 0.071035475
-0.08245425 -0.094000235 0.049937908 0.003646721 0.04931067 -0.1141585 -0.0060267504 0.082114704
0.055672407 0.005303383 0.02417162 -0.010158311 -0.0657977 -0.04353597 -0.07076908 0.09888816
0.065851815 0.04021566 -0.089374505 0.09193635 0.037951257 0.08252865 -0.047361203 0.025983987
0.11606748 0.080273494 0.09551606 -0.025746573 0.09078798 -0.09130496 0.011192702 -0.06535678
-0.028484326 -0.029181458 0.009817471 0.108260885 0.05934587 -0.0014981831 0.08465604 -0.05939356
0.061736926 -0.011927564 -0.021507094 0.014797131 -0.08928543 0.014618375 0.038627435 0.10175427
-0.035692215 0.043429602 0.11879352 -0.049554817 0.11302805 -0.0575122 0.052948132 0.04517021
0.033918157 0.0941969 -0.04663182 0.031973306 0.0016610342 -0.088640735 -0.027623473 -0.07770401
0.052108504 0.010594346 0.0125443265 -0.034752775 0.0015665634 -0.03765616 0.03486265 0.115453266
0.01885085 -0.05119855 -0.070986904 0.010008306 -0.08642822 -0.08758414 -0.07570804 -0.041026965
0.009722441 0.082152545 0.046648018 0.09128758 -0.07499783 0.010944943 -0.10375636 0.068605915
0.025561092 0.11298778 -0.08281732 0.095507585 0.10049246 0.09628381 0.015817154 0.108159095
0.07770702 0.08892556 -0.006656644 -0.09143793 -0.00046707492 0.023100875 -0.08127572 -0.06860339
-0.1139886 -0.040321697 0.10365628 0.02115168 -0.008197572 0.003733023 0.07448544 -0.10307013
-0.08993293 -0.038183853 -0.06882517 0.061785746 0.08427117 -0.115286276 -0.101014495 -0.1157651
0.04545911 0.0958529 -0.09037622 -0.055557888 0.03650395 -0.07595521 0.10111202 0.026539901
-0.03181054 0.008653732 0.03774131 -0.040673904 -0.09031912 0.0007921532 0.0011542221 0.0033726443
-0.017198049 0.07566909 -0.033886753 -0.010407517 0.04745933 -0.07517879 0.03255551 -0.025059197
0.05553015 -0.06492995 0.003355664 0.010529389 -0.09384738 -0.08669346 0.04419866 -0.035295617
0.068993166 -0.11544549 -0.057258163 -0.09607041 0.04805943 -0.0024174016 -0.020995187 -0.020606894
-0.09311804 0.034416504 0.0019377269 -0.080334164 0.04334737 -0.0033668564 -0.112989336 0.062396288
0.06401228 -0.0212053 -0.08036976 0.0037548332 0.089927316 0.10884907 -0.08995157 -0.054226503
0.09076883 0.05860023 0.07195146 -0.05965831 0.100533135 -0.09588337 -0.00667667 0.0014470471

fc1.bias f4 [64]
00000000: eb7d 283d 6246 9bbd c3ba 8abd c4dd a3bc
00000010: c606 e13d 1f8c bcbd 173f 563d bd77 fa3c
00000020: 00cb 0c3c 3234 fc3c c13d e03c a594 933d
00000030: 1c9d dbbd cdbb f13d de66 ecbc b24c 24bc
00000040: dd72 bbbc 0fd6 5abd 72ec a83d dd3f 49bd
00000050: 24b1 7dbc 025b a63d 03dd 433d 7e9e 423d
00000060: 9149 9abd f4fe 023d 112b 073d a8fe 443d
00000070: 480c e8bd cd47 583d 360a cd3c 431f a43d
00000080: 4e42 d23d 4932 9b3d 1d1f df3d 4612 efbd
00000090: 92e4 c9bc 9488 e7bd ca4c bc3d 46c6 9fbd
000000a0: 1afb e03d 66d3 a8bd 3ba3 c4bc d808 923c
000000b0: 34b9 af3a 27a4 b8ba 2bec cd3d 0728 28bd
000000c0: 073a 903d 1799 383d 0516 e13c 9a6c 65bd
000000d0: 4f46 b33d 6cc2 61bd af8d cd3d d150 733b
000000e0: c979 cabd cf2c c0bd 912e 95bd 055b c73d
000000f0: 742c 3f3d 4d6c 923c 5825 9cbc 8613 1d3d
0.04113571 -0.07581784 -0.06773903 -0.020003207 0.1098762 -0.092064135 0.05230626 0.030574674
0.008593321 0.030786607 0.027373197 0.07206086 -0.107233256 0.11803398 -0.028857645 -0.010028051
-0.02288192 -0.0534268 0.08248223 -0.04913317 -0.015484128 0.08122827 0.047818195 0.04751443
-0.07533563 0.031981423 0.033000056 0.04809442 -0.113304675 0.05280285 0.025029283 0.08013775
0.10266553 0.075779505 0.10894606 -0.11673407 -0.024645124 -0.11305347 0.09194334 -0.078014895
0.10985394 -0.08243446 -0.024003616 0.017826483 0.0013406635 -0.0014087007 0.10054811 -0.041053798
0.07042318 0.045067873 0.02747632 -0.056011774 0.08753645 -0.055117056 0.100367896 0.0037127028
-0.0988651 -0.093835466 -0.072842725 0.097341575 0.046673253 0.017873907 -0.019060776 0.038348697

rnn.weight_ih f4 [192, 64]
00000000: 6570 ae3b 195d a0bd 25fa 27bc 77e6 b0bd
00000010: a4dd 98b9 8b62 a8bd 7018 c03d bb01 ae3d
00000020: 2bca 663c d608 d43d 57d8 03bd bcd7 fc3d
00000030: 8bca f6bd 1335 803d c9d2 2ebc 9c93 d6bd
00000040: 168b 013d c684 a13d 95ef 15bc 7b1d fd3d
00000050: 0667 ae3d 9f24 98bb 5342 23bd 2743 a83d
00000060: d525 e5bd 9e38 a43d 7c31 d539 f946 e2bd
00000070: ba3a 413c 48d4 f23d 6344 cf3d 37c6 ec3d
00000080: 1244 7c3c 7a1d efbd d949 e0bd 370d 5dbd
00000090: 58f2 883b bfdc e33d 8847 e8bd aa34 97bd
000000a0: b13d 5f3d bea0 0e3b 47d4 9a3d 11f0 f33d
000000b0: ba37 44bd 4dd0 8d3d 6094 853d 76ca f2ba
000000c0: ba04 7c3d 581b afbd 1240 1f3d 3c03 dd3d
000000d0: 4033 4cbd b120 96bd fb01 b3ba f975 7dbd
000000e0: 2500 cd3d da19 643d 76c8 9dbd 1e71 c6bd
000000f0: 3ae1 9c3d b9b0 603c b441 adbd a6a6 96bd
00000100: 9c0f d1bd 9127 373d d3ad d63d 7c85 da3b
00000110: e0d2 f83d 648e 9ebd 81b1 023d 20bf aebb
00000120: 0dd1 f83d b4a5 f43d 9bf7 a53c 675a edbd
00000130: 1c2b bbbd cc88 eebd 9109 cfbd 4caf 96bb
00000140: d7e8 da3d 67b9 92bc 5da0 4a3d 2264 acbd
00000150: ed31 bc3d e11c 7c3d 1c50 d1bc 9ca7 203d
00000160: 66eb a63d 7fe1 bbbd 86a6 fd3d ad8a 9bbd
00000170: 761f 67bd 99cc e33c 3741 9cbb 606a 4e39
00000180: fc4c dd3c 34aa 7a3d e94e 323d be35 903d
00000190: 8f18 823c 9e5b 9c3d ee8a 09bd 93bf adbc
000001a0: a31f bfbd ea76 19bc 5f02 acbd 19f4 bdbc
000001b0: 0f54 eb3d d6c5 f53b 99c2 223d 60b5 7ebd
000001c0: 4c0b 8cbd c704 a33d e838 8cb9 79fd 96bd
000001d0: 8c04 d1bd d278 903d d743 f8bd 7168 ba3d
000001e0: e3e9 c5bd c592 bcbd 42f7 753d ca41 b9bd
000001f0: 6ebb eb3c b65a 68bc d583 74bd c31f 933d
00000200: 44e5 4cbd 6be8 cd3d 1663 0bbc 1823 ba3d
00000210: 144f d13d 312a a53c 4e37 023d 86ef fc3d
00000220: 990a a8bd 3f99 f2bd b26f 86bd 0f4f 633c
00000230: 8180 d43d d3e5 a33d 8e11 05bb a709 5d3d
00000240: a2c8 8b3d 05bf 87bd 2dd2 d4bc b776 ddbd
00000250: 5386 97bd 33bb b6bd 2fdc c7bd f625 923d
00000260: 4e43 d03d 8621 bebc dcfd bb3c ec95 bcb9
00000270: 68f6 323d 5c7a 363b 2daf 99bd 1f5a 693d
00000280: 5cef e43c 4b13 83bd 7659 dabd 682a bdbc
00000290: 2f3a ccbd 882c afbd bb41 b8bd a603 91bd
000002a0: b73b bc3d 6687 09bd b6bd e13c d83c d53d
000002b0: 876f c4bd 5864 90bd 972b af3d 8f8d 913d
000002c0: b6d1 713d cfd3 9e3d d308 54bc cd8d 5b3d
000002d0: 4135 25bc f93b 983d 5bb5 3e3d f351 cbbc
000002e0: d552 93bd a2d6 b33d cd55 d9bd e639 2d3d
000002f0: 5d56 ed3d f8eb d3bd 452c da3d 704b 643d
00000300: 8c8b 94bd 7d83 4abd 9de8 6abc 8859 9fbd
00000310: 1ddf d5bd f5e1 e03d cd20 23bd 34b4 f2bd
00000320: dec5 a13c 77a0 0e3c 1078 ef3d ca69 df3d
00000330: 5971 743d ccaa e2bd c124 8c3d a13a b2bd
00000340: c94b 1dbc 3c40 a83d 0629 b7bc bf69 be3d
00000350: a0a0 793c ca59 2ebd 3dae 1fbd 9b66 3abd
00000360: ff32 8e3d e4ae 223d 1246 1fbd 84b4 083d
00000370: 9382 22bc be4b 93bd 275c f1bd 46d9 c2bc
00000380: f948 ed3d 8e9c d9bd bdd9 e2bd 67a0 953d
00000390: a4e0 d4bd b914 41bd e26c debd af74 29bc
000003a0: 6b3d b8bd 5ff9 3e3d c33d 25bd 3801 223d
000003b0: 47d2 00bd 8b60 ec3d 089a 6dbc 08f1 9cbd
000003c0: d71d 963d 3503 5a3d b501 49bd e729 7d3d
000003d0: f5ec e9bd 196d ef3c cebf 903d 1c61 6c3d
000003e0: f259 223d 9c14 c33d 8027 983d 215e a73d
000003f0: 9829 cebb 6d13 d7bd 86c3 f3bd 249f ccbd
0.005323457 -0.07830257 -0.01025251 -0.08637708 -0.00029156834 -0.082219206 0.09379661 0.08496424
0.014086287 0.10353248 -0.03218874 0.123458356 -0.12050351 0.06260123 -0.010670372 -0.10477373
0.031626783 0.07886653 -0.009151359 0.123591386 0.08515744 -0.0046430374 -0.039858174 0.08215933
-0.111888565 0.08018611 0.00040663395 -0.11048693 0.011793787 0.11856896 0.101204656 0.11561244
0.015397089 -0.11675544 -0.10951585 -0.05396768 0.0041792803 0.11126088 -0.113417685 -0.07383092
0.054502193 0.002176329 0.0756002 0.119110234 -0.047904707 0.06924496 0.06522441 -0.0018523473
0.061527945 -0.08550137 0.03887946 0.107916325 -0.049853563 -0.07330454 -0.0013657206 -0.061880086
0.10009793 0.055688716 -0.077042505 -0.09689544 0.07660146 0.013714009 -0.084597975 -0.073560044
-0.102080554 0.044715468 0.10482373 0.0066687446 0.12149596 -0.077420026 0.031907562 -0.0053328425
0.12149248 0.11945668 0.020259669 -0.115895085 -0.09139082 -0.11647186 -0.101092465 -0.0045985337
0.10688942 -0.017910672 0.04946934 -0.08417536 0.0918921 0.06155098 -0.025550894 0.039222345
0.081503674 -0.09173869 0.123852775 -0.0759481 -0.056426488 0.02780752 -0.0047685164 0.00019685319
0.027014248 0.061197475 0.043532286 0.070415005 0.015880851 0.07634662 -0.03357976 -0.021209514
-0.09332206 -0.00936673 -0.0839889 -0.023187684 0.11490642 0.0075003905 0.039736364 -0.06218469
-0.06838092 0.079598956 -0.0002674528 -0.07372565 -0.102059454 0.07054295 -0.121223144 0.09101952
-0.09663751 -0.092076816 0.060050257 -0.090457514 0.028775897 -0.014181783 -0.059696037 0.071837924
-0.050023332 0.10054096 -0.008507511 0.09088725 0.10220161 0.02016172 0.031791024 0.12350373
-0.08205146 -0.118456356 -0.06564273 0.0138738295 0.10376073 0.0800282 -0.0020304653 0.053964283
0.06825377 -0.06628231 -0.025979126 -0.10813659 -0.07398667 -0.08922424 -0.097587936 0.07136147
0.10169087 -0.023209345 0.022948198 -0.00035969855 0.043692023 0.0027843928 -0.07504115 0.05697071
0.027946167 -0.06400164 -0.106615946 -0.02309151 -0.09972035 -0.085534155 -0.08996912 -0.07080774
0.09191077 -0.03357639 0.027556282 0.10411996 -0.09591585 -0.07050389 0.08553236 0.07107078
0.059037887 0.07755243 -0.012941557 0.05360203 -0.0100834975 0.07433314 0.046559673 -0.02481935
-0.07193533 0.08781172 -0.10612068 0.042291544 0.11588738 -0.10347742 0.10652975 0.055736005
-0.07253179 -0.049441803 -0.014337686 -0.077807486 -0.10442946 0.10980598 -0.039826203 -0.11850777
0.01974767 0.00870525 0.11692822 0.109088495 0.05967841 -0.11067733 0.06842948 -0.08702589
-0.009600588 0.08215377 -0.022358429 0.09297513 0.01523605 -0.0425661 -0.038984526 -0.04550801
0.069433205 0.03971757 -0.038885184 0.033375278 -0.009918827 -0.07192181 -0.11785155 -0.023785245
0.11586184 -0.106255636 -0.110766865 0.07305985 -0.10394409 -0.047138903 -0.108606115 -0.010342761
-0.089960895 0.046624538 -0.040342104 0.039551944 -0.031450536 0.115418516 -0.014502056 -0.076631606
0.0732991 0.053225715 -0.049073894 0.06180754 -0.11422149 0.029226827 0.07067834 0.0577098
0.03963656 0.09525415 0.07429409 0.081722505 -0.0062915795 -0.10501752 -0.119025275 -0.09991291

rnn.weight_hh f4 [192, 64]
00000000: 1fab cfbd 676e f3bd 3899 31bd c449 703d
00000010: 619e 7ebd b8aa 72bc 14c4 5a3d a17b d3bd
00000020: 16c6 8bbc 1ab0 353d 201d 48bd c262 8d3d
00000030: d143 f2bd 02da ac3d a0ca febd 970b 61bc
00000040: b599 963d b9b8 feba c6cf 073d e8d7 bf3d
00000050: a33c e6bd 5d61 5dbc ea45 ab3d 567a 1ebd
00000060: 597c dc3d e6e0 83bd bf44 673d 358e cbbc
00000070: c0d1 f33d 87f8 abbd 0932 87bd d6ff bdbd
00000080: 15ae bb3c 5236 00bc 4dc6 df3d ab9c d7bd
00000090: dbf3 ee3c 0587 ecbd 329a a93d 1020 e1bd
000000a0: a652 9dbc f1cf 2b3d dc9f f63d 6e03 a83d
000000b0: d275 dcbc 7670 233d 9bc2 953d dacd 193c
000000c0: 87f6 e43d 76fa 6cbd a44e 73bd 00a4 713d
000000d0: f7f7 d23d aba5 0cbc b1a5 6abd 36ff d6bd
000000e0: 95cc 8fbd aaf2 d4bd 13a9 11bd b028 dbbc
000000f0: 4b94 93bd eaef 023d a7f2 7ebd 63dd 1d3d
00000100: 4aad ae3d 8a0f 47bb ad52 bb3d 25ab 083d
00000110: 6251 243c 4112 c23d 9125 00be 4b5b f63d
00000120: ca85 c8bc 519d d33d 75c0 55bc f6ff ce3c
00000130: 9320 1fbd 7c16 a0bd bcd3 dabd 3077 2ebd
00000140: 9129 b5bd eae2 b13d 5764 8e3d 920b b33c
00000150: e612 64bc b6ff f8bd 34f0 ef3c 1884 493d
00000160: 2de9 f5bd 9810 bfbd f597 eabc cf8d 493c
00000170: 89f0 1dbd 1278 513d 9432 42bd 4690 b73d
00000180: 6e3f 9cbd dc20 6f3d e6d4 a43c 688c 07bc
00000190: f09c 12b9 0b86 423b 7609 b23d 9d31 c03d
000001a0: b8ff 6f3c b49e bc3a a78d 8c3d da74 423d
000001b0: 8241 2cbd 9db3 5dbd 7547 e6bd e692 9dbd
000001c0: 5ed7 58bd 3231 303d 96e4 a03d 9e43 0abd
000001d0: dd6b adbd a8be 113c 9bb1 ba3d c8e9 e5bd
000001e0: dc5a 693d ab61 10bd d4d1 933c 0e43 a9bd
000001f0: 84a2 0abd 3ba7 c9bd 95e6 a43d 25f2 3abc
00000200: 9cab 5b3d e0d7 eebc 2f9c f0bd adf8 77bd
00000210: 3593 e53c 7826 a3bd ee53 cc3c 96d2 b63d
00000220: 9006 db3d e82b 89bd 363b a13d 51eb aa3c
00000230: 9da1 f1bd f19b ecbd 6551 103d e37f f2bd
00000240: 88c6 b9bc b548 a9bd b3ee a33d dfc9 71bd
00000250: 6ad3 933d 2716 f2bd 10ed db3d 5dee cebd
00000260: 7409 c13d 131e a0bc ae73 1abd b4b1 783c
00000270: d588 d73d 7ace 84bd ec48 89bd 6139 8b3d
00000280: ac2a 3fbd 972d 83bd 92a8 703c d193 d03d
00000290: c75f d0bd cdfe 7fbd f22c 31bc 008f 3d3d
000002a0: d7f2 8e3d 3541 573c 0e71 1e3c 5438 913d
000002b0: 2436 a4bd 3e28 e53c 59c7 de3d 8f36 c3bd
000002c0: fdfd 793c 4f4e 48bc 06da 003e d405 9fbd
000002d0: 642d e63d 3fdc a03d e8b7 943d e400 f2bd
000002e0: cc92 cd3c 4046 87bd 70bd f53d b613 59bd
000002f0: 7f49 c4bd afd6 863d 7753 b8bc d4f2 91bd
00000300: ad2e 883d 07d7 dabd bdbf c2bd ae5f 64bd
00000310: c573 923d c656 eb3c 36a6 ce3d dd66 f53c
00000320: 1d7e a73d e145 c3bc 7a17 db3b 763f 623c
00000330: b31c ba3d 649d fd3c deb7 1b3d e028 9c3d
00000340: 4626 bebd d4b7 9b3d b757 a13d e25e 893d
00000350: 4050 e7bd 0c63 dfbd e767 d4bd 8f24 8fbd
00000360: 757a e33d ff6e d93d b551 9ebd edb6 e73d
00000370: 2752 853c c81f 7cbd 92af c3bd 08ba 9bbd
00000380: 4a3a 1f3c d3b4 9fbd 944a 913d 2770 db3d
00000390: 0aca f3bd 32d0 6abc 768c e73d 6c1e ea3d
000003a0: 3039 a9bd 1ab2 463d eeef e63d 7671 8a3c
000003b0: 312b 4f3d 3934 863d e395 3dbd d18d c1bd
000003c0: a52d a4bd fa10 e83d 7f4a 36bd d346 a1bd
000003d0: ea02 cc3c 4949 a83d bbe6 b43d fb04 9ebd
000003e0: 1fa6 c9bd 6337 81bd 36b7 853d 4111 b13d
000003f0: d30c b53d 5c99 ef3d e39a e4bd ce07 1c3c
-0.10140061 -0.11886292 -0.04335901 0.0586641 -0.06216276 -0.01481121 0.05340965 -0.10326315
-0.017062228 0.044357397 -0.0488559 0.06903602 -0.11829341 0.08440019 -0.124409914 -0.013735673
0.07353536 -0.0019433714 0.033157133 0.09367353 -0.11242034 -0.013511983 0.083629444 -0.038690887
0.10765905 -0.0643938 0.056462046 -0.024848083 0.11905241 -0.08397012 -0.0660134 -0.092773125
0.022910157 -0.007825451 0.10926495 -0.10527929 0.029169014 -0.115491904 0.082813635 -0.109924436
-0.019204449 0.041946355 0.120422095 0.08203779 -0.02691165 0.039902173 0.07312509 0.009387458
0.11179834 -0.057856046 -0.05940117 0.058994293 0.10301202 -0.00858442 -0.057286922 -0.104978964
-0.07021443 -0.10397847 -0.035561632 -0.0267528 -0.07206019 0.03196708 -0.06224313 0.03854121
0.08529146 -0.0030374252 0.091466285 0.03336634 0.010029169 0.09476138 -0.1251433 0.120291315
-0.024477858 0.1033274 -0.013046374 0.025268536 -0.038849425 -0.078167886 -0.106849164 -0.042594135
-0.08845819 0.086858585 0.06952732 0.021856103 -0.013920521 -0.12158148 0.029289342 0.04919824
-0.120073654 -0.09329337 -0.028636912 0.012301876 -0.03855947 0.0511399 -0.047411516 0.08963065
-0.07629286 0.058380947 0.02012105 -0.008273222 -0.00013982109 0.0029681947 0.08693211 0.09384463
0.01464837 0.0014390559 0.068629555 0.04747472 -0.04205466 -0.05412637 -0.11244098 -0.07694034
-0.052939765 0.043015666 0.07856099 -0.03375589 -0.08467839 0.008895554 0.09115907 -0.11226231
0.056971416 -0.035249393 0.01804439 -0.08264743 -0.033846393 -0.0984635 0.080517925 -0.011410271
0.053630456 -0.029155672 -0.1174854 -0.06053989 0.028024295 -0.07966322 0.024942365 0.08926885
0.10694611 -0.066978276 0.07872622 0.02086416 -0.117984034 -0.11553181 0.035233874 -0.11840799
-0.022677675 -0.08265821 0.08004513 -0.05903041 0.072180584 -0.118206315 0.107385755 -0.10104058
0.09425631 -0.01954559 -0.037707977 0.0151790865 0.105241455 -0.06484695 -0.06703362 0.067980535
-0.046671554 -0.0640518 0.014688628 0.10184444 -0.10174518 -0.062498856 -0.010813938 0.046278954
0.06979912 0.013138105 0.009670509 0.07090822 -0.08018139 0.02797329 0.10877866 -0.095318906
0.015258309 -0.0122257015 0.1258317 -0.077647835 0.11239126 0.078545086 0.0726164 -0.11816576
0.025094412 -0.06605196 0.11999023 -0.052997313 -0.09584331 0.065839164 -0.022500737 -0.07126394
0.06649528 -0.106855445 -0.095092274 -0.05575531 0.071509875 0.0287279 0.10090296 0.029956276
0.08178351 -0.023837032 0.0066861482 0.013809076 0.09087505 0.030958839 0.038017146 0.07624984
-0.09284644 0.07603422 0.078780584 0.067075506 -0.11294603 -0.109075636 -0.1037138 -0.06989395
0.11107341 0.10616874 -0.07730428 0.11314187 0.016274525 -0.061553746 -0.09554972 -0.07603842
0.009718487 -0.07798161 0.07094303 0.10714751 -0.1190377 -0.014331864 0.11306088 0.11431584
-0.08262861 0.048509695 0.11276232 0.016899806 0.0505783 0.065529294 -0.04628552 -0.094508775
-0.080165185 0.11331363 -0.04450464 -0.07874837 0.024903733 0.08217103 0.08833071 -0.07715794
-0.09846138 -0.06309392 0.06529085 0.08645869 0.08840337 0.11699173 -0.11162355 0.009523345

rnn.bias_ih f4 [192]
00000000: 64ac 3a3b 6167 ed3c 9603 b8bd 8a48 cdbd
00000010: 2857 b3bd 4483 c9bd 6b8f 88bc e584 08bc
00000020: ab07 f2bd b61b 27bd 97b4 c2bc 7ed1 333c
00000030: eeac 9cbd 3a96 d93d e582 d43c 808b 66bd
00000040: 0c63 cabd e47b 97bd 82a8 753d a4fc 01bd
00000050: a3f2 69bd a432 cebd a667 d8bc 7e6b 3fbd
00000060: d9d6 e93d 5ecf 59bc 745e 4bbb 0865 c53d
00000070: 473c a2bd d0eb b83b c424 5d3c e534 c83d
00000080: 34e0 63bd 10b9 90bc ba8f f73d 0803 d83d
00000090: 31bd fd3b 01c9 d63d 00bf 333d c44c a53d
000000a0: df0b 243d e590 93bd 0f70 d6bd 217a aabd
000000b0: de1b ffbd f254 ad3d b3f5 033d a39c ce3d
000000c0: 7dd3 d63d 74e5 0fbd dc47 abbd 8b5a c0bd
000000d0: 597c 4dbd f5d6 0d3c 544f 6d3d 7374 813d
000000e0: d411 8c3b 6f5c c13d b8d9 ec3d 155c 7d3c
000000f0: fd2f e53d 1b84 e33d d6b4 bdbc fad6 8dbb
00000100: f3d0 f4bd 44b0 ee3c 6c11 a9bd 29f1 e1bc
00000110: 163d 323d 5674 173c 992e 753d 3438 9cbd
00000120: 613e 15bd 7ce3 f3bd e2dc b5bc dfcf 1f3d
00000130: 12bc 803d 89c6 943a ec2e d23d 1900 92bd
00000140: b518 e7bd 2bad 37bd e4b7 af3c c3b3 d03d
00000150: 13f2 0abd 318b 953d 1b0c c03d 57cc babd
00000160: fca2 b4bd 5a12 24bd 360e 013d c0c2 eb3b
00000170: 43cc b6bd 297f c7ba e438 b2bd affb 54bc
00000180: cc61 7bbc 0bab 4ebc 8bb9 81bc cc58 ff3d
00000190: 07b4 453d 17b8 84bd c7da 95bd d3ff 9dbd
000001a0: 076f 853d 8106 9dbc 31ee e6bd 2a7c df3c
000001b0: 2e90 2c3d fb3c 823d 0810 ec3d 398e a7bd
000001c0: e13e d73d 1ced cfbd a611 e33d eaf7 9fbd
000001d0: 40a2 9cbd d0ad c8bc 7d59 79bd 7258 c63d
000001e0: 4aba 373d a6da 903c dea0 a13d db9c e4bd
000001f0: 001c 19b7 d495 d4bd 551b b53d fa24 74bd
00000200: 187b a2bd 07f7 d33d 729b 203d c2d9 c13b
00000210: ceab ac3d 096b a93c adda 313d 1bc5 bb3b
00000220: 1697 a0bd fd89 fe3d d592 1d3d 2f60 e83d
00000230: d152 e5bd 511b 87bd e96e 69bd 7308 2fbd
00000240: 6ea3 e93d e24c febc 1ec2 733d 741c c8bd
00000250: 6ed6 68bd c4dd 983a 2e69 4cbc 45ef 75bd
00000260: bfa5 c5bc a7b7 383d 5299 663d ced4 003d
00000270: 0276 0d3d 80fe 2a3d ad71 523d e86c c8bd
00000280: 1041 8e3d 19cf f43d 4484 06bd 611c 11bd
00000290: 2588 c03d 62a9 cdbd 543a 9c3d dff3 12bc
000002a0: bcf3 cebd 9773 1c3c 67ab d73d 2f3a f93d
000002b0: c712 833d 4f17 72bc 5f28 c8bc 0567 30bd
000002c0: 0e49 b0bc d193 9d3d 6c3d 9dbd 48f6 68bc
000002d0: f09e e33d 3c1d 1c3d f70d c3bd 5335 793d
000002e0: 77a4 dcbd 397c 083d d81d 1e3d dced 99bd
000002f0: b5c9 9d3d ba42 d33d 7961 373d 2e47 ec3c
0.00284841 0.028979959 -0.08985059 -0.10023601 -0.08756858 -0.0983949 -0.01666995 -0.008332466
-0.11817869 -0.04079791 -0.023767753 0.01097524 -0.07650171 0.106243566 0.025941322 -0.05628538
-0.09882173 -0.07396677 0.059975155 -0.031735078 -0.057116162 -0.10068253 -0.02641661 -0.046733372
0.11417932 -0.013294069 -0.003103164 0.09638411 -0.07921653 0.0056433454 0.013497535 0.09775714
-0.05563374 -0.01766637 0.120879605 0.10547453 0.0077435006 0.10487557 0.043883324 0.080712825
0.040050384 -0.07205371 -0.10470592 -0.083240755 -0.12456487 0.08463468 0.03221674 0.1008847
0.10489557 -0.035130933 -0.083633155 -0.0939227 -0.050167415 0.008657207 0.05793698 0.06321039
0.004274586 0.094414584 0.11564964 0.015463849 0.11190794 0.111091815 -0.023157518 -0.0043286057
-0.119539164 0.029136784 -0.08255276 -0.027580814 0.043515287 0.009244045 0.059858892 -0.076279074
-0.036436442 -0.119086236 -0.022200052 0.0390166 0.062858716 0.0011350672 0.10262856 -0.07128925
-0.11284009 -0.04484288 0.02144999 0.10190537 -0.033922266 0.07301939 0.09377309 -0.09121006
-0.08820149 -0.040056564 0.031507693 0.007194847 -0.089256786 -0.0015220392 -0.08702257 -0.012999459
-0.015343141 -0.012614022 -0.015835544 0.124681085 0.04826739 -0.06480425 -0.07317119 -0.0771481
0.065153174 -0.01916814 -0.112759 0.027280886 0.042129688 0.06359287 0.11526495 -0.08181424
0.1051004 -0.10152647 0.110873505 -0.07810958 -0.07648134 -0.024496943 -0.06087636 0.09684838
0.044855393 0.017682385 0.07892011 -0.1116273 -9.12603e-06 -0.1038014 0.08843104 -0.059605576
-0.079336345 0.10349851 0.039210744 0.0059158513 0.08431207 0.020680921 0.043421436 0.005730284
-0.07841317 0.12428663 0.038470108 0.113464706 -0.111974366 -0.06597007 -0.056990538 -0.042732667
0.11408125 -0.03104252 0.059511296 -0.09771052 -0.05684512 0.0011662771 -0.012476249 -0.06004264
-0.024126885 0.04509702 0.05629856 0.031452946 0.03453637 0.041746616 0.05137794 -0.09786397
0.069460034 0.11953563 -0.032840982 -0.035427455 0.094009675 -0.10042073 0.07628313 -0.008969276
-0.101050824 0.009549043 0.10530739 0.12169301 0.06400066 -0.014776065 -0.024433313 -0.043066997
-0.02151921 0.07694209 -0.07677731 -0.014218874 0.11114299 0.038113818 -0.09524148 0.06084187
-0.10773557 0.033321593 0.03860268 -0.07516071 0.07704488 0.103154615 0.04477069 0.028842535

rnn.bias_hh f4 [192]
00000000: e4dc 783b 6c30 833d e07b c0bd 0a36 c6bd
00000010: 18b4 6a3d 7e0f fc3b b390 d4bd c1bc ed3d
00000020: 35e6 dabc 9ecd 293d 9c28 8ebd f2db 53bc
00000030: 6acb cbbd 02b8 0abb cf32 ccbd 748a acbd
00000040: 3669 cabd 0d99 613c e7e8 5ebc 698e cb3c
00000050: 5d14 57bc 8804 bf3d b332 0dbd 531f e33d
00000060: 3b40 43bc 1a62 8e3d a1fd 7e3d b871 4fbb
00000070: abce ea3d db2d 97bd c7bc 5fbd b167 b03d
00000080: ec8a 17bd 381b 523d 404f 1fbc 3179 323d
00000090: 2921 d03d f704 00be f83c 633d 81c8 453d
000000a0: 96d8 a53d 912d cf3d e115 8abd 763f 673d
000000b0: a4b5 71bd 19fe 5e3d e111 75bd 5ec5 21bd
000000c0: e33e e83d 7424 143d 78ce 003d 1d1d 9bbd
000000d0: 25f1 62bd 7b87 6fbd 7efb d1bd cb2e f23d
000000e0: 7da2 a7bd 671a 90bd c451 7d3d ba78 853c
000000f0: 5105 b43d fb7b e23d 77d1 23bd 3add c5bb
00000100: 698b c6bd d583 803d faa5 c9bd 73af 0abc
00000110: a8cf 49bc 2e9a 833a 2241 eebd 24b4 b53d
00000120: d2d6 c83d f63c c43d 1298 b33d 2b56 0b3d
00000130: 1bfe 8ebb 8af8 dc3d 028d d63d 6a0b 153b
00000140: 01d5 cf3d 36e8 8fbc aabd 5c3d 713c a7bd
00000150: 887a e6bd 060e 47bc cf38 f63d f90e e6bd
00000160: f6bf c13d 2bcf a0bc 0f3b ed3d bccb 2dbd
00000170: a1d1 ac3d bb67 6e3c 70f8 15bd 7ab2 923d
00000180: 90a8 5d3b 9757 50bd bb12 d8bd d028 e9bd
00000190: 9d89 69bd a3c2 9e3d 2bf8 d5bd 3cda 8a3c
000001a0: 74fd ab3b 6176 9bbc af5b f7bd 4914 b83d
000001b0: e694 433c 6498 cfbc 5e39 86bb c3a6 6f3d
000001c0: ca86 40bc 6cc2 253d 9e17 abbd d8ee 383d
000001d0: 1440 b43d cc91 c0bd 250e 4ebd 966d d33d
000001e0: 4352 953d ca86 a1bb bcb7 173d b9a4 913d
000001f0: 441c d73c 74ce 3abc 4b58 ad3d 6661 25bd
00000200: 91e3 9ebc b7a7 9abd 0acb 8d3c 960d 9e3d
00000210: d234 4cbd 9e12 cebc 59d3 873d 36c8 ce3d
00000220: af57 febc d301 c83d 69f4 9c3d 3fce b4bc
00000230: d0b3 9ebd b569 9a3d f415 173d 5422 a43c
00000240: fd82 363d 8268 83bd 0f24 cb3d bb35 c43d
00000250: 5f04 e5bd c198 ef3d 826b 833d d8e6 803d
00000260: 72fd d53d e6be 70bd 403e 503d 9dfb 623d
00000270: 6cb1 0f3d a89d b43c 8001 c23d 5b32 e9bd
00000280: 0dfc d23d a52d 1fbd 17e8 94bc f180 e43c
00000290: 276e 753d 56d3 d4bc 9680 e43d 20ee 5939
000002a0: 31fd 873c 33f7 8a3d 764f 763d b91a cd3d
000002b0: e7b9 753d 61f4 d6bd 3ce4 ea3d fd28 923d
000002c0: 7776 acbc 862b 9e3c 5cba e13d ff4a b8bd
000002d0: 84d4 a7bd 1dbf b0bd 9e93 f33d 072c b93c
000002e0: 5a49 afbc 144c b2bc 8016 ac3d 937f 033d
000002f0: de08 473d b97b de3d 2d01 8d3b 1efb bb3d
0.0037973458 0.0640572 -0.09398627 -0.09678276 0.057300657 0.0076922765 -0.10379162 0.116082676
-0.0267211 0.041455857 -0.069413394 -0.012930857 -0.099509075 -0.0021166806 -0.099706285 -0.08424845
-0.09883349 0.0137694 -0.013605333 0.02484818 -0.013127414 0.09327036 -0.03447218 0.11089959
-0.011917169 0.06952305 0.062253598 -0.0031653475 0.114652 -0.07381793 -0.05462339 0.086135276
-0.03699772 0.05129549 -0.0097234845 0.04357261 0.10162575 -0.12501894 0.055478066 0.04828692
0.08097951 0.10116113 -0.06742454 0.056457005 -0.059011117 0.054441545 -0.059831504 -0.039494865
0.1134012 0.036167577 0.031446904 -0.07573912 -0.055405755 -0.058478814 -0.102530465 0.11825331
-0.08185289 -0.07036286 0.061845556 0.016292918 0.087900765 0.11058804 -0.039994683 -0.006038335
-0.09694559 0.06275145 -0.09846111 -0.008464682 -0.0123175755 0.0010040456 -0.11633517 0.0887225
0.09806599 0.0958194 0.087692395 0.034017723 -0.004363788 0.107895926 0.10476114 0.00227424
0.10148049 -0.017566781 0.053891815 -0.08165825 -0.1125384 -0.01214934 0.12022554 -0.112333246
0.09460442 -0.019630035 0.1158353 -0.042430624 0.08438421 0.014551098 -0.03661388 0.07162948
0.0033822395 -0.050864782 -0.105504476 -0.113847375 -0.057016004 0.07751968 -0.10447725 0.016949765
0.00524872 -0.018977346 -0.12078034 0.08988244 0.011937356 -0.02534122 -0.004096194 0.058508646
-0.011750886 0.04046862 -0.08354114 0.045149654 0.088012844 -0.094028085 -0.050306458 0.10323636
0.07291081 -0.004929398 0.037040457 0.071114965 0.026258595 -0.011401761 0.08464106 -0.04037609
-0.019395621 -0.0755152 0.01730873 0.07717435 -0.04985506 -0.025155362 0.06632108 0.10096781
-0.03104767 0.09765973 0.07663805 -0.022071002 -0.0774914 0.07539693 0.03688617 0.0200359
0.044558514 -0.06416418 0.09918987 0.09580561 -0.11182474 0.11699057 0.0641699 0.0629403
0.104487315 -0.058775805 0.050840616 0.05541574 0.035081312 0.022047833 0.09472942 -0.11386558
0.10301981 -0.03886189 -0.018177075 0.027893515 0.059919503 -0.02597968 0.11157338 0.00020783441
0.016600223 0.06785431 0.060134374 0.100148626 0.059991743 -0.1049583 0.114693135 0.07136724
-0.021052582 0.019307863 0.11021873 -0.08998679 -0.08194831 -0.08630202 0.1189339 0.022604002
-0.021397281 -0.021764793 0.08402729 0.032104086 0.04859244 0.10863442 0.0043031187 0.09178756

fc2.weight f4 [12, 64]
00000000: 2d32 98bd 64fa afbd a269 293d 9590 aa3d
00000010: 419e 0ebd 3ef8 363c 2b29 c4bd 4b79 8e3d
00000020: f270 b43d 7ee5 e23d fc4b fc3d f079 af3c
00000030: e9f5 aabd cefa aa3c 0f2b 463d 542f 9e3c
00000040: cedf e53d 082b 7e3d 6368 e7bc 6afe e3bd
00000050: 34b4 4b3b e66b 95bd 50ee 1f3d e2eb bfbd
00000060: 1bbe 7f3c 67f9 163d 2668 6abd ed89 7abd
00000070: 5829 81bd cb1b a9bd 1673 84bd 04c7 b73d
00000080: 2dea 93bd efea 0cbd b083 e1bd 66f9 b13d
00000090: 739b 003c 5695 c83d dace 7a3d 173e bf3d
000000a0: e444 243c 9cd1 edbd b9d6 303d adf4 e43d
000000b0: 5436 dfbd e4bc 39bd 0214 ba3c a775 853d
000000c0: 5066 dcbd e4a5 f73c 1ca1 9dbd 89cd f33c
000000d0: 5a0c b03d 04cf 68bd f065 a83d a2b7 10bd
000000e0: 524f 203d 60ea adbd 4287 66bd 1f30 e2bd
000000f0: d2ed c0bd 989e 003e 38b6 103d 8306 f7bd
00000100: 1b42 f63d 2eaa babd 051a cf3d 6068 eabc
00000110: 4d55 b23d 3c62 1fbd ea00 4f3d fb22 a13d
00000120: 2bd5 a93d d0f9 4ebd 825a d2bd 9305 04bd
00000130: 38ba 3bbd 0ec2 efbd c9d9 2cbd 9040 febd
00000140: 520d 1cbd 861b e53d 5775 fa3d aac0 d13d
00000150: fae8 a8bd 7530 f43d c408 6dbd 694e 343d
00000160: 8a4d 0b3c 5b70 793d 70a9 2f3d 211d d43d
00000170: 793a bcbd bc15 88bc 3d41 ad3d 0883 f0bd
00000180: 3d03 04bc f398 d9bd 5f91 623d 772a b23d
00000190: 380c 55bd 9c24 1c3d 4313 b83d 6ced e0bd
000001a0: ceb4 14bd f46d fabd 7239 e93b 197b 7c3c
000001b0: f006 f23d ac6d cebd 71e0 1b3d 1408 4ebd
000001c0: de34 4f3c 645f 213d 0ae1 7ebb 2bfb e4bc
000001d0: 2b8d 2cbd 25b2 e2bd 3282 0c3d e8c5 0a3a
000001e0: 7d75 8bbd eb7e 9abd f600 1e3d 3842 c5b9
000001f0: 834f 93bd 7418 fdbc 25da 31bc 338d 2cbd
00000200: 9c7b f0bd f4f8 49bd 1291 6c3c 56be e7bd
00000210: e1f9 8cbc ad77 563d e704 c8bd 9109 acbd
00000220: b002 99bd fda3 ba3d c35d 3c3c 650f e6bd
00000230: 8fb7 bdbd 1ca3 b3bd 1b4f 4bbd b386 c63b
00000240: eac8 8a3d 5600 c4bd 8835 9cbd 5927 413d
00000250: 44f6 f0bd 829d bebd d216 a43d f613 ff3d
00000260: f3e3 f6bd 5fc2 b73d 41d9 f83d 3203 8dbc
00000270: 5c19 19bd ff9c 9f3d 502d bebd bd26 df3d
00000280: fe33 e33c 7b7b 7ebd 3eea 97bd 23bb 4e3d
00000290: b9aa 2dbd 5bfc b4bd 829b d03d e566 18bc
000002a0: 2f5a a0bd 20c7 06bc 04c2 903d aaa6 e0bd
000002b0: a15d 673c 980f adbc 3241 3dbd ae8e 8d3d
000002c0: bd57 69bd 5e5b a73b 16d9 f23d 0a3f b6bd
000002d0: 2de3 eebd 4d96 e2bd 75f5 1d3d 9619 c23c
000002e0: d18e 69bc 2d75 c1bd 42bb 38bd f886 a5bc
000002f0: 54ce b6bc 3ff5 b5bd 156e e4bc 3a9c eb3d
00000300: caed 85bd d62b ce3d a5f1 e6bd 85f6 e93d
00000310: 964e e9bd fb22 c2bd bec6 4b3d a8a9 7fbd
00000320: f0a6 343c cacc b13d 54df f23d 9d20 8abd
00000330: 5398 dfbd 8a41 b63d ea28 7f3d 428b 8dbd
00000340: 7901 d93d e07f abbd 20e0 10bd c862 7e3d
00000350: e856 98bd 1496 c23d ce8a 493c 0af8 073c
00000360: a6a0 bf3d 6485 0bbd 2451 11bd 91d0 333d
00000370: 3583 9e3d 0936 79bd 387c 90bd ca80 e3bd
00000380: b406 a13c 8301 67bc 313d 8c3d 75f7 afbd
00000390: 7f40 59bd a867 eebd da53 3fbd 87f9 583d
000003a0: ffe9 853d e520 8a3c 9588 e6bd 69e8 8a3b
000003b0: 63da 62bd 7dcb 7abd a861 c03d a2b8 193c
000003c0: 425d 893d a23a 573d bdc2 bbbd 0f24 ca3d
000003d0: 9dff 813d f198 bd3d c893 86bb 4944 2b3d
000003e0: a6db a6bb a5f8 f73d 72f0 e13d ac3a e83d
000003f0: 3041 fb3d f817 84bd 08c5 eebd 789a d1bd
-0.07431445 -0.0859268 0.041360505 0.08328358 -0.03481889 0.011167584 -0.09578165 0.069567285
0.08810605 0.110789284 0.1231918 0.021420449 -0.08347685 0.020871546 0.048380908 0.019309677
0.11224328 0.062052757 -0.028248018 -0.1113251 0.0031082751 -0.072959706 0.039045632 -0.09371163
0.0156092895 0.036858942 -0.05722823 -0.061166693 -0.06306714 -0.08257254 -0.064672634 0.08973506
-0.072224 -0.034403738 -0.110114455 0.08690147 0.007849562 0.097941086 0.061232425 0.093380146
0.01002619 -0.116122454 0.043173525 0.11179481 -0.10899034 -0.045346156 0.022714619 0.06516581
-0.10761702 0.03023047 -0.07696745 0.029761093 0.08596106 -0.05683805 0.08222568 -0.035331376
0.039138146 -0.08491969 -0.056281336 -0.110443346 -0.094203606 0.12560499 0.035330027 -0.12061789
0.12024327 -0.091144904 0.10112385 -0.028614223 0.08707676 -0.038912043 0.05053798 0.07868
0.08292612 -0.05053121 -0.10271169 -0.03223188 -0.04583189 -0.11706935 -0.042199884 -0.12414658
-0.03809864 0.1118689 0.12229412 0.10241826 -0.08247562 0.11923305 -0.057869688 0.04402009
0.0085023735 0.060898166 0.042886198 0.103571184 -0.0919084 -0.016611926 0.08459709 -0.11743742
-0.008057413 -0.10624876 0.055314418 0.08699506 -0.052013606 0.03812085 0.08988049 -0.10982785
-0.03630524 -0.12228003 0.0071174437 0.015410208 0.118177295 -0.10079512 0.03805584 -0.050300673
0.012646882 0.039397612 -0.0038891458 -0.027951797 -0.042126816 -0.110691346 0.03430385 0.00052937726
-0.068095185 -0.07543739 0.038575135 -0.00037624105 -0.071929 -0.03089545 -0.010855232 -0.042126846
-0.117423266 -0.049309686 0.014438884 -0.113156006 -0.017208995 0.052360225 -0.0976656 -0.08400262
-0.07471216 0.091133095 0.011496964 -0.11233405 -0.09263527 -0.08771345 -0.049635988 0.006058538
0.067766026 -0.095703766 -0.07627398 0.047156665 -0.117657214 -0.09307386 0.08012165 0.12454979
-0.120551966 0.0897262 0.12150813 -0.017213438 -0.0373777 0.077936165 -0.092859864 0.108960606
0.027734753 -0.06212948 -0.07417725 0.050471436 -0.042399142 -0.088371955 0.10185911 -0.009301876
-0.07829701 -0.008226186 0.070682555 -0.10969289 0.014121444 -0.0211256 -0.046204753 0.069119796
-0.05696844 0.0051073274 0.11857812 -0.088987425 -0.11664424 -0.11063824 0.038564164 0.023693841
-0.0142552415 -0.09446178 -0.045100458 -0.02020596 -0.022315182 -0.088846676 -0.027884522 0.11504407
-0.06539495 0.10066955 -0.11276559 0.11423973 -0.11391942 -0.09479328 0.049750082 -0.062417656
0.011026129 0.086816385 0.11859003 -0.06744502 -0.109177254 0.08899219 0.062294878 -0.06911327
0.10595984 -0.083739996 -0.035369992 0.062105924 -0.07438451 0.095012814 0.01230116 0.008298883
0.09356813 -0.034062758 -0.035477772 0.043900076 0.077398695 -0.060842548 -0.07054943 -0.11108549
0.019656517 -0.0140994815 0.06847609 -0.085921206 -0.053040024 -0.116408646 -0.046710826 0.052972343
0.06538772 0.016861388 -0.1125652 0.004239131 -0.05538405 -0.061229218 0.093936265 0.009382399
0.06707241 0.05254615 -0.09168003 0.09870159 0.063475825 0.09257687 -0.0041069724 0.04181317
-0.005092102 0.12107972 0.110321894 0.11339316 0.12268293 -0.06449884 -0.116586745 -0.10234541

fc2.bias f4 [12]
00000000: bac3 54bd 9a85 c83c adb9 893a eacc 40bd
00000010: b518 933d 020e 3bbd e834 e0bd 3cbd 69bd
00000020: 94c1 043c 181d 30bd ec88 61bd 15af f0bd
-0.051944472 0.024477769 0.0010507606 -0.04707042 0.07182447 -0.045667656 -0.10947591 -0.057065234
0.008102793 -0.042996496 -0.05506222 -0.11752144
