model/qmix/3m/1_qmix_net_params.pkl (torch, 75259 bytes, 13 tensors)

hyper_w1.0.weight f4 [64, 48]
00000000: ae2f a63d ef1d f43d 4c04 073e 58d0 393d
00000010: 8a6c 5e3d af51 abbc 6b14 083e 1ee0 7f3d
00000020: 2493 11bd a8e5 08be b307 9c3c 2286 7f3c
00000030: 939a e43d b6ee ae3d c502 023e cfbd 733c
00000040: 0dbd 3d3d 1015 d9bd 8091 d83c 2845 2e3d
00000050: b10e 95bd 4a6d 87bd b9e8 993d 73ca 88bd
00000060: 45fa 1ebd b5c3 e93d a09b f63d 1f91 d3bd
00000070: 159e eabd 92c8 d53d 916e 04bd d3be 983c
00000080: bb94 aebd 83e2 65bd 834d f03d f79b b4bd
00000090: bc22 573d 60b4 c33b 8db2 323d a4bf f03b
000000a0: e5d5 01bd adfc 4b3d b22f 1d3d e6dd 4cbc
000000b0: 7471 c43d 425c 023e 8477 9a3d ca62 25bd
000000c0: 489d d7bd 20ed c8bd 9ada 8cbd 9d9b 49bc
000000d0: 2b1f 963d 5e25 1e3d 088b 053e 3936 0cbe
000000e0: 5c81 a4bd 4926 073e 9b93 d0bd 815a bb3d
000000f0: f7c4 bb3b 12d1 60bc 5e3a d13d 72a8 e23d
00000100: b55a 6abd e63c c7bb 5751 0a3e 0d1e f93d
00000110: 50fa 6e3d ad9a b2bd 328d c8bd d639 d33d
00000120: a0f7 a63d 3ad7 9dbc c5e6 0c3e 0d31 cc3d
00000130: a8b1 fbbc 36f8 813d 1fb1 0d3e 2afb a83d
00000140: c42a 91bd 116e 0bbe e701 333d 7cfe 573d
00000150: 357d 11be 8894 b33c e63c b9bd e500 673d
00000160: a892 93bd dc2f e4bd 6f8f 0c3e 93d6 ad3d
00000170: fc36 75bd d973 d8bd 68b7 c63d 08b6 b9bd
00000180: ec3a 35bd abc7 84bd 06f1 313d 24da 2fbc
00000190: 1b78 553d 6568 a6bd 461e db3d d943 7e3c
000001a0: c54b cfbd a20d d9bd 82a0 b43d 0b24 7ebd
000001b0: f52e 1f3d e3c0 873b ec3f 8cbd 0022 0f3e
000001c0: 3550 50bd 7e05 7d3d 46c2 b83d 0337 483d
000001d0: fa60 0c3e 2485 c7bd 047f 883c e9bc 78bb
000001e0: cac4 8e3d 8330 73bd 1e9e abbd 9c77 e0bd
000001f0: a04a ce3d 4860 293d 4367 09be a0f0 efbb
00000200: c206 f0bd 9f48 f1bd 2dfc bb3d 0db8 91bd
00000210: 6884 b13d 4829 0a3e 4028 b63c 34b8 803d
00000220: f29f 01be 7a7a 7abd d09a 0abc f074 f83c
00000230: ece9 6c3d 724c 9e3d dc1d 96bd 0304 08be
00000240: 3f13 b33d 52bb a13d 9ec7 e3bd 82ec 54bd
00000250: ae78 56bd f712 063e 5b61 02be 2cc1 943c
00000260: 946f 1dbd c3c5 393c dcd0 69bb fe25 9abd
00000270: 5b60 c7bc aab6 583d ba52 03bd 5567 efbb
00000280: eb69 bb3c 60cd 103e 3c65 65bc 80b7 c03d
00000290: f13e 58bd 9402 b03d 30d6 b83d 2f5e 27bd
000002a0: 3fe1 04be 7049 b83d 7800 83bd 7440 a8bc
000002b0: ea12 52bd dab5 12be 6a6c f5bd c730 dd3d
000002c0: 3bd5 623d cdd5 57bc 1dac a8bd 81be e13d
000002d0: cc24 dfbc 64db 2e3d ccc7 953d 065f a63d
000002e0: ef09 65bb 709b 263d 926c ff3a 5d45 88bd
000002f0: 11bb da3c 99e6 063e 70cd 673c 68e2 ed3d
00000300: 15d8 60bc 30a4 0d3d 70d9 d6bd 04fe da3d
00000310: dd53 16bc 20f0 58bd 4851 a43a 81ac 283c
00000320: e5ae d13b b2be 82bc 24bc 273d 7080 ba3c
00000330: 303c 463c 0d79 d73b 1bbd 4dbd d695 c03c
00000340: fc99 f73d 9e85 06be 6a10 7d3c fe1f 033e
00000350: c47f 8bbc 5775 a6bd c4d3 06bd 224a 99bc
00000360: 00d5 c0bd 9c0a 9f3d e640 843d 4049 5b3d
00000370: b432 e9bc 840f 8bbd a2e8 13bd 2e27 983c
00000380: 5a2b f63d c701 0fbd 2851 e9bd a6f1 07be
00000390: ec6d af3d 4031 76bb 8606 d2bd 8b37 0cbe
000003a0: 46fa ff3d 6434 f83d e0b8 f73b 88a9 a4bd
000003b0: 5404 06bd dbd6 00be f1ed 07be 4af5 b7bd
000003c0: e467 933d 9e00 54bd 6711 9fbd 4f05 81bd
000003d0: 5935 923d 6c08 ffbc 37af e8bd 03ac 083d
000003e0: 7dbb 913d c43c efbd 27d3 0bbe 012c cbbd
000003f0: 1909 1abd 3b13 093e e8e0 01be 91a7 b1bc
0.08114563 0.11919772 0.13185233 0.045364708 0.05430273 -0.020912973 0.13289039 0.062469594
-0.035540715 -0.13368857 0.01904664 0.015595945 0.11162295 0.08541624 0.12696369 0.014876797
0.04632287 -0.105997205 0.026436567 0.04254642 -0.07278193 -0.06612642 0.075150914 -0.06679239
-0.038812894 0.11414281 0.12041402 -0.10330414 -0.11455933 0.104386464 -0.032332007 0.01864568
-0.08524462 -0.05612422 0.11733534 -0.088188104 0.05252336 0.00597243 0.04362731 0.007347064
-0.031698126 0.049801517 0.038375564 -0.012504077 0.09591952 0.12730506 0.07542327 -0.040377416
-0.10528046 -0.09810853 -0.068776324 -0.0123051675 0.073301636 0.038609855 0.13041317 -0.1369256
-0.08032486 0.13198198 -0.101844035 0.091481216 0.005730267 -0.013721721 0.10216211 0.11067285
-0.05721541 -0.0060802577 0.13507591 0.12163935 0.058344185 -0.08720908 -0.09792556 0.10313766
0.081526995 -0.019267667 0.13759907 0.09970293 -0.030724362 0.063461706 0.13837098 0.08251031
-0.07088235 -0.13616206 0.043702986 0.05273293 -0.14207919 0.021921411 -0.090448186 0.056397337
-0.07205707 -0.11141941 0.1372659 0.084881924 -0.05986689 -0.10568971 0.09702951 -0.09067923
-0.044245645 -0.06483396 0.04344275 -0.010733161 0.052116495 -0.081253804 0.106991336 0.015519106
-0.10121874 -0.105983034 0.08819677 -0.062046092 0.03886314 0.004142867 -0.0684813 0.13977814
-0.05085774 0.061772816 0.0902143 0.04888059 0.13708869 -0.097421914 0.016662128 -0.0037954396
0.06971128 -0.059372436 -0.08379768 -0.10960314 0.10072827 0.041351587 -0.13418297 -0.007322386
-0.11720039 -0.117814295 0.09178958 -0.07115183 0.086678326 0.1349231 0.02223599 0.06285134
-0.1265867 -0.06115196 -0.008459762 0.030329198 0.057840273 0.077294245 -0.07329914 -0.1328278
0.08743905 0.07897057 -0.11122058 -0.051983364 -0.052361183 0.13093172 -0.1273245 0.018158518
-0.038436487 0.011338654 -0.0035677468 -0.07526778 -0.024337938 0.052908577 -0.032061316 -0.0073060193
0.022877654 0.14140844 -0.014001187 0.0941 -0.0527944 0.08594242 0.09025228 -0.040861305
-0.1297655 0.08998382 -0.06396574 -0.020538546 -0.05128757 -0.14327183 -0.11983569 0.10800319
0.055379134 -0.013173533 -0.08235953 0.11022664 -0.027239226 0.042689696 0.07313499 0.08123593
-0.0034948548 0.04067558 0.0019487313 -0.06653855 0.026700528 0.13173904 0.014148101 0.11615449
-0.013723393 0.03458041 -0.10490692 0.10692981 -0.009175268 -0.052963376 0.0012536431 0.010295034
0.006399023 -0.015960071 0.04095091 0.022766322 0.012099311 0.0065757097 -0.050229173 0.023508947
0.12089917 -0.13136908 0.015445808 0.12805173 -0.017028697 -0.081278495 -0.0329168 -0.018712107
-0.094156265 0.077656955 0.06457691 0.053536654 -0.02846656 -0.06790069 -0.036110528 0.01857337
0.120199874 -0.034913804 -0.113924325 -0.13275775 0.08565888 -0.0037565976 -0.102551505 -0.13693063
0.12498908 0.12119368 0.0075598806 -0.08040148 -0.03271897 -0.12581961 -0.13274361 -0.08982332
0.0719755 -0.0517584 -0.07766991 -0.06299841 0.071390815 -0.031131946 -0.113615446 0.03336717
0.07115839 -0.11681512 -0.13654767 -0.099205025 -0.037606332 0.13386242 -0.12683451 -0.021686347

hyper_w1.0.bias f4 [64]
00000000: 9a59 d53d 0666 d83d ab5f 8cbd 458d 8dbc
00000010: cc59 00be 1f24 0abd 554d 9dbd a454 2abc
00000020: 5653 febd 28a5 edbd aa65 05be 8dc9 a73d
00000030: b5a2 1dbd 5453 babc 7f02 813b c2ff 8b3d
00000040: bf15 7abd 95d1 bfbd 8c6b dabd 6db9 033c
00000050: a70c 693d e054 43bd 4e9d eabd cc15 b23d
00000060: d4a2 3cbd 730c 0dbd 2e3d 143d 91a1 2dbd
00000070: 3109 963d c450 a9bd 3220 7d3d 6fe7 7bbd
00000080: a821 69bd bf6a 8a3d 863f f83d 36c0 813c
00000090: aa99 1cbd 76e1 c4bd 88f8 26bc 8948 9b3d
000000a0: e798 8bbc 5bd2 513d ebb2 afbd ec07 843d
000000b0: ae9f 3d3d d69f 3c3d e84b 0b3e 6c56 abbc
000000c0: f5bb bcbd 475b babd afe4 11be b0bf 843d
000000d0: 4e1e dd3d 516e c9bd c47a d3bd ddfa 0b3e
000000e0: 40cc f6bd 6992 bfbd 57b1 b63d 3464 c2bd
000000f0: a640 393b 0102 2ebd 9fbe 6cbd e549 033e
0.10417481 0.105663344 -0.06854185 -0.017279277 -0.12534255 -0.033725854 -0.076807655 -0.010396156
-0.12418239 -0.11603767 -0.13027063 0.0819274 -0.038485248 -0.022744812 0.003937065 0.06835891
-0.061055895 -0.093661465 -0.10665044 0.008039814 0.05689683 -0.047688365 -0.11455785 0.08695564
-0.046053723 -0.0344357 0.036191158 -0.04239041 0.07325972 -0.08267358 0.061798282 -0.06150001
-0.056916863 0.067586415 0.12121491 0.015838724 -0.038232483 -0.09613316 -0.01019109 0.07582194
-0.017040683 0.051226 -0.08579048 0.064468235 0.04629486 0.04605087 0.13603175 -0.020915233
-0.092155375 -0.09099441 -0.14247392 0.06481874 0.10796796 -0.09835494 -0.1032615 0.13669915
-0.12050676 -0.093540974 0.08920544 -0.094917685 0.0028267293 -0.04248238 -0.057798978 0.12821157

hyper_w1.2.weight f4 [96, 64]
00000000: 8d29 cfbd 7f26 c23d ee33 45b9 b1ef 44bd
00000010: 6041 81bb fdf8 1fbd 39a3 f43d 48d9 133d
00000020: b2c3 9abd a66a e33c c4c1 f1bd b70c c9bd
00000030: aefd 2bbd e803 8c3c 2928 9bbd 1702 5f3d
00000040: e835 ed3d 676d e23d 9503 8d3d 3748 c03d
00000050: 401d b33d e6d8 863d 2105 97bd 2ddd 9ebd
00000060: 5e51 dcbd 3e24 e4bd 6520 71bd db0d c33d
00000070: 6c4f d2bd 7e94 13bd c7c1 f9bd a89e e53d
00000080: 709e 8b3c 57b8 453d c3b4 5cbd 4535 fcbd
00000090: 700e b03b 2718 df3d 9ba7 073b 5393 dcbd
000000a0: f9c0 dabd a337 4ebd 857c 3a3c 3014 a83d
000000b0: 243b c93c 168e 3abd c404 183c 3b6a 2ebd
000000c0: e805 ecba beaf 553d 4087 8e3c f3c0 bb3d
000000d0: ca3b 0ebd 48a0 14bd 9081 afbc a41a abbd
000000e0: f0e6 b93d 4efa f8bd d04a 4f3d 1ec0 f63d
000000f0: 5858 853d cdad 8c3d 266c ea3d 4aa1 aa3d
00000100: bc1c da3d 6ed3 d13d dde5 95bd 145d a93d
00000110: 18b5 ab3b 53ee 863d 2d6d 9fbb b186 a5bc
00000120: 9495 adbd 5623 51bd ace7 4fbd ee23 7fbd
00000130: 77ec f0bd 08d4 d8bd d7b1 24bd 0903 883c
00000140: d322 a0bd b10c f83d c6ef b73b aa73 6fbd
00000150: 11cf eabd 68d9 bbbd 3194 c4bd c951 9abb
00000160: 6292 f63d 488b a3bd e776 debd 1ac8 0f3d
00000170: 1e03 c1bd 9ae9 943c 8cb6 a9bb fa77 ecbd
00000180: 1249 c23d 67e7 f93c 3657 2cbd 6cdf b6bc
00000190: f8f0 fa3d 1ae4 9c3d 3930 42bc 4f66 923c
000001a0: 61f7 f73d b27d e3bd 27ed 30bd fa6f e03c
000001b0: 9579 7b3d 803f 2a39 28ba e13d 37a1 0ebc
000001c0: a429 83bd 6535 13bd c8e2 55bd bb9c 443c
000001d0: 8496 8e3d 5c65 4cbd 4c5a 06bd 66c1 d4bd
000001e0: 6030 243c 0c82 d5bd 43cb e0bc fe40 a03d
000001f0: 4c9c 69bc bd7d f83d d32a b7bc 2d96 94bd
00000200: a8ea c33d 2c31 39bd 8c5a 03bd d4c2 65bd
00000210: 576d b1bd fbe1 a33c ad8e c0bd 15cd 94bd
00000220: 3ece 69bd 8c1c ff3c 540c 783d 5f99 27bd
00000230: 005e b83c 4e33 fcbc 1d09 f33d 16f6 a7bd
00000240: cc43 513b 4e7b a83d 3522 16bc 4236 703d
00000250: c6cf ff3d a390 4fbc 4530 093d b702 14bd
00000260: 8932 863d 6f9b d23d bbe4 0f3d 5c05 673d
00000270: 1a73 943c b450 933d 42d3 68bd 15f0 dabd
00000280: 02cf 1abd fe8b 353d 8dbb 00bd 54ee 5abd
00000290: cbcd bf3d 9a5a c7bd ecd0 41bd 6901 293d
000002a0: b724 253c a5fa 83bb 948f dcbd 2bef 44bd
000002b0: d746 fdbd a9af f7bb aac1 b8bd 7028 87bd
000002c0: e6ee 02bd 6d2f 9cbd 500b eb3d 48a3 b4bd
000002d0: 7030 303d 0599 423d 7a5e c93d b0de 6ebd
000002e0: e277 b13d acfd 4a3d 5a96 bfbd b813 f0bd
000002f0: e86a de3d 7cb6 52bd d5d3 fcbd 6d0f acba
00000300: 57ab 9d3d 8105 763d 5bac efbd 7343 26bd
00000310: 3c5b 743d ec5e 6f3d 0b32 563c 9a44 ae3c
00000320: e85f 443d 1a42 923c 2e3d fa3d 9800 923d
00000330: 0be1 863d 347c 86bd 9fe0 1b3d 2a2c b43d
00000340: e8ba 49bd df43 a6bd 84bc 37bd 6aa7 32bc
00000350: 49cf e43d a075 0cbd fac9 6cbd b6e9 b7bc
00000360: e53a 7e3d 5825 87bd 2d49 c33d 03bb 36bc
00000370: 88ea c33d 4fd9 e23d 5b0f 5abc f5cd 28bd
00000380: a9e3 e8bc 5671 ca3d 1d13 9fbd 6f10 33bb
00000390: cf5b b23d 912c 84bd b186 d43d be62 d9bb
000003a0: ba54 993d f8d7 e83d 863f dd3d 1dab e73d
000003b0: 266c 26bd b1c1 d8bd ecea c43d bff8 c2bd
000003c0: b81a e13c bef7 9f3d 28ab a33c d441 db3d
000003d0: 22b7 ecbd 65f4 be3c 40da 713d 347e eb3d
000003e0: c0ad 0abc fa35 aa3d b2f4 e8ba 062e cf3d
000003f0: 5956 cb3d ddb3 aebd 76e3 a4bd 2777 f03d
-0.10115347 0.09479999 -0.0001880673 -0.04808015 -0.003944561 -0.039055813 0.11945195 0.036095887
-0.07556857 0.027760815 -0.11804536 -0.09816878 -0.041989975 0.017091706 -0.07576019 0.054445352
0.115825474 0.11056023 0.06885449 0.09388774 0.08745813 0.06584339 -0.07374025 -0.0775703
-0.10757707 -0.11139725 -0.058868784 0.09524127 -0.10269055 -0.036030285 -0.12195163 0.11211902
0.017043322 0.048271503 -0.053883325 -0.12314848 0.005372815 0.108932786 0.0020699266 -0.10770287
-0.10681338 -0.050346028 0.011382227 0.082069755 0.024564333 -0.04554566 0.00927848 -0.042581778
-0.0018007131 0.052169554 0.017398477 0.091676615 -0.034724988 -0.03628567 -0.021424085 -0.08354691
0.09077251 -0.12157117 0.050608456 0.12048362 0.06510991 0.06869087 0.11446409 0.08331545
0.10650012 0.10245405 -0.073192336 0.08269706 0.005240094 0.065884255 -0.0048653097 -0.020205827
-0.084757954 -0.05105909 -0.05075805 -0.062290125 -0.11763852 -0.10587317 -0.040208664 0.01660301
-0.07819142 0.12111796 0.0056133 -0.058459915 -0.11465276 -0.09172326 -0.09598578 -0.0047094566
0.12039639 -0.0798555 -0.108625226 0.03510294 -0.09424423 0.018177796 -0.005179232 -0.11546321
0.09486593 0.030505849 -0.04207536 -0.022323333 0.122529924 0.076606944 -0.0118523175 0.01787105
0.12107731 -0.11107959 -0.043194916 0.027397145 0.061395247 0.00016236119 0.110218346 -0.008705429
-0.06404427 -0.035939593 -0.05221823 0.012000258 0.06962302 -0.04990135 -0.032800958 -0.1038845
0.010021299 -0.10425195 -0.027440673 0.07824896 -0.0142584555 0.12133358 -0.022359287 -0.07255206
0.095662415 -0.04521291 -0.032068774 -0.056094006 -0.08663433 0.020005217 -0.09402213 -0.07265679
-0.057081454 0.031141542 0.060558632 -0.04091775 0.02250576 -0.030786183 0.118669726 -0.08201234
0.003193128 0.082266435 -0.009163429 0.058645494 0.124908015 -0.012668761 0.0334933 -0.0361354
0.065526076 0.10283553 0.035130244 0.056401595 0.018121291 0.07193127 -0.056842096 -0.10690323
-0.037795074 0.04432296 -0.031428862 -0.053449944 0.09365424 -0.09734078 -0.047318384 0.04126111
0.010079554 -0.004027682 -0.10769573 -0.04807965 -0.12367027 -0.007558782 -0.090213135 -0.0659951
-0.031966113 -0.07626233 0.11476767 -0.08820206 0.043014944 0.047509212 0.09832473 -0.05831784
0.08665444 0.049558327 -0.09354849 -0.11722511 0.108602345 -0.051443562 -0.12345091 -0.0013127156
0.07698696 0.060063843 -0.11702796 -0.04059167 0.05965732 0.058440134 0.013073455 0.021272946
0.047943026 0.017853785 0.122187 0.071290195 0.06585892 -0.065666586 0.038056012 0.08797486
-0.049250513 -0.08118414 -0.044857517 -0.010904172 0.11172349 -0.034291863 -0.057809807 -0.02245031
0.062067885 -0.0659892 0.095354415 -0.0111529855 0.09566218 0.110766046 -0.013309325 -0.04121204
-0.02842887 0.09884898 -0.077673174 -0.0027323028 0.08708917 -0.06453813 0.10377253 -0.0066340854
0.074868634 0.11369318 0.10803132 0.11311934 -0.040630482 -0.10583819 0.0961512 -0.09520101
0.02747856 0.07810925 0.019979075 0.10705915 -0.11558367 0.023309896 0.05904603 0.11498681
-0.008464277 0.083110765 -0.001777312 0.101162 0.09928579 -0.085304 -0.08051197 0.117414765

hyper_w1.2.bias f4 [96]
00000000: 8aba f33d 36cd 8ebc c3fe e3bd e3ef 1cbd
00000010: aaa0 debd ac63 543d 9c67 f33d e543 fb3c
00000020: 21f8 f8bd 9b49 adbc 7894 4dbd a440 863c
00000030: 304d 943d eaef 9abc 4154 463d a91d 7b3d
00000040: 2a34 f2bc 3283 6f3d db04 f0bc 4351 1c3b
00000050: 088e 8dbd e6fd b33d ceef ef3b 3d2d 89bd
00000060: 48d1 0bbd 68d4 0b3d 64e1 203b d6fa 853d
00000070: 2387 5ebd 1a4d 8e3d 82df 4f3c 4543 c6bd
00000080: 99af 13bd 4760 123d 44d7 b83d 89ff b9bd
00000090: d9c5 d5bb cbba fbbd 6120 943c f198 f5bd
000000a0: 1f20 603d 601a c53d 4947 9dbd 370e f8bd
000000b0: fb63 34bc 8769 873d 418b 203d 0bad a3bd
000000c0: ff40 97bd d19e c63d 89c9 37bd 1e67 c03d
000000d0: b619 5d3d 8706 a9bd a3c1 953d df67 e8bd
000000e0: c86f a7bd 2277 aabd a8f8 0d3d 2228 8f3d
000000f0: e0e8 5cbd 09d5 5ebd ac12 383d 1628 bfbd
00000100: bf6c 8cbc f8e0 743d 7775 58bd 4847 ba3c
00000110: 6504 2ebd 028d dc3d 4742 a6bd 35f9 893b
00000120: e73e 7dbd 3fea c0bc f103 7cbd 0822 bebd
00000130: e87e ba3d be15 a7bb 6588 d7bd 4d13 d8bd
00000140: 830d bc3d 8afe e9bd bc3e c03d 1785 f53d
00000150: 9a28 c33d 347b b7bd d1ce 7c3d 0bea f3bd
00000160: 7154 6b3d 4b70 0b3d 1577 fbbd db14 d93d
00000170: 69ee 1c3d 2f53 9f3d c1c3 c1bc 9c96 f23d
0.11900814 -0.017431837 -0.11132576 -0.03831471 -0.10870488 0.051852867 0.11884996 0.030672023
-0.12156702 -0.021153262 -0.05019042 0.016388245 0.07241285 -0.018913228 0.048420195 0.061307583
-0.02956589 0.058474727 -0.02929919 0.0023852147 -0.06911856 0.08788662 0.007322288 -0.06698082
-0.034135133 0.034138113 0.0024548406 0.06541984 -0.054328095 0.069483 0.012687566 -0.096807994
-0.036056135 0.03573635 0.09025434 -0.090819426 -0.0065238294 -0.12291487 0.018081846 -0.11992062
0.054718133 0.09624171 -0.07679612 -0.12112086 -0.011010165 0.066119246 0.039195303 -0.0799199
-0.07385444 0.096982606 -0.044869933 0.09394668 0.053979598 -0.08253198 0.07312324 -0.11347937
-0.081756175 -0.08323504 0.034660965 0.069900766 -0.053933024 -0.054402385 0.044939682 -0.09333818
-0.017141698 0.05978486 -0.0528464 0.022739068 -0.04248466 0.107690826 -0.0811811 0.004210616
-0.061827566 -0.023549197 -0.061527196 -0.09283835 0.09106237 -0.0050990274 -0.10524062 -0.10550556
0.09182265 -0.114255026 0.09386966 0.119882755 0.095292285 -0.08959046 0.061720673 -0.119098745
0.057453576 0.034042638 -0.122785725 0.10599681 0.038313303 0.07779538 -0.023652913 0.11845133

hyper_w2.0.weight f4 [64, 48]
00000000: b022 153d a875 8cbd 1956 84bd 63de 223d
00000010: 6925 ea3d 5d68 23ba 470c 0fbe 9e04 a3bd
00000020: f077 0e3e fd88 32bd a407 04be f1ad 2dba
00000030: bc25 a53b d823 88bd 7f93 09be 2af8 75ba
00000040: 1415 64bd 9fb6 083d b01a f03d 74d4 e23d
00000050: c305 cebc 67cc a9bd 9ae0 25bd 97ae 093c
00000060: f6d1 db3d e740 08be a116 973d 5064 7c3d
00000070: 5a30 013e e9fe 0cbe e0db 3bbd fe69 70bd
00000080: fb63 093e 54fb 13bd aed8 bd3d 0868 78bd
00000090: 6e71 09be 1a58 e2bd 26d9 28bc ef11 d53d
000000a0: 0567 173d aa6e 153d 6066 da3d 0ed7 cebc
000000b0: a486 c3bd f64f f43d a03b 5bbd 001a 93bb
000000c0: fc01 04bd cd34 f63c 0c0f bb3d 5953 b73d
000000d0: 88e9 013e c9e0 2dbd 8107 323c b502 143e
000000e0: b7d4 423d 3a8c 6a3d 0d81 73ba 781d ae3d
000000f0: e6c9 293d ac48 b7bd 5b82 573d bc11 01bd
00000100: 7fe3 183d 8552 d1bc 4a7c 06bd 3279 08be
00000110: 61cd 27bd b4f5 333d 127e a73d a2db 11be
00000120: dbb8 25bd 4710 173c f673 ec3d 1db6 14be
00000130: 3861 bcbd 9c7a 673d 1fc4 353d 9b94 bf3d
00000140: abad f2bd 01fa 393c 4da1 e6bd 98eb cfbc
00000150: b4fb a2bd 88f8 03be db69 a7bb a6e3 c33d
00000160: 6211 dc3d f510 14be 23ae d43d 3ae2 bc3d
00000170: 53f2 bc3d e358 0dbd 6060 89bc 2e87 56bd
00000180: 34f0 0ebb 5aab f6bc ffc2 a03d 281d e43d
00000190: 60c1 85bd 6140 043e 162d bf3d 1bc5 f1bd
000001a0: f6b0 f6bd cce8 e63c c399 4fbd 0407 6abd
000001b0: 6672 813c be36 52bd 9264 a6bd 5c29 c63d
000001c0: 83ed 6f3c 1fa3 b3bd a7d8 a23d 7d3c 303d
000001d0: 1955 063d 54cc 043e 9eb2 a93d 98cf 923b
000001e0: ad68 123c 57b1 04be 09a6 3d3c 49ea 023e
000001f0: 4813 943d 5463 e43d c648 d7bd bfec 9b3d
00000200: b4d9 dcbc 4a26 54bb 7d57 dd3d 0c01 df3d
00000210: 009c 55bd 76a9 11be 8c3c c23d cdbb f33d
00000220: d0b8 bcbd 5706 073d 59f8 73bd 083b 193d
00000230: 0f53 a83d 2bac e23c 88cd dd3c 280f 383d
00000240: 8197 93bd 9bbe 14be 9d47 99bd b583 0d3e
00000250: 74a8 c43d 407c eb3d c706 babd 77be 6cbd
00000260: 32bc 91bd 6e9c a23d 877a 4e3d b25c fc3d
00000270: 26f3 8dbd 36df febd 61d9 e13d 1912 09be
00000280: b156 1e3d 985b f1bd 2934 fa3d c1c8 e8bd
00000290: d5f9 10be b610 08bd 2e77 f93c 4025 833d
000002a0: f0ac f83a 1615 1cbc a5da 3bbd 8de9 a23d
000002b0: 4f0a d3bd a239 6cbd c733 433d a0ab a73d
000002c0: 672c d7bd 0aed 6ebd 0879 08bd aaf1 06be
000002d0: 1416 333d 2e70 23bd 4b0f 9cbd 2ba5 d93c
000002e0: 3f4a cdbd d39b 4b3c 9bc6 e83d df19 bd3d
000002f0: 22c9 d63d a08e 4e3d ba54 97bd d8e1 223d
00000300: 52a3 64bd 24e8 1b3d bcaa f93d 701b e9bd
00000310: d694 4fbd b9c6 babd 8c9b 663d 169f fabd
00000320: 0887 94bc e7d7 febd 9001 1e3c dea4 a03d
00000330: b383 97bd 7c79 e43d 473f 10be 914e 8bbd
00000340: 86ec 3ebd 2000 803d c068 85bb 206b fb3c
00000350: 4cc4 c93d 6027 9d3c bc02 fcbc 9c62 0ebd
00000360: c424 b4bd 9020 10bc 681c a73d cfcb c2bd
00000370: 20f9 9dbc 9482 b9bd d4bb febd 1cc9 f13d
00000380: 2c0d f13d a073 d2bb d221 0abe 70f3 093c
00000390: 5ab2 e1bd f624 99bd 84a4 4fbd 5c6e 073e
000003a0: 9aaf 9fbd d653 f1bd 8e19 933d 503e 873c
000003b0: 70ba 293c ac27 6f3d 8b67 11be d84a b03d
000003c0: 4f17 04be c487 23bd 2dc7 02be 0596 083b
000003d0: c797 e33c f9bd f1bd 6965 9e3d aeca bebd
000003e0: 2d93 1bbd dbdb a3bc 396b ba3d 6e7e 40bd
000003f0: b26a 14bc 1712 2ebd 06f9 c3bd d36f 11be
0.036410034 -0.06858379 -0.06461734 0.039762866 0.11432917 -0.0006233508 -0.13969527 -0.07959865
0.1391294 -0.043587673 -0.1289354 -0.00066253456 0.0050398987 -0.06647462 -0.13435172 -0.00093829876
-0.055684164 0.033377286 0.1172384 0.110756785 -0.025149232 -0.0829094 -0.0404974 0.008403442
0.10733406 -0.13306008 0.07377363 0.061619103 0.12616101 -0.13769116 -0.045863986 -0.058694832
0.13417046 -0.036128357 0.09269844 -0.060646087 -0.13422176 -0.1105196 -0.0103056785 0.10403811
0.03696348 0.03648249 0.10664058 -0.02524903 -0.09547165 0.11929314 -0.05352366 -0.0044891834
-0.032228455 0.030054474 0.09133729 0.08951444 0.12686741 -0.0424507 0.010866047 0.14454158
0.047566142 0.057262637 -0.00092889444 0.085017145 0.04145231 -0.08949408 0.05261455 -0.031511053
0.037326332 -0.025552044 -0.032833375 -0.13327482 -0.04096735 0.043935493 0.08178343 -0.1424394
-0.040459495 0.009220189 0.11545555 -0.14522596 -0.091982305 0.056513414 0.04437649 0.09354516
-0.11849531 0.0113511095 -0.112612344 -0.025380895 -0.07958165 -0.12887776 -0.0051090545 0.09564905
0.10745503 -0.14459594 0.103847764 0.09222837 0.09225907 -0.034508597 -0.016769588 -0.05237501
-0.0021810653 -0.030111004 0.078496926 0.111383736 -0.06531024 0.12915184 0.09334771 -0.11805173
-0.12045471 0.028187178 -0.050683748 -0.057135597 0.01580162 -0.051321737 -0.08124651 0.096758574
0.01464403 -0.08771347 0.079514794 0.043026436 0.032796 0.1296857 0.08286022 0.0044803135
0.008936089 -0.12958275 0.01157523 0.12784685 0.0723024 0.11151758 -0.10511927 0.07613515
-0.026959278 -0.0032371455 0.10807703 0.108888716 -0.052150726 -0.142248 0.09484205 0.119010545
-0.09214938 0.03296503 -0.059563015 0.037409812 0.08218967 0.027669987 0.027075544 0.04493633
-0.072066315 -0.14525835 -0.07484362 0.13819773 0.096024424 0.11498308 -0.09083324 -0.05779883
-0.071159735 0.07939993 0.05040982 0.12322368 -0.069311425 -0.12444918 0.1102779 -0.1338581
0.038656894 -0.11785048 0.1221698 -0.11366416 -0.14157803 -0.03321906 0.030452337 0.06403589
0.0018972438 -0.009526512 -0.045862813 0.079547025 -0.103047006 -0.05767215 0.0476568 0.08187032
-0.10506516 -0.058331527 -0.03331855 -0.13178125 0.043722227 -0.039901905 -0.076201044 0.026568016
-0.10023927 0.012427288 0.11366006 0.0923345 0.10487582 0.050428987 -0.07389207 0.039766163
-0.055819817 0.038063183 0.12190768 -0.113821864 -0.05067905 -0.091199346 0.056300685 -0.122373745
-0.018130794 -0.12443524 0.009643927 0.07843946 -0.073981665 0.11155984 -0.14086638 -0.06802095
-0.046612285 0.06250024 -0.004071325 0.03069073 0.09851894 0.019183815 -0.030763023 -0.03476201
-0.08796075 -0.008796826 0.08159715 -0.0951153 -0.019283831 -0.09058109 -0.12438169 0.11805937
0.117700905 -0.006422475 -0.13489464 0.008419856 -0.11020346 -0.07477753 -0.050694004 0.13225693
-0.07797165 -0.117835686 0.071826085 0.016509205 0.010359392 0.058387443 -0.14199655 0.08608025
-0.12899517 -0.039924398 -0.12771292 0.0020841372 0.027782334 -0.118038125 0.07734186 -0.09316002
-0.037982155 -0.020002296 0.09102482 -0.046995573 -0.009058641 -0.04249772 -0.09568982 -0.14202814

hyper_w2.0.bias f4 [64]
00000000: fb08 173d 619f 053e 4fae 743d 7b8d 783d
00000010: 302a 5abc a252 8b3d 804c 553c f40a 07be
00000020: 57ed 833d e36c 66bd 9b97 09bd ba90 81bd
00000030: 2de6 e8bd b6f8 8abd 830a 513d 580f dabd
00000040: 433a 373d 65a2 f3bd b908 c6bd b66b d5bd
00000050: c703 113e 9c9e eebd ee38 ce3d b040 07be
00000060: fc00 d4bd 14dc 98bd dda7 a73d aea4 a1bd
00000070: 7dba c93c 52e4 8cbd b394 f7bd 3e48 a3bd
00000080: 3817 a53d 20d5 6d3c f1c6 ef3d e399 013e
00000090: d60b 123e 68c5 5e3d 5470 113e 9f07 023e
000000a0: 4332 8ebd 4a23 0e3d ae46 5d3d 0683 1b3c
000000b0: 3f68 03be 91e1 bdbd 7b13 0b3e 420c 943d
000000c0: f3b8 d9bc c38b 06bd 9d86 e03c f893 c1bd
000000d0: d3b2 7c3d e244 f23d a7cc 753d 288a 053e
000000e0: 9610 cb3d 83df d83d 868c 963d 44b4 ac3d
000000f0: c389 96bd 0281 683d 1ae9 c9bd 23df ca3d
0.0368738 0.1304908 0.059736546 0.0606818 -0.013315722 0.0680287 0.013018727 -0.13187772
0.06441753 -0.056256186 -0.033591848 -0.063264325 -0.113720275 -0.06785719 0.051035415 -0.10647458
0.044733297 -0.11896209 -0.096696325 -0.10420935 0.14161597 -0.11651346 0.10069452 -0.1320827
-0.1035175 -0.074638516 0.08186314 -0.07892738 0.024625057 -0.06879486 -0.12088909 -0.079727635
0.08061069 0.014516145 0.11707867 0.1265636 0.14262328 0.05438748 0.14203006 0.1269822
-0.069431804 0.034701623 0.054022484 0.009491688 -0.12832735 -0.09271539 0.1358165 0.072289005
-0.026577448 -0.03284813 0.027407939 -0.09452051 0.061693978 0.118295446 0.060009625 0.13040984
0.09915273 0.105895065 0.073510215 0.084328204 -0.07350495 0.056763656 -0.09858914 0.09905841

hyper_w2.2.weight f4 [32, 64]
00000000: bfbd 89bd 4b36 d1bd 6f33 943d 6580 c7bd
00000010: 40ac 4a3b 1df3 e33c e892 cbbd 56a3 70bd
00000020: a6cc d23d a74e e7bd 1ac3 d0bd fbfd 013c
00000030: 1547 743d e617 8abd 2df9 c5bd 07af d53d
00000040: 4860 d1bd 1ecd 283d 4210 f8bc 8681 23bd
00000050: c93e 6fbd 3c0d b93c 5507 903c d9b8 ee3d
00000060: 6de6 853d d91a eb3d 3c11 47bb 2336 ce3c
00000070: 1b2a 3139 167b 23bd 13fb b7bd 449f e23d
00000080: 2825 3d3c 683c c13d 295c f6bd e9ab dd3d
00000090: 8563 73bd 44f2 933d ba86 c83d d26f 9e3d
000000a0: dcc0 093d b8dc e53d add3 a7bd efe1 f93d
000000b0: 39da f6bd 5eae eabd fbc5 fd3d 0d5c a2bc
000000c0: d27d cc3b ee39 333d 14bc a2bc 95b6 c03d
000000d0: 252c b2bd efdf 833d 530f 433d 0bf0 d4bc
000000e0: 6ef0 443d fcfb 97bc 91dc ee3d 0ab6 b03c
000000f0: efc9 ccbd efc5 98bd 204e d83d b8bb 003c
00000100: 3c6b 9dbd 52e2 cdbd 6326 783d 3ef2 cdbd
00000110: 6803 afbc df76 ba3d 401a 643d ab98 cfbd
00000120: 71e9 153d 7c3e 44bd 80ba f2bd ac60 883d
00000130: 4368 fe3d c09d c03d 5443 c13d 7c98 9e3d
00000140: d873 8bbd 0b74 dd3c 5e66 9bbd 522d d63c
00000150: 22d8 4b3d 1588 373c 9230 3b3c 56b3 943d
00000160: b9bd d43d cd43 dabd 19ed e43d 4a76 f9bd
00000170: 9949 9c3d 8c74 bc3d 5983 76bd 9482 82bd
00000180: 5cf1 f1bd fc80 01bd 13d9 ed3d 1f70 c4bc
00000190: ba1a d7bd a529 693c 8e06 813d 2445 66bd
000001a0: 7a2f 5abd 9338 2b3c e4d0 7fbd e7dc 41bd
000001b0: f395 c1bd 9caa d1bd 2854 52bd f81f 13bd
000001c0: 5677 5cbd c118 f13d cd45 eb3d 67eb 36bd
000001d0: bc2c b73d e285 2d3d 1464 19bd 2a20 efbd
000001e0: 4d5e ecbc 2942 c13d 9940 fb3d 111e f1bd
000001f0: 90ff 823c 01d1 43bd c047 f1bc c1a2 933c
00000200: 0e58 8a3d 7383 bf3d 729d bfbb d0f2 8ebd
00000210: 1081 143c 1b83 b6bd 4a51 f3bd cefd 54bd
00000220: 624b 35bd e222 ee3c 5790 acbc ef90 f6bd
00000230: 166f e83d 16ca 95bd 4589 9a3d 672e 523d
00000240: 1a7a 883d 8082 8b3b e937 353d 1366 fe3d
00000250: 304b dbbd 3ff8 99bd 00f3 013d 567b d93d
00000260: 5915 2ebd f68e 22bd c099 f23d 4884 913d
00000270: 233e bcbc 4688 e13d a8f8 89bd a7ad 413d
00000280: 8c63 1a3c 0023 303a a169 1d3c 9043 ad3c
00000290: 3e19 8f3c 70bc a13c c06f 8e3b 73d4 fa3d
000002a0: cbc4 a3bc 10f1 dabd d3e7 eb3d d664 d63d
000002b0: 0d02 b73d ded8 663c c464 51bd d09d 8abd
000002c0: 1d47 dfbd fee2 f43c 5ec2 5d3c 0cce d33d
000002d0: 7ec1 283c ce45 a03d ee7c c23c df8f 8abd
000002e0: 0195 393d f5df 80bb f2f4 8b3c a60e 953d
000002f0: 2b9a cc3d e61b 153d c418 be3d 0c99 f5bd
00000300: f544 493d 46e6 93bd 101f 71bd 7a50 b93d
00000310: f014 933c 2ffa 14bd 7661 803d c035 b13d
00000320: 7bf1 593d 6dbc 3ebd 6b06 94bd fbea 913d
00000330: beeb d2bd ef56 ddbd e9f7 34bd d648 6ebd
00000340: 033f c93c 4adc e73d 2ec9 28bd 9c82 f63d
00000350: b6b3 783d a241 383d 34a4 813d c886 543d
00000360: 411d 88bd 63a1 6e3c 46e6 42bd 7407 a6bd
00000370: 94b9 0e3d 7b0e 51bd 0852 c43d 00db 68bd
00000380: 18a8 44bd dcf3 213d 9e3d 8ebd 0d3b 8e3c
00000390: 6ad0 c33d 15b8 e33c 38d9 7cbd 27c9 f03c
000003a0: 5da4 84bd 8444 a33b a4d7 f5bd 4aac 6ebd
000003b0: cb83 d73d 2acd f6bc bdab 0f3d 0435 98bd
000003c0: bba8 dcbd c4a2 e43b 2f8d 94bd 8077 003d
000003d0: 346d a23d bbe5 b13d 2f85 df3c 1221 14bc
000003e0: 0853 f7bd 202a 523d 3b26 2c3d 8f43 95bd
000003f0: aa47 783d ded5 7abc f0c9 cc3d 8c61 8b3d
-0.06725644 -0.10215434 0.07236373 -0.09741286 0.0030925423 0.027825886 -0.099401295 -0.05874952
0.1029294 -0.112942986 -0.10193463 0.007934089 0.0596381 -0.067428395 -0.09666667 0.104337744
-0.10223442 0.04121124 -0.03028119 -0.039918445 -0.058409486 0.022589318 0.017581621 0.11656351
0.06538091 0.1147973 -0.0030375263 0.025172299 0.00016895721 -0.039912306 -0.089834355 0.11065534
0.011544503 0.0943535 -0.12029297 0.10823805 -0.05942108 0.07223943 0.09791322 0.07736172
0.03363119 0.112237394 -0.08194671 0.122012965 -0.120533414 -0.11459039 0.123912774 -0.019819284
0.006240585 0.043756418 -0.019865073 0.09409825 -0.08699826 0.06439196 0.047622036 -0.025993368
0.048080854 -0.018552773 0.116631635 0.021571178 -0.09999453 -0.07459628 0.10561776 0.007857256
-0.07686469 -0.10052933 0.060583483 -0.1005597 -0.021363929 0.09104704 0.055689096 -0.10136541
0.03659958 -0.047911152 -0.11851978 0.06659064 0.1242223 0.094050884 0.0943667 0.07743928
-0.06809205 0.027032873 -0.07587884 0.026144657 0.049766667 0.011201878 0.011425154 0.07260768
0.10387749 -0.10657463 0.11178035 -0.12180765 0.07631225 0.09201917 -0.060183857 -0.06372562
-0.11813614 -0.03161715 0.11613669 -0.023979245 -0.105031446 0.01423112 0.06300078 -0.05621828
-0.053267933 0.0104505 -0.062455073 -0.04732981 -0.09452429 -0.10237619 -0.05134979 -0.03591916
-0.053824745 0.117722996 0.11487923 -0.04465809 0.08944079 0.04236401 -0.037448958 -0.11676057
-0.02885356 0.09436447 0.122681804 -0.11773313 0.015991002 -0.047806744 -0.029453158 0.018021943
0.06755076 0.09351244 -0.0058476264 -0.069799066 0.009063974 -0.08911725 -0.11880739 -0.05199986
-0.044261344 0.029069368 -0.02106492 -0.12039363 0.11349313 -0.073139355 0.07545713 0.051313784
0.06663914 0.0042575 0.044242773 0.12421813 -0.107077 -0.07518052 0.031725883 0.106192276
-0.042500827 -0.03968712 0.11845732 0.07105309 -0.022978848 0.1101232 -0.067368805 0.04728475
0.009423148 0.00067190826 0.009607703 0.02115038 0.017468091 0.019743174 0.0043468177 0.12247553
-0.0199913 -0.1069051 0.11518826 0.10468452 0.08935938 0.014089791 -0.05112149 -0.067683816
-0.10902236 0.029893395 0.01353511 0.10342035 0.010300038 0.07825814 0.023741212 -0.067657225
0.045308117 -0.0039329478 0.017084572 0.072781846 0.09990343 0.03640356 0.092820674 -0.11992082
0.04913803 -0.072216555 -0.058867514 0.09048553 0.01795432 -0.036371406 0.06268589 0.0865283
0.05320881 -0.046566416 -0.07227787 0.07124897 -0.102988705 -0.10807597 -0.044181738 -0.05817493
0.02456618 0.11321314 -0.041207485 0.120366305 0.06071826 0.044984467 0.063301474 0.05188635
-0.06646205 0.014564845 -0.047582887 -0.0810689 0.03484495 -0.0510392 0.09585959 -0.05684948
-0.04801187 0.039539203 -0.06945346 0.017362142 0.09561236 0.027797738 -0.061730593 0.029392792
-0.06476662 0.004982533 -0.12004021 -0.058269776 0.105231844 -0.030127127 0.03507589 -0.07431987
-0.1077437 0.006977411 -0.07253491 0.031363964 0.07930985 0.08686396 0.027285187 -0.009041088
-0.12076384 0.051309705 0.042028647 -0.072882764 0.06061522 -0.015309779 0.09999454 0.06805715

hyper_w2.2.bias f4 [32]
00000000: 1a24 ebbc 6dc9 e1bd 713d f23c 3bb2 65bc
00000010: 45f7 063d 10cd 20bc 74e0 c1bd 15a1 b6bd
00000020: 862c 7b3d a41f d63c 90f6 303d f934 ca3d
00000030: 81a4 a93d 7ee4 403b b7ba 8bbd cb6f 06bd
00000040: 7111 183d 8da0 e2bd a27d 593d b3c8 0abd
00000050: c2b0 85bd ab48 0fbd b951 193d e7d3 7cbd
00000060: 49a1 cabd 4704 3ebd dadb a1bc 67a4 dc3d
00000070: 39dd d0bd 32e9 ec3d f221 17bd 1ddd 3b3d
-0.028703738 -0.11024747 0.029570313 -0.014019544 0.03295066 -0.009814516 -0.09466639 -0.08917443
0.061321758 0.026138134 0.04320389 0.09873385 0.0828333 0.0029433067 -0.068227224 -0.032821458
0.03712601 -0.11065779 0.05309833 -0.033882808 -0.065278545 -0.03498141 0.037431452 -0.061725523
-0.09894044 -0.046390798 -0.019758154 0.10773545 -0.10198445 0.11567916 -0.036897607 0.045865167

hyper_b1.weight f4 [32, 48]
00000000: b8c6 96bd 3975 d33b 5c1d 31bc 973d a8bd
00000010: 7e0a 96bd a38d a6bd 24ff b23d 2c4c 423d
00000020: 1207 03be 6431 a33d 6cea cdbd 8fd1 86bd
00000030: 75aa a8bc ff60 f93c db9d 403d c336 f93c
00000040: 59b6 f33d d2f0 12bc 9a0c 0dbe 030b d4bb
00000050: 42bb 363d e215 b93d e3ce 013e 6175 02bd
00000060: 9575 9dbd 14cd ba3d 174c 9b3c 43a9 0bbe
00000070: 5056 89bd d4a1 3bbd 4c34 33bb 8d3c 14bc
00000080: 5197 6f3d 5575 a03c 33ba ddbd 4a89 a8bc
00000090: 07dc 07be 5a66 30bd f893 9bbd c314 a6bd
000000a0: bf65 e9bd 0eb1 2b3d 8948 94bc 74a0 993d
000000b0: 7a7f 713d 3a41 fbbb e019 aebb 2ae7 6dbd
000000c0: 294e 95bd edca e93c b3c9 b83d 4658 7cbd
000000d0: 4e43 0a3d 15f2 613d a19d 633b 4407 e13d
000000e0: bace 573d 2854 e4bd 0a27 483b 5f0b 013d
000000f0: e9b9 f73d 3482 c2bd b798 a93d 7bc4 7fbd
00000100: 5d40 883d 1592 1fbb a3b0 0c3d 661a 31bd
00000110: c4cd de3d 103f e73d 9333 e13c 7e66 d2bd
00000120: 7c4d 05be f906 553d 1edd e2bd 01b1 dcbd
00000130: ec19 76bd 5536 8bbd 907c f63b 9891 8fbd
00000140: 4775 2c3d e4c7 c73d ca81 0bbe 3e3b 0abc
00000150: 08f2 12be b4ae 063d a413 89bd 951d 5d3d
00000160: dcc2 acbb 533b f03c 25cd b3bb 8e8d 033d
00000170: d594 f6bb 0972 863d 9470 73bd a8f0 163d
00000180: f215 c1bd f0e5 9bbd 16f2 20bb c5df cfbd
00000190: ec25 a53d 15d9 833d 8520 c93b 7627 ca3d
000001a0: 531b a0bd 410b fc3d 860e 30bd ceb0 ce3d
000001b0: 693b 8d3d 83ad cdbd 5dd1 cb3d d127 40bd
000001c0: cdb2 333d 5926 d3bd ad46 0f3e 71ee 8f3c
000001d0: 8677 bc3a 90bd 46bc 017a e6bd eef9 a03d
000001e0: f084 e3bd 6797 a3bd 360c 04be ee9d a63d
000001f0: 5899 81bd 80f4 dfbb d2a9 0b3e a131 593d
00000200: c5d6 a23d 36a4 613d 0e9f 8cbd 517b 4cbd
00000210: fa6b 81bd 100c 243d 6b3a f1bd 7a21 f5bb
00000220: e63e b63d b3a1 f63d 9dba fe3c e2ee 113e
00000230: e846 c4bc 2a29 c03b 58bc bc3c be59 7dbd
00000240: 14a0 033e f3e0 c8bd 135e bbbd 8542 4abd
00000250: 8d4f 123e 5577 c5bd fc2b 843d 2f7b cfbd
00000260: 1710 c73d 048a 9cbc 607b de3c 5564 7fbc
00000270: 5f54 8cbb bf00 81bd 3575 893d 4399 84bd
00000280: 428f f43d 772c ccbd 2311 01be 3efd b13c
00000290: 4f85 3ebd 0096 37bb 89bb b5bd d545 8bbd
000002a0: a0a5 14bd 2f2e b4bd 5519 123e 8d54 813d
000002b0: 9e19 e3bd b00b b03c d0b0 b4bd 1f22 62bc
000002c0: 420f 0c3e 853c d43d 724f b43d 7abc 063e
000002d0: b08e e3bd 2e83 003e d670 59bd 1a61 90bd
000002e0: a25d a23d 4c2e 21bd 6d1f a4bd 3252 0d3e
000002f0: a99a 05be 6b73 093d c2dd c03d 7729 13be
00000300: 802d c4bd 632a 0abe 944e e5bc c795 8f3d
00000310: 17a6 6ebc 039a 8cbc 9484 463d 3e22 acbd
00000320: 6be5 2a3d f97a ddbc f595 1cbd 5599 ce3d
00000330: 2958 d0bd 4698 5a3d d2f7 d63d 96d7 bb3c
00000340: ef85 ebbd 7cea 113d 4713 b8bd 7763 a8bd
00000350: b069 05be e4cf 093d cc71 793d 1c6f 9abd
00000360: c011 573d 94c6 00bd c200 9ebd f422 7ebd
00000370: 2685 29bd e1f0 edbd 87b5 283c bccd aebd
00000380: 3120 2e3d 914a 013c afb4 c53c d1ff a13d
00000390: 90f6 c4bc b6af 12bd 52fe 99bd 5bd7 d7bb
000003a0: 354b 82bd 34e8 063d 90f1 053e 0a0f 0d3d
000003b0: 282f febd 2226 0d3c 3a46 133e 7c96 9abd
000003c0: 8642 49bd 35f6 f3bd c40c c63d f374 f0bd
000003d0: 3c3e fc3d 58d9 ba3d 17aa b13d edf9 dd3d
000003e0: ea06 103e aaa8 3e3c dee3 0ebc 64e9 b43d
000003f0: 23d1 9e3d e714 7cbd da50 0f3e 1b82 bbbd
-0.07362121 0.006453183 -0.0108102225 -0.08214872 -0.0732622 -0.08132484 0.087400705 0.047435924
-0.12795666 0.07968405 -0.10054478 -0.06582939 -0.020589093 0.03044176 0.047025543 0.03042162
0.119000144 -0.008968549 -0.13774338 -0.0064710393 0.044612177 0.09037377 0.12676577 -0.031850222
-0.076884426 0.09121147 0.01895718 -0.13638787 -0.06705916 -0.04580863 -0.0027344404 -0.00904764
0.058493916 0.019587198 -0.1082653 -0.020573277 -0.13267528 -0.04306636 -0.07596582 -0.08109429
-0.1139636 0.0419169 -0.018100994 0.07501307 0.05895946 -0.0076676877 -0.005313143 -0.058081783
-0.072902985 0.028539145 0.09022846 -0.06160762 0.033755593 0.055162508 0.0034731405 0.10987714
0.052687384 -0.11148864 0.0030540847 0.031504985 0.120960064 -0.094974905 0.08281081 -0.062443238
0.06652901 -0.0024348546 0.03434814 -0.043238066 0.108790904 0.11291325 0.027490413 -0.10273455
-0.13017839 0.052008603 -0.11077331 -0.10775948 -0.060083315 -0.067974724 0.007522173 -0.07010192
0.042104032 0.09754923 -0.1362373 -0.008436976 -0.1435014 0.032881454 -0.06693199 0.05398329
-0.0052722525 0.029325163 -0.0054871016 0.03211742 -0.0075250664 0.06564719 -0.059433535 0.0368506
-0.09428014 -0.076122165 -0.0024558357 -0.101501025 0.08063874 0.064378895 0.00613791 0.09870808
-0.07817712 0.12306834 -0.0429826 0.100923166 0.06896097 -0.1004286 0.09952042 -0.046912972
0.04387169 -0.103100486 0.13991804 0.017569752 0.0014378882 -0.012130156 -0.11253739 0.0786017
-0.1110934 -0.07987862 -0.12895283 0.081355914 -0.06328076 -0.0068345666 0.13639 0.053025845
0.0795112 0.055088244 -0.06866275 -0.04992229 -0.06319423 0.040050566 -0.117787205 -0.0074807974
0.08898716 0.120425604 0.031094844 0.14251283 -0.023959592 0.005864282 0.023039028 -0.061853163
0.12854034 -0.09808531 -0.091488026 -0.049379844 0.14288159 -0.096419014 0.06453702 -0.10130917
0.09719866 -0.01910878 0.02715844 -0.015587886 -0.0042825188 -0.062989704 0.067118086 -0.06474545
0.11941387 -0.099694185 -0.12604193 0.0217272 -0.04651385 -0.002801299 -0.0887366 -0.06800429
-0.036290765 -0.08797871 0.14267476 0.06314955 -0.110888705 0.021489948 -0.08822787 -0.01380208
0.13677695 0.10363106 0.088042155 0.13157836 -0.111112 0.12550041 -0.053086124 -0.07049771
0.07928015 -0.039350793 -0.080138065 0.13800886 -0.1304728 0.033557337 0.09417297 -0.14371286
-0.09578991 -0.13492732 -0.02799157 0.0701099 -0.014565966 -0.017163282 0.04846628 -0.08404969
0.041722696 -0.027036177 -0.038228948 0.100878395 -0.10173065 0.053367876 0.10496487 0.022929948
-0.11500155 0.035624012 -0.08988052 -0.082220964 -0.13028598 0.033645526 0.06089954 -0.07540724
0.052507162 -0.03143938 -0.07714988 -0.062045053 -0.041386746 -0.1161821 0.010297186 -0.085353345
0.04251117 0.007891313 0.024134008 0.07910121 -0.024043351 -0.035812102 -0.07519211 -0.0065869517
-0.06362001 0.03293629 0.1308043 0.03443817 -0.12411338 0.008615049 0.14382258 -0.07548234
-0.049135707 -0.11912195 0.096704036 -0.11741056 0.12316558 0.09123486 0.0867502 0.10838685
0.14065138 0.011636892 -0.00872132 0.08833578 0.077547334 -0.06154337 0.13995686 -0.09155675

hyper_b1.bias f4 [32]
00000000: 8276 f7bd 5ae9 a83a 54d2 9d3b fec4 3bbc
00000010: 5b7a 02be b0c9 80bd 7594 af3d 8698 2a3d
00000020: 6fd8 eabc 4def 0f3d f92a db3d 4134 7dbd
00000030: 0784 9c3d 9fb1 883d 5085 c5bd ffc6 083e
00000040: f375 033e 3c24 a9bc 8fe3 593d ea5d 0e3e
00000050: 9906 b6bc fa5a d73d bcbf 94bd e486 693b
00000060: 58a4 55bd 6d6d da3d 5de6 fe3d 6518 b0bd
00000070: ea8c 9d3d ab5a dabd b1c7 de3d 4318 2d3d
-0.120831504 0.0012886927 0.004816333 -0.011460541 -0.12741987 -0.06288469 0.08573238 0.041649364
-0.028667657 0.035140324 0.10701556 -0.06181741 0.0764237 0.066745035 -0.09644568 0.13357161
0.12837963 -0.02064716 0.053195532 0.13903013 -0.022219943 0.10515399 -0.07263133 0.003563338
-0.052158684 0.106654026 0.12446282 -0.08598403 0.07692893 -0.10661825 0.10877932 0.042259466

hyper_b2.0.weight f4 [32, 48]
00000000: b3a3 083e ee54 d2bd a900 8b3d 52b1 fbba
00000010: 448a 8f3d ed3f 1cbd 976f fcbd 4e44 0cbe
00000020: b9bb b43d 0e1a 7f3d 8559 423d 7271 043e
00000030: 2cd0 09bb b28f b7bd 5dfd b93d e42b 58bd
00000040: fce6 f3bd 246f 073e 22a3 9a3d 3bf2 ca3c
00000050: 4c28 0ebd 666f 0d3e 2b35 913d 2a69 9a3d
00000060: 6bb3 0fbe 7d23 1b3d 52ac b53c c75b 87bd
00000070: 00ea 793d 1cca df3d e9d8 afbd 8c3c 08bd
00000080: 60f5 c3bd 076c 013e fcef a23d 65df dd3c
00000090: 84c8 08be 06dc 2bbd 8019 5d3c e210 0dbd
000000a0: 436b 0fbe 2076 b9bc a132 bf3d f94d 143d
000000b0: 22a9 e73d 48a0 783d 0077 aa3a 7d04 90bd
000000c0: 2e79 7a3d b383 0bbe d458 f63d 8ca6 94bd
000000d0: 1406 13bd 1d6a 4238 2a72 8f3d 3756 20bd
000000e0: 344b 32bd 5acf fabd 5547 a9bd 1004 5d3d
000000f0: 1b16 883d 6838 67bd a22e d23d 465f b63d
00000100: 7aed e93d eadc d83d b910 e63d 7f51 643d
00000110: c15a 94bd ec54 e63d c748 7a3d ea5c 823d
00000120: 9c5c 393d 83ea 6f3d 71b5 aabd 6945 f6bd
00000130: c048 3cbb 827f 07bd 7cb7 083e 3ae5 ebbd
00000140: 7f56 d0bd 33d9 25bc a683 f9bc 0ac8 c1bc
00000150: 0a77 0ebe 6a9b d1bd fbb8 f6bd 56c5 1cbb
00000160: 3058 f8bd 858e de3c a4ff 4fbd 832e 0d3e
00000170: 61d7 d6bd 8494 2c3b 3ad4 c33d bca6 083e
00000180: 6416 4d3d ecf2 a33d 0056 d83b 3638 27bd
00000190: 60d7 103d 00ec 273b d6e3 953d 94c7 5dbd
000001a0: c8e7 fdbd b08f 45bc f498 98bd d670 f3bd
000001b0: 0af2 0bbe 1350 8dbd 0c46 d0bc 62ad 01be
000001c0: 2e21 bebd e083 cabb c8e4 93bc 001e 3cbc
000001d0: fa87 b1bd f0cf 80bd e26e b53d dc0f 31bd
000001e0: 51b2 0dbe 64e4 dd3d fc19 afbc 4edf d33d
000001f0: a03e 853c a063 913d 3c1c f7bc 0d19 a3bd
00000200: f6a4 47bd cb74 c7bd 78dc a6bd 92cf 093e
00000210: 9673 e1bd 50ad 443d 94a9 623d a095 113d
00000220: 20a3 abbb 80bb 1d3c 642f 563d 3d7a c1bd
00000230: c8ac 843c 007e 8f39 0cbb 0ebe 2487 66bd
00000240: 711a 643c 40aa 613b 0710 c33a 551a d3bd
00000250: 5ff5 d0bd b8e0 c83c 4652 e7bd 15cb 14bc
00000260: f668 03be b648 7c3d c913 073c fd7f 29bc
00000270: b0e9 f33d 4e98 adbd b520 f6bc 3e02 56bb
00000280: 8721 f1bd 13f2 053d 8871 01be 050e 83bd
00000290: 28be bb3d 562c 893d 395b 6d3d 74be c4bc
000002a0: d8f2 f93d 06d3 72bd 361c 763d 4b03 e3bd
000002b0: b487 3e3d f8a3 15bd e70f 10be bbc9 093e
000002c0: b854 81bd c1e4 adbd 5395 94bd 7bb9 b13d
000002d0: 9de1 83bd 8810 863d 9223 06bd 03ca 02be
000002e0: d59a d33d ed17 ee3d aa05 b9bd edf3 d63d
000002f0: c772 0b3e f3e3 063d 40f2 a03d cdfd 0cbe
00000300: bfef bb3d 8ae9 803d 7c64 943d 25af ffbd
00000310: 5e8d 093e f958 0e3e 84e7 97bd c82d d3bd
00000320: fbff 893c 1c18 7fbd b020 3e3d b5a8 febd
00000330: 452a 963d b07c cfbd 35bb dc3c c884 17bd
00000340: 0ee9 073e 103c d83d e62c 08bb 63a0 523d
00000350: c798 0c3e fc9b 563d 45b0 e63d 46fe 903d
00000360: 5ae8 073e f899 22bd 0977 0a3d c201 8abd
00000370: b67c 07bd a29e 1bbd be46 c4bd 692d 8a3d
00000380: bc84 d73d 5a15 7dbd f6a7 3ebd 96d1 6e3d
00000390: 909f 003c e89f f33d 8f22 da3d e5a0 f43b
000003a0: ec9e fdbd 71ac 55bd 63a2 02bd 002c 943d
000003b0: 69e0 febd 0e92 c0bd f889 6c3d 28e6 7a3d
000003c0: 3582 853d cd5f 8dbd b672 8dbd 683a 613d
000003d0: bc55 dd3d 872b d53d 1ca4 b93d 91b0 0abe
000003e0: 9f4f bd3d 04af d93d 1e3f 7c3c f8d5 06be
000003f0: 1a26 053d 977e 263d 3c9a 11be 6c93 f03c
0.13343696 -0.10270105 0.06787235 -0.0019202626 0.07008794 -0.038146902 -0.123259716 -0.13697931
0.08824868 0.062280707 0.047448654 0.12933901 -0.002102862 -0.089629546 0.09081528 -0.052776232
-0.11909291 0.1322599 0.07550646 0.024773708 -0.0347064 0.13812026 0.07090219 0.0753959
-0.14033286 0.03787564 0.022176895 -0.06609302 0.061014175 0.10927221 -0.08586294 -0.033260867
-0.09568286 0.12638865 0.0795593 0.027084062 -0.1335774 -0.041957878 0.013494849 -0.03443993
-0.14005761 -0.022639334 0.093358286 0.036207173 0.113115564 0.06069973 0.0013005435 -0.07032106
0.061150722 -0.13624458 0.12028661 -0.07258329 -0.03589447 4.635203e-05 0.07004197 -0.03914472
-0.04352875 -0.122465804 -0.08265559 0.053958952 0.06644841 -0.056450278 0.10262801 0.08904891
0.11422248 0.10589011 0.11233658 0.055741783 -0.072438724 0.11246666 0.061104562 0.06365378
0.045254335 0.058573257 -0.083353885 -0.12024958 -0.0028729886 -0.033080585 0.13351244 -0.11518331
-0.10172748 -0.010122585 -0.030458283 -0.023654956 -0.13912597 -0.10234721 -0.12047001 -0.0023921332
-0.121261954 0.027167568 -0.050780907 0.13787274 -0.10490299 0.002633364 0.095619634 0.13344854
0.05007018 0.08005318 0.006602049 -0.04082509 0.035361648 0.0025622845 0.07318847 -0.05414541
-0.123977244 -0.012058184 -0.074510485 -0.11886756 -0.1366655 -0.069000386 -0.025424026 -0.12663797
-0.09283672 -0.0061802715 -0.018053427 -0.011481762 -0.086685136 -0.06289661 0.0885904 -0.043228015
-0.13837554 0.10834578 -0.021374695 0.10345326 0.016265213 0.0709908 -0.03016483 -0.079637624
-0.048741303 -0.09739073 -0.0814752 0.13458088 -0.110083744 0.048016846 0.055337504 0.035543084
-0.005237952 0.009627223 0.05229129 -0.09447143 0.01619567 0.00027368963 -0.1393854 -0.056281224
0.01392232 0.0034433752 0.0014882096 -0.10307757 -0.10203051 0.024521217 -0.11294989 -0.009081622
-0.12833008 0.06159278 0.008244463 -0.010345456 0.11909807 -0.084763154 -0.030044893 -0.0032655145
-0.11773973 0.032701563 -0.12640965 -0.063991584 0.09167129 0.066979095 0.057948325 -0.024016596
0.12204522 -0.05928328 0.060085498 -0.110846125 0.046516135 -0.036533326 -0.14068566 0.1345586
-0.06314987 -0.08490897 -0.07255044 0.08677956 -0.06439517 0.06546122 -0.032748766 -0.12772374
0.10332266 0.11625657 -0.090342835 0.10495744 0.13618003 0.032932233 0.078587055 -0.13768692
0.09176587 0.06294544 0.072457284 -0.12484578 0.13432834 0.13901128 -0.07417205 -0.103114665
0.016845694 -0.062278852 0.046417892 -0.12434522 0.07332281 -0.10131204 0.026944736 -0.036991864
0.13272497 0.10558331 -0.0020778715 0.051422488 0.13730155 0.052394852 0.112640895 0.07079749
0.13272229 -0.039697617 0.033804927 -0.067386165 -0.033077918 -0.03799308 -0.095838055 0.067469425
0.10523364 -0.06178794 -0.0465469 0.058305345 0.007850543 0.11895734 0.10651123 0.007465469
-0.123838276 -0.052166406 -0.031893145 0.07234955 -0.124451466 -0.09402858 0.057748765 0.06125465
0.06518976 -0.06903038 -0.06906645 0.05498734 0.10807368 0.10408693 0.090645045 -0.13543917
0.09243702 0.10629085 0.015395908 -0.1316756 0.03250704 0.04064807 -0.14218992 0.029367171

hyper_b2.0.bias f4 [32]
00000000: f6b9 3d3d 308c 273c e846 e3bc 91ee 793c
00000010: d8a1 033e 7c7c 0e3e 27a7 c43c 2c97 0fbe
00000020: 7801 30bd 6157 0c3e 36f5 c6bd 3d92 9b3c
00000030: 32f1 41bd 6248 b13c 1678 f3bc da45 623c
00000040: 8b13 bdbb 7b7c 4fbc 08e6 23bc 4c04 ab3d
00000050: 3fde 2b3d acb4 b8bd e073 fd3d c3e8 503d
00000060: 5531 0d3e 37a2 ce3d 2e23 00be 1113 c03d
00000070: 5594 edbd 106b 283c 9b55 fd3d 8c84 c03d
0.046319924 0.010226294 -0.027743772 0.015254633 0.12854707 0.13914675 0.024005486 -0.14022511
-0.04297015 0.13705207 -0.09714739 0.01899063 -0.047349162 0.02164096 -0.029720347 0.013810599
-0.005770152 -0.012663956 -0.010003574 0.08350429 0.041959997 -0.090188354 0.12375617 0.05100323
0.1378835 0.10089534 -0.1251342 0.09378637 -0.11600558 0.010279432 0.123698436 0.09400281

hyper_b2.2.weight f4 [1, 32]
00000000: 6670 9b3c 05a9 1bbc 609a 563c 2ada ce3d
00000010: e483 983d 2048 80bd 7fb9 28be 1bfa 353d
00000020: 68c7 e7bd a633 fd3d e651 e1bd 17d8 52bd
00000030: 4ba3 1dbe 0d5b 21be 75c4 fb3d 3be2 c43d
00000040: 3972 35bd f3a5 643d efe9 b13d 5dcb 3dbd
00000050: 5634 a0bd be1b 423d 74a3 0bbc 033b f43d
00000060: 30e3 ae3d 8fcc 7dbd e999 2e3e 8910 51bd
00000070: 2ecf 0a3e f045 71bc af45 9dbd 3552 65bc
0.018974494 -0.009500747 0.013098329 0.10100205 0.07447031 -0.06263757 -0.16477011 0.044427972
-0.113173306 0.12363367 -0.11001949 -0.05147561 -0.15394323 -0.1575739 0.122933306 0.096134625
-0.044298384 0.055822324 0.086871974 -0.04633652 -0.07822482 0.04738974 -0.008522857 0.11925318
0.08539426 -0.06196266 0.170509 -0.05104116 0.13555595 -0.014726147 -0.07679307 -0.01399665
