model/qmix/3m/1_rnn_net_params.pkl (torch, 115471 bytes, 8 tensors)

fc1.weight f4 [64, 42]
00000000: 34a1 7dbd 0140 c83b 23e7 9abd ff70 723d
00000010: 5fa1 06be e79a e53d c8bc e7bd f049 fdbd
00000020: 48bb c9bd 7c13 8d3d 939f 6dbd 216b 683d
00000030: c520 07be b4c7 c1bd 4c27 6cbd 6a4c 00bd
00000040: f81e f3bd 94e0 cc3d 3725 19bd e8f7 4e3d
00000050: b483 e13d 16b1 f33c 9ebb 283d 8a8a 193e
00000060: 257a 8cbd 524a 4c3d 3e8d 8abd 80e2 e33d
00000070: 0f6f fe3d 61a7 10be d4e7 073e 67f2 983d
00000080: 4ea9 873d 3024 843d f753 023e c0b6 9ebc
00000090: 40a0 05be fe5b 35bd 668f debd ec81 373c
000000a0: 78d1 e3bc 1875 a7bd 133e 76bc 10ac 143e
000000b0: 03ca 57bc 3589 7f3b 3d55 cdbc df86 be3c
000000c0: 14c3 0b3e 8849 c33d db3f 5c3d dd40 053d
000000d0: 81ee 103d c313 703d 9227 9bbc 6ee0 13be
000000e0: 4979 c5bd 29d9 053e 18bb 063c 47f2 fdbd
000000f0: 382f bf3c 4e88 013e 1557 16be 7db4 d2bd
00000100: 719e 77bd 402d aa3b c980 17bd 9019 93bc
00000110: 1e10 1bbe bf07 963d 50aa 093e 8a1c bf3d
00000120: 7cc7 dfbd c264 00be 7f2d 813d 0896 213b
00000130: 2297 833d 9a6b 1bbe 511c 27bc cadd de3d
00000140: 0c8e 903d b2df 973b 385e f03c a2be 7fbc
00000150: f6b4 abbd 2bbf 6abd da65 bebd 0444 043e
00000160: e2f1 af3d 2221 613d b449 f0bd dde3 f53d
00000170: 4d43 4a3d 00aa dc3d 9689 74bd 4915 0a3d
00000180: 614c 1b3e fa9d d63d 4a7d ff3d d59e 00bd
00000190: 9dcf f23d ea76 f5bd 3009 6b3c 9ae2 afbd
000001a0: a34d 0fbd aaf4 25bd 4a87 4d3c fbd4 103e
000001b0: 3780 9e3d d07c b539 1146 de3d 5be5 9fbd
000001c0: 75e9 a43d 500e 5abc 7b26 e4bc 712d 9c3c
000001d0: bb0c f0bd 87e1 893c 3a9b 583d bc0f 063e
000001e0: 19af 40bd 088c 633d 06f4 1e3e 5883 85bd
000001f0: 112d 153e bfd9 9abd 5258 8d3d 3db1 7b3d
00000200: 81a3 343d c4f3 fb3d e458 7bbd 4834 2a3d
00000210: f68f f43a 04bc efbd 835e 15bd 2c0a d1bd
00000220: 59c6 8d3d 33a6 733c 5e48 673c 81a4 3bbd
00000230: a94a e43a e97d 40bd 22b3 393d 686d 183e
00000240: 82a8 c73c 8deb 89bd 5efb bebd e2df 303c
00000250: 297b ecbd c87b ebbd 49a3 cbbd 9b91 52bd
00000260: 9381 4b3c 0390 d73d 96e7 783d d426 f43d
00000270: c878 c8bd afb9 653c 326d 0bbe 5954 b73d
00000280: cecf 073d aad9 193e 0db5 debd a66b fd3d
00000290: bf6a 063e 6cc6 003e af2e ac3c 34b2 103e
000002a0: b917 d53d a5d1 ed3d 15d8 13bc c575 f0bd
000002b0: 533e 71ba f93f f53c e835 d5bd 4753 b7bd
000002c0: df76 16be 56a4 61bd 97a8 0a3e f056 e03c
000002d0: a1cc 2abc 69d0 eb3b ae18 c73d 8781 0abe
000002e0: e2c8 f1bd c239 56bd ced2 b3bd fb0a a53d
000002f0: 7356 e13d 7653 1abe f41e 07be 7fd8 18be
00000300: e387 723d 4232 003e 53f8 f2bd 2359 94bd
00000310: 4638 4d3d d84d ccbd 4e3f 073e ba75 173d
00000320: b3d9 2bbd be95 343c 89f3 403d b365 5bbd
00000330: fde8 f6bd 80f1 873a 8032 383b cfb9 863b
00000340: a745 b0bc a3f3 cc3d 8477 34bd 098a 82bc
00000350: 98c9 7f3d 1ae9 c6bd 043b 293d decf 0fbd
00000360: 988d 953d 8675 a9bd b666 9a3b b052 773c
00000370: 6043 febd 5ec9 e5bd 0064 723d 98f4 37bd
00000380: e2ad bb3d 5b1a 1dbe e83d 9ebd ae27 01be
00000390: c16c 783d c755 b3bb c8f5 f3bc 247d dabc
000003a0: 56f7 f4bd 1426 2f3d bc8e 3a3b b021 dcbd
000003b0: fcba 693d 0c4e 86bb ced6 19be 62f1 a73d
000003c0: 4614 ab3d 1029 eebc 0830 dabd e001 cb3b
000003d0: 0e75 ee3d 3c9b 0f3e f386 eebd c0bb 8ebd
000003e0: 3e0e f63d d469 983d 02aa c53d 684a 9dbd
000003f0: b01a 073e 71ea 02be 9d28 0abc 0c6f 103b
-0.061921313 0.0061111455 -0.07563617 0.059189793 -0.13147496 0.11211186 -0.11315304 -0.12367618
-0.09850174 0.06888482 -0.05801351 0.05674279 -0.13196094 -0.094619185 -0.057654664 -0.031322874
-0.11871141 0.100037724 -0.037389006 0.05052939 0.110114485 0.029747527 0.04119455 0.14994255
-0.06859235 0.049875565 -0.06765221 0.11127186 0.124235265 -0.1412635 0.13272029 0.074681096
0.06624089 0.06452215 0.12727343 -0.019374251 -0.13049412 -0.044277184 -0.10867195 0.011200409
-0.027809843 -0.08176631 -0.015029448 0.14518762 -0.013170722 0.0038991694 -0.025065059 0.02325767
0.13648635 0.09535509 0.053771835 0.03253256 0.035383705 0.058612596 -0.018939767 -0.14441082
-0.09642274 0.13071121 0.008223318 -0.12399726 0.023337945 0.12649652 -0.14681657 -0.10288332
-0.060453836 0.0051933825 -0.036988053 -0.017956525 -0.15142867 0.07325696 0.13443875 0.09331615
-0.109267205 -0.12538436 0.06307506 0.0024656076 0.06425311 -0.15177765 -0.010199622 0.10882147
0.07058343 0.004634821 0.029341802 -0.015609415 -0.08384125 -0.05731122 -0.092967704 0.12916571
0.08591057 0.05496324 -0.11732808 0.12006352 0.04938059 0.107746124 -0.059701525 0.033711705
0.15165855 0.104793504 0.12475069 -0.031401474 0.11856005 -0.11985572 0.014345452 -0.08588143
-0.03498615 -0.040516533 0.012544462 0.14143746 0.07739299 0.00034616003 0.10853208 -0.07807418
0.08052341 -0.013309076 -0.02785038 0.019064637 -0.11721178 0.016831173 0.05288241 0.1309194
-0.047041986 0.055553466 0.15522775 -0.065191925 0.14567973 -0.07561063 0.069016114 0.061448324
0.044101242 0.12302354 -0.06136407 0.041553766 0.0018658626 -0.11705783 -0.036467087 -0.10207018
0.069225974 0.014871168 0.014116375 -0.04581118 0.001741727 -0.046995077 0.04533685 0.14885485
0.024372343 -0.06734381 -0.09325288 0.010795565 -0.115469284 -0.11498219 -0.099432535 -0.05140839
0.01242103 0.10525515 0.060767733 0.119214684 -0.09788662 0.014021321 -0.13615873 0.08951635
0.033157162 0.15024439 -0.108743764 0.12374048 0.13126658 0.12575692 0.021018354 0.14130479
0.10404915 0.11612252 -0.009023686 -0.11741213 -0.00092027074 0.029937731 -0.104106724 -0.08951431
-0.14693783 -0.055088364 0.13540874 0.027385205 -0.010424764 0.0071964753 0.09721504 -0.13525973
-0.118058935 -0.052301176 -0.08780442 0.08058735 0.11002817 -0.150709 -0.13195401 -0.14926337
0.059211623 0.12519172 -0.1186377 -0.07243564 0.050102495 -0.09975785 0.13207743 0.036977507
-0.04195566 0.011022029 0.047107253 -0.053563785 -0.12056158 0.0010371655 0.0028106272 0.0041115056
-0.021517588 0.100074075 -0.04405929 -0.01593496 0.062448114 -0.09712429 0.041316047 -0.035110347
0.073023975 -0.08274369 0.004711951 0.015095398 -0.124151945 -0.11220048 0.0591774 -0.044910997
0.09164025 -0.15342085 -0.077266514 -0.12612793 0.06065059 -0.005472872 -0.029780284 -0.026671
-0.11961238 0.042760924 0.0028466424 -0.10748613 0.057063088 -0.0040986594 -0.15023348 0.08200337
0.08353476 -0.029072315 -0.106536925 0.006195292 0.1164342 0.14024061 -0.11646833 -0.06969404
0.12014435 0.0744206 0.09651567 -0.076802075 0.13193774 -0.12784745 -0.0084325345 0.0022038845

fc1.bias f4 [64]
00000000: cedd 6f3d 13eb dabd da06 b3bd 3c53 d73d
00000010: 5f0b be3c 9eb8 13be 7546 90bd 1d47 a1bc
00000020: 843f 11be de33 e5bd c158 f0bd 2ca1 77bd
00000030: d4c7 133e 8f42 dd3d 4c22 ed3c cbbf 17be
00000040: d628 98bd 73f5 a03b d79d a03d 5651 0c3d
00000050: 40f7 193e b982 353d 78aa 0b3e fde6 e73d
00000060: b94c 723d e18e d93d ce4c b3bd 46f1 13be
00000070: d225 153e d79e e7bd d6cf 233b 8455 993d
00000080: 4e66 6dbd 09ed 8c3b 8df3 a6bd f35e 043e
00000090: 23a6 1a3d 66da e33d b922 1cbe 3abb 8bbd
000000a0: 0f55 fdbc 0d27 af3d 05cd 02bd 7452 1d3e
000000b0: 4841 6abd f317 f03d b551 d8bd ce05 b1bc
000000c0: 1bcf afbd 5073 2fbd 9c9e f13d 4b03 163d
000000d0: eb38 79bc 42ad 8a3c 5a14 d13d 2a8d d0bc
000000e0: f951 c1bb a436 aa3d 6439 84bd 40c3 61bd
000000f0: 4507 17be 327e d83d 4297 513d 94c1 e4bd
0.05856114 -0.10689368 -0.08741541 0.105139226 0.023198782 -0.14425895 -0.070446886 -0.01968723
-0.14184386 -0.111915335 -0.117356785 -0.06045644 0.14431697 0.10803711 0.028947018 -0.14819257
-0.07429664 0.0049120723 0.078426056 0.034257255 0.15035725 0.04431412 0.13639247 0.113233544
0.0591552 0.10622955 -0.08754884 -0.14447507 0.14565209 -0.11309593 0.0024995706 0.07487014
-0.057958893 0.0043007177 -0.081519224 0.12926845 0.037756097 0.111256406 -0.1524762 -0.0682282
-0.030924348 0.0855237 -0.031933803 0.15363485 -0.057191163 0.11723318 -0.105624594 -0.021609213
-0.08584424 -0.04283458 0.117978305 0.036624234 -0.015211324 0.016928319 0.1020896 -0.025457937
-0.0058996645 0.08311203 -0.06456259 -0.055117846 -0.14748867 0.10570945 0.05116964 -0.111697346

rnn.weight_ih f4 [192, 64]
00000000: 9675 ebbd 392b c83c 2e57 d5bd d27a d63d
00000010: f412 df3d 4356 60bd d044 81bd 0023 33bd
00000020: 2fdb acbd d371 7b3d 75de 20bd 2be6 3fbd
00000030: 4ea6 b4bd 8251 763d 8d11 b0bd 3af5 6cbd
00000040: e6bb 6c3d c5a2 80bd 0b37 55bd 1d3a 883d
00000050: 1e2f febd 8c7b f3bd 806a cbbd 2fc8 7abc
00000060: ebba 4f3d 446b b33d 945a a93d 83b1 cf3d
00000070: a13e 86bd 312d 373c cefb fe3d e921 a3bd
00000080: 7dbd e5bd 1830 febc 3ade f83d 11b1 d1bd
00000090: a500 8ebd 61d8 f8bb a45b 4ebb b5cd 633c
000000a0: 4d3f abbd 47f5 dcbd 8f6e 9e3c 4d96 503d
000000b0: 09c4 04bd 6cac 3c3d 0c9b a8bd 0cf9 653d
000000c0: baf0 c9bc 5e6f d53d ad4d 9a3d 6e09 fe3d
000000d0: 4793 d6bd 517b cb3d 24f8 eb3d 77e4 babd
000000e0: 5e39 6fbd d3b3 b13c 5e3c 123d 1753 df3d
000000f0: 5cc8 d73d d123 273d 1edb 903d 1c51 943d
00000100: 4c19 ce3d 8996 083d 24c9 80bd dfe2 59bd
00000110: 2658 fcbd 2bb9 9c3d 4a34 653d 991a a13d
00000120: e5d4 cfbd 4461 f5bc a450 8fbd 2cf7 7ebd
00000130: b884 6cbc 4fb0 153d 7f41 88bd a5ca 39bd
00000140: 60d7 073c 3a30 c23d 915b 05bc c619 1b3d
00000150: fe5a 6a3d 70c5 46bd 2be4 f53d 982d b6bc
00000160: 29fd bfbc 0140 ecbc 312d e83d 33bd 3c3d
00000170: 36e4 a5bd 9e5d 97bc 2624 06bd 5d39 56bc
00000180: ff6e db3d 5943 31bd 00eb 883c c200 b3bd
00000190: 9ac0 e4bd d883 4ebd dc98 293a 8b30 cc3c
000001a0: a6a9 aabd 086d 003e 8c7b d83d d260 5cbd
000001b0: bcb1 02bd ffef ce3d 2f18 ebbd 3882 afbd
000001c0: 8749 e13d 117e f73d 0083 df3d 307c d33d
000001d0: b3d0 ce3d ec5c 9c3c 33d3 aabb 6cc9 27b8
000001e0: bdb8 f4bd c42d 7ebd 3cc4 8638 1489 41bd
000001f0: 2c08 b83d 83e5 5cbd 370e cd3c f4b0 74bd
00000200: cf92 8b3d 96d4 dcbd de26 583d ac80 f43d
00000210: ee82 2fbd 9790 e13d 2263 183c 6e8c cdbd
00000220: 67c2 fbbd b461 423d 026c 453d 287b a0bd
00000230: 3359 a43d 027a 403d e6ad bdbd 1666 bfbc
00000240: ebc3 8fbd fe66 aa3d 4757 b5bc 0268 f03d
00000250: 2f3a 673c 7dff 923d 55c9 dd3d 871a 3fbc
00000260: a5a5 d1bc 31fc 2a3d bbff 483b 959d c63d
00000270: 8cc5 29bc 315d ff3d 8c2f a63d c7f2 c83d
00000280: a723 a2bc de87 82ba 8383 c33d 7d77 1bbd
00000290: 19e8 cc3d 7174 0b3c 51d5 493d e478 d33d
000002a0: 8f79 c03d 343b b5bd aecf dc3d 6ea5 ab3d
000002b0: 2919 ffbd 0b28 ba3d a5eb 133d 97d6 eb3c
000002c0: 5085 ddbd 01cc e5bc 7db7 943d 47bf 8b3c
000002d0: 8d66 8c3d 624a c2bd e360 a93d 0546 bf3c
000002e0: bc18 8a3d 32ad d43d 4309 a33d 655d 113c
000002f0: cdca 083d 664e a33d c23b f2bb 1412 69bd
00000300: 6d76 a13d 61ba 913c 965a 34bc f510 f5bd
00000310: 85f2 febc 8c7b fd3d 747e 9dbc a6de 063d
00000320: 4388 773d ab37 86bd 5565 d33d 365f e93d
00000330: 3558 b3bc 440d 3c3d a4a3 cabd 0dfb c7bd
00000340: d33b ad3c a586 d1bd 3aa9 29bd 954c b23d
00000350: 88cc fc3d bd37 ee39 a3f4 3cbc 8779 e93d
00000360: 8ebf e1bd 8525 f13d 1002 5abd 13ee 0b3c
00000370: 2af9 42bb d473 5cbd af94 3d3d 2230 76bc
00000380: 37e1 0d3c 01a1 babc 3549 653d b8f8 9bbd
00000390: c434 c9bd eda3 74bd 3c10 fb3d c34a 2e3c
000003a0: 10c0 283d 2656 8e3d d83a acbc 091f a83d
000003b0: 2d08 d3bd 3922 67bd e747 d73d 7902 3fbd
000003c0: 34b1 9bbd 231a f5bd ecfd f2bd 536e 823c
000003d0: 7d2b b3bd e043 f9bd 66c1 f33d c108 333d
000003e0: adb2 bf3d 8141 f33c ecde abbc 5e9b a8bd
000003f0: 2024 f7bd 374c e0bd 367f fbbd c08d 7cbc
-0.11497037 0.024434673 -0.10417019 0.10472645 0.10892287 -0.054769766 -0.06311953 -0.04373455
-0.084402435 0.061387848 -0.03927465 -0.046850365 -0.088207826 0.060136326 -0.085970975 -0.057851054
0.05779638 -0.06281046 -0.052054446 0.06651709 -0.12411331 -0.11888799 -0.09932423 -0.015306517
0.05071537 0.08760694 0.082692295 0.101412795 -0.06554914 0.011180208 0.12450372 -0.07965452
-0.11217783 -0.031028792 0.12151761 -0.10238851 -0.06933717 -0.0075941538 -0.0031487728 0.013904025
-0.08361683 -0.107889704 0.019339828 0.050924588 -0.032413516 0.04606287 -0.08232698 0.056145713
-0.02465092 0.10421632 0.07534347 0.12404142 -0.1047731 0.0993563 0.115219384 -0.091256075
-0.05840432 0.021692192 0.035702102 0.1090452 0.105362624 0.04080564 0.07073043 0.07242033
0.10063419 0.033346687 -0.062883645 -0.053194877 -0.123215005 0.076525055 0.05595807 0.07866401
-0.10148028 -0.029953606 -0.06997803 -0.06224744 -0.0144359395 0.036545094 -0.066531174 -0.045359273
0.0082910955 0.09481855 -0.008139507 0.037866376 0.057215683 -0.048528135 0.1200641 -0.022238538
-0.023436146 -0.028839113 0.113367446 0.046078872 -0.081001684 -0.018477257 -0.032749318 -0.0130752
0.1071453 -0.04327712 0.01671362 -0.08740379 -0.11169548 -0.050418705 0.0006469616 0.02492549
-0.08333139 0.12541592 0.1057044 -0.053803273 -0.031907782 0.10104369 -0.11479222 -0.08569759
0.11000352 0.12084592 0.10913658 0.10326421 0.100984 0.019087277 -0.005213165 -4.000349e-05
-0.119492985 -0.062055364 6.4261694e-05 -0.04724987 0.08985934 -0.053929817 0.025031192 -0.05973907
0.06815111 -0.10782735 0.05277144 0.11938605 -0.042849474 0.110139064 0.009300979 -0.100365505
-0.12292939 0.04745646 0.048198707 -0.0783599 0.08024826 0.046991356 -0.09261684 -0.023364108
-0.0701979 0.083204255 -0.022136344 0.11738588 0.014112993 0.07177637 0.10829417 -0.011664039
-0.02559168 0.041744415 0.0030670005 0.09698025 -0.01036204 0.12468947 0.081145376 0.09811931
-0.019792391 -0.0009958704 0.09546568 -0.03795575 0.100052066 0.0085116485 0.0492757 0.103257924
0.093981855 -0.08849183 0.10781799 0.083811626 -0.12455971 0.09089669 0.0361134 0.028788848
-0.10816443 -0.028051378 0.0726156 0.017058982 0.068554975 -0.09486844 0.08270433 0.023348818
0.06742999 0.10384597 0.07960751 0.008872365 0.03339653 0.07973938 -0.0073923776 -0.056902006
0.07883916 0.017789068 -0.0110079255 -0.11966125 -0.031121502 0.1237708 -0.019225337 0.032927178
0.060432684 -0.065535866 0.10322062 0.11395113 -0.021892646 0.04591109 -0.09894493 -0.09764681
0.02114669 -0.102307595 -0.041421153 0.08706013 0.12343699 0.00045436426 -0.011532935 0.114001326
-0.11022864 0.117747344 -0.053224623 0.008540648 -0.0029750564 -0.0538214 0.046284374 -0.015026124
0.008659652 -0.02278185 0.05597802 -0.07615799 -0.09824517 -0.059726644 0.12258956 0.010637942
0.04119879 0.06950025 -0.021024153 0.082090445 -0.10304294 -0.05642912 0.10511761 -0.046633217
-0.07602158 -0.11967876 -0.11864838 0.015921747 -0.08748529 -0.12171149 0.11902122 0.04370952
0.093602516 0.02969432 -0.02098032 -0.08232759 -0.12067437 -0.10952037 -0.12280123 -0.015414655

rnn.weight_hh f4 [192, 64]
00000000: 2484 31bd b4d0 cbbd f6a6 b8bd b964 383d
00000010: 9583 f33d 678a d63d 74f9 c6bd cb69 e23d
00000020: 7c95 52bd 15f3 843d cdaf 613c 8e90 153d
00000030: 34d1 333c ca84 a63d 0f79 a63d 889e 8b3d
00000040: 918a 46bd 1326 c7bd fa10 3ebd 364a 913d
00000050: 1399 f1bd 5613 c93d 00b6 6cbd 6dc8 523c
00000060: d99d 93bd 6b7f 833d b6c7 ed3d 41e6 a63d
00000070: 88b4 e3bd 15c6 2dbd 58e7 d83c f184 f43d
00000080: 907d 92bd 24b7 e7bd 3ba8 11bc 9107 dd3d
00000090: 863e a7bd dd09 e6bd e7f9 b83d e078 a83d
000000a0: f146 1cbc 7950 1ebc 9081 253d f674 5c3d
000000b0: 2593 a9bc e234 9b3d 5832 073d 8835 f83b
000000c0: 171e adbd 6baa dc3d a835 c5ba 31db a03d
000000d0: 476a ecbd e2c0 5a3d 5677 e43d 40cc 513c
000000e0: 1b97 aa3c e252 ad3d c1e0 9abc 56e5 b83b
000000f0: a554 dfbd a251 06bb 73a9 a83c 6fe2 1f3d
00000100: f0bf c83b 5cf1 64bd bce7 b83c 8878 a13d
00000110: ec72 74bd 1580 98bd 0a3a e4bd bb04 4a3d
00000120: 5a73 8fbc bdd0 b33d e552 c8bc f670 c33b
00000130: 7f14 dcbd 8680 3b3d 8505 98bb 0d73 e63d
00000140: 8b35 663d 7f30 ad3c 9d18 1e3d 46f8 7d3d
00000150: 2cea 40bc 8265 833c 96db 903b 3303 96bd
00000160: 3d41 96bd 95c8 e63c 8f60 ce3d ae5e a33d
00000170: 2a33 923d dcab 393d 88fb 8c3d 3799 23bd
00000180: 8bee 26bd c420 b23c f1b2 babc a88d f1bd
00000190: e06f 813d 9e1b 653d dffb e8bd 6746 c93d
000001a0: 4e64 12bb bd54 c9bd 0ad3 8abd 536b 863c
000001b0: 8720 b9bd fd5e ab3d c124 a43d 218e e4bd
000001c0: 68c3 f03c baaf d4bd cdbd 333d 3fcb be3d
000001d0: 9ac5 30bd e073 003e 7517 9fbd d383 523a
000001e0: e6ce 56bd 08d7 a7bd 19f3 dabc 3d8d fa3d
000001f0: 4f1c f13d 65de 863d 8d83 efbb 403a ce3d
00000200: 9a14 99bc 4259 b53c 51c7 b7bd 0468 be3d
00000210: ac3b 33bd a638 4d3b 338b abbd 8952 0fbd
00000220: 5445 a83c b00d 5bbd 91c0 d3bd 7e27 a13d
00000230: 4cf1 943d 7505 49bd 185e edbd 2eb6 27bc
00000240: 6c42 cd3d 6167 a7bd a163 08bd 9021 b13c
00000250: ea2e 6e3b b182 b8bd 613f 24bc 70de bfbd
00000260: 6ec8 ecbd 9cca f9bd 56c8 93bd 6065 c23d
00000270: 0b20 dcbd 140e efbd 012c a33c 01a1 553c
00000280: f3f3 b2bd daff bebd 0e09 fc3c dd61 f33d
00000290: ba3c 293d 8912 f63c 4e51 fdba 2a91 7abd
000002a0: 2eac 1a3d e0ce 753b c119 db3d 5f39 34bc
000002b0: e008 2dbd 3d5e c43d 75dd 67bc 3acd 0abd
000002c0: 5025 223c 9a31 ecbc b7fd a73d a7f1 703d
000002d0: 7fa0 b13d 0f4c d0bd efe1 33ba e198 bebd
000002e0: 3347 f53d 6a0b 1fbd fc31 74bd f548 74bd
000002f0: 4f9a a9bd 0ed0 033d 6373 de3d ab1f 96bd
00000300: 033d d93d 4fbf b3ba f342 5cbd 119a be3d
00000310: 28e6 cbbd eeab aa3d 5414 a83d 7cec cabd
00000320: ff82 11bd 48e7 e3bc f04b e13d e3b5 c0ba
00000330: 7818 b0bd 7b11 aabd 755b df3d 574f c53c
00000340: 3491 44bd e43a e7bd 3f98 18bd 10aa f9bd
00000350: f053 c73d bb5a 53bd a2fd 083d 5876 51bd
00000360: a2bf cabb e9d6 c6bb 8895 f13d 9a05 a5bd
00000370: 35df 3f3d 2edf 8c3d f888 263d 55f1 cc3d
00000380: 2777 51bb ab5b cb3b e0e1 943d 9a28 d4bd
00000390: b2ef a9bd a2fd 5dbc 3a3c 0fba 7cf4 b33d
000003a0: e76b 963c 871f 883d 43b6 e2bd bad0 cabc
000003b0: ba31 f53c ff84 183d 2725 c73d 6c20 96bd
000003c0: 314e 833d 73be 6dbd c9c5 df3d 7b7f 003e
000003d0: fbe7 053d dc05 ea3d 2db1 d63c b491 ecbd
000003e0: 4e65 a63d 7558 c2bc 491f 30bc b6be a5bb
000003f0: d469 a7bd 9108 b63d 18bf 9b3d 0255 693d
-0.04333891 -0.09951916 -0.0901622 0.04501793 0.11890332 0.10475617 -0.09715548 0.11055335
-0.05141209 0.06491677 0.013774824 0.03651481 0.010975171 0.08130796 0.08128559 0.06817347
-0.04847199 -0.09724059 -0.04640291 0.07094233 -0.11796775 0.09818141 -0.057790756 0.012865168
-0.072078414 0.064207874 0.116103575 0.08149386 -0.11118418 -0.042425234 0.0264775 0.11939419
-0.071528554 -0.11314228 -0.008890207 0.10792459 -0.08166222 -0.1123235 0.0903204 0.0822618
-0.009538398 -0.009662741 0.040406764 0.05382248 -0.020700047 0.07578446 0.033006996 0.007574741
-0.08453005 0.10774692 -0.0015045898 0.078543074 -0.11543708 0.053406604 0.11155574 0.012805045
0.020824006 0.08463074 -0.018906 0.0056425733 -0.109048165 -0.0020495434 0.020588612 0.039034303
0.0061263964 -0.05589424 0.022571437 0.07884318 -0.05967991 -0.07446305 -0.111438826 0.049320918
-0.017511059 0.08780048 -0.02445359 0.0059643937 -0.10746097 0.045776866 -0.00463933 0.11252413
0.056203406 0.021141289 0.03859769 0.06200435 -0.011774581 0.016039614 0.004420708 -0.07324829
-0.07336662 0.028171817 0.10077011 0.07977043 0.07138665 0.045329913 0.06883913 -0.03994104
-0.040754836 0.02174414 -0.022790404 -0.11794597 0.063201666 0.05593454 -0.113761656 0.09827881
-0.0022337618 -0.09830616 -0.06778534 0.016408598 -0.09039407 0.08367727 0.08014823 -0.111599214
0.029390052 -0.1038508 0.04388218 0.0931611 -0.043157198 0.12544203 -0.07768146 0.00080305076
-0.052443407 -0.08195311 -0.026727246 0.1223397 0.117729776 0.06585387 -0.0073093832 0.10069704
-0.018686581 0.022137288 -0.089735635 0.09297183 -0.04375808 0.0031314283 -0.083761595 -0.03499082
0.02054087 -0.05347985 -0.103394635 0.07868861 0.07272586 -0.04907747 -0.115902126 -0.010236306
0.100224346 -0.08174015 -0.03329814 0.02162245 0.003634388 -0.090093024 -0.010024876 -0.093685985
-0.115616664 -0.12196848 -0.072159454 0.09491992 -0.10748299 -0.11672607 0.019918444 0.013038875
-0.08737936 -0.093261436 0.030766036 0.118839 0.04131768 0.030038135 -0.0019326599 -0.061173595
0.03776186 0.003750734 0.106982715 -0.011000006 -0.042244792 0.09588287 -0.014151921 -0.033887126
0.009896591 -0.028832246 0.08202689 0.058824208 0.0867319 -0.10170757 -0.0006861975 -0.09306503
0.11976471 -0.038829245 -0.05961798 -0.05963989 -0.08281385 0.03218084 0.10861852 -0.07330259
0.1060734 -0.0013713631 -0.053774785 0.093067296 -0.09956008 0.08333574 0.08207002 -0.09908387
-0.03552532 -0.027820244 0.11000812 -0.0014702644 -0.08598417 -0.083041154 0.10906116 0.024085684
-0.04799004 -0.11290529 -0.03725457 -0.1219064 0.09732807 -0.0516002 0.033445008 -0.051138252
-0.006187395 -0.0060680998 0.11796099 -0.08057709 0.046843726 0.06878506 0.040657967 0.10006968
-0.003196189 0.006205996 0.07269645 -0.10359307 -0.082976714 -0.01354924 -0.00054639915 0.08786866
0.018361999 0.06646638 -0.1106992 -0.024757732 0.029930938 0.03723621 0.09723883 -0.07330403
0.06411398 -0.058042955 0.109263964 0.1254863 0.032691937 0.11426899 0.02620753 -0.11551228
0.08124791 -0.02372382 -0.010749646 -0.005058135 -0.08174482 0.08888353 0.076048076 0.056965835

rnn.bias_ih f4 [192]
00000000: 81f8 b23d 628f e6bd ea73 64ba 123e 703c
00000010: 21f2 38bd 959b 0dbd 0de7 d5bd d174 d3bc
00000020: 9ab6 933d 8ab1 1e3d 97ef 613b e79a b13d
00000030: 5be4 543c 9639 d4bd 7311 b23d 9298 f0bd
00000040: 47b0 903d 0edc ab3d 13ce 07bd c4ee eabd
00000050: 1c9b 593d 5560 d7bc 008b 84bd cabf 543d
00000060: d9e9 32bd 9df0 22bd fbdf d4bd 0a80 5ebd
00000070: 62a1 e9bd e693 e4bd 1136 3dbd e99f debc
00000080: c2fc 4fbc dd5a 4f3d e035 fd3c 25b5 8b3d
00000090: 5910 a0bd 3c56 1f3d f754 c13d c6e3 f3bd
000000a0: 4399 9a3d 8b76 b63d 20c2 e2bd 7974 94bd
000000b0: ecd6 82bd bbb9 b53d 69fd af3d 5e17 b43d
000000c0: 12ab 9b3d c656 94bd b946 113c 4411 f33d
000000d0: 9002 d83d 1c90 013d 0166 a13d 6a98 cfbd
000000e0: 325a cfbc 1519 32bd 2d40 e63d f74a cabd
000000f0: 09f6 aabc b1d3 153c 8ff3 01bc 0c42 df3d
00000100: 0746 d9bd 6508 fbbb 219b 743c 83a1 a7bd
00000110: d81b e3bd aa19 c13c aad1 00bc 6474 2e3d
00000120: 3890 afbd fd2f 9cbc 0325 ff3b 2d31 a7bd
00000130: dd1f 533d 6999 d7bb 9a6f 5ebc 411f d73d
00000140: a8b9 91bc be97 a9bd 10e4 ce3d ca0c 97bd
00000150: 99f7 e1bd 964d f6bd 4704 c03d 9157 91bd
00000160: a0e9 763c 0597 653d 32ed bd3d 88d7 393d
00000170: 2dbf bebb cc7d 003e 7eba ee3d 4fde d63d
00000180: 4c0b 67bd a30d fcbd 7170 233d b282 32bd
00000190: b9a9 ef3d 394c 1e3d 8f79 a03d 7319 0dbd
000001a0: 97a3 cc3d 022e 1c3d f712 5d3d 3818 823c
000001b0: 1982 493c b212 e03d 5bb8 e93c 81bc 603d
000001c0: fb96 a6bd 11be cfbd 2590 273d 0670 adbc
000001d0: 10c7 003d 3443 7438 099d e13d c189 98bc
000001e0: 6247 f0bd f124 3ebd fee2 27bd 2d6a 12bd
000001f0: 4c50 083c 7474 003e edd5 f8bd 0a99 95bb
00000200: 2778 93bd c883 51bd 2476 8dbd c056 173b
00000210: 854b 1e3d 7f8a 5c3d 77f6 51bd ecca 6a3d
00000220: 1c5b 873d 51b7 e8bd 5305 d43a a4f2 f7bd
00000230: 0558 a63d 5324 913c 2197 fcbc 313f bc3d
00000240: 28c7 a8bd 765b e63b f315 d8bd 1434 dfbd
00000250: 1f40 4ebd 1219 06bd 3135 5ebb efa2 ae3d
00000260: d0fe 0abd bfdb 5bbd 2c98 553b a4ab c1bd
00000270: 8e97 c73d 02af 023c bc63 203d abc7 ea3d
00000280: 2eb8 373c 892f 00be 8577 96bd cad7 bcbc
00000290: 74c4 b03d a88b 3c3d ef81 973d 24f1 9c3d
000002a0: c332 6fbd 5372 2fbd a22f df3d 4607 a63b
000002b0: c3ef eabd 4723 923d 2b00 41bd 8d5f f93c
000002c0: a890 22bd 49c8 983c 13f9 45bd 8338 613d
000002d0: 4259 b7bd e2ff 8b3d 4cc8 b13d 80b0 1a3d
000002e0: 4035 b53c c0df d9bd 28ce 3a3b 9190 3dbd
000002f0: 4be2 b13d 08a0 5f3d 831b 58bd 00f4 933d
0.087388046 -0.11257817 -0.00087147823 0.014663236 -0.045152787 -0.034572203 -0.1044446 -0.025812538
0.07212563 0.038743533 0.0034475082 0.086721234 0.012993897 -0.10362546 0.086947344 -0.117478505
0.07064872 0.083915815 -0.033155512 -0.11471322 0.05312644 -0.026291052 -0.06471825 0.051940717
-0.043680046 -0.039780248 -0.103942834 -0.054321326 -0.114077345 -0.11161022 -0.04619414 -0.02717586
-0.0126945395 0.050623763 0.030909479 0.0682166 -0.07815618 0.0389006 0.09440034 -0.11908679
0.075487636 0.08909329 -0.11072183 -0.07248778 -0.06388649 0.08873316 0.08593256 0.087935194
0.076009884 -0.07243113 0.008866959 0.118685275 0.10547364 0.031631574 0.07880784 -0.101364926
-0.025311563 -0.04348095 0.11242709 -0.0987758 -0.020869272 0.009144709 -0.007931604 0.10901269
-0.1060906 -0.007660913 0.014929564 -0.08185103 -0.11089295 0.023571808 -0.007862488 0.042591467
-0.085724294 -0.019065851 0.0077863946 -0.081636764 0.05154406 -0.006579567 -0.013576413 0.10504008
-0.017788723 -0.08280896 0.10102093 -0.07375486 -0.11033554 -0.12026517 0.09375816 -0.0709678
0.015070349 0.056052227 0.09273757 0.045371562 -0.00582113 0.12547988 0.11656664 0.10491621
-0.056407258 -0.123072885 0.039902154 -0.043581672 0.11702294 0.03864691 0.078356855 -0.0344481
0.0999214 0.038129814 0.053973164 0.015880689 0.012299084 0.10941066 0.02853029 0.05486727
-0.08134266 -0.10143674 0.04090895 -0.021171581 0.03143984 5.823672e-05 0.1101628 -0.018620374
-0.11732365 -0.04642195 -0.04098796 -0.03574579 0.0083199255 0.12544423 -0.12150178 -0.004565363
-0.072006516 -0.051151067 -0.06907299 0.0023092479 0.03864624 0.053843018 -0.051260438 0.057322428
0.066091746 -0.1136309 0.0016175903 -0.12106827 0.08122257 0.017717516 -0.030833783 0.0919174
-0.08241111 0.007029946 -0.105510615 -0.10898605 -0.05035412 -0.032738753 -0.0033906216 0.08527171
-0.033934414 -0.053676363 0.0032591922 -0.09456566 0.09745704 0.007976295 0.039157614 0.11463865
0.011213345 -0.12518133 -0.07347015 -0.023052115 0.086312205 0.046031624 0.0739783 0.076631814
-0.05839802 -0.042833637 0.10897757 0.005066785 -0.11471512 0.07135635 -0.0471193 0.03044107
-0.039688736 0.01865019 -0.04833324 0.054985534 -0.089525715 0.06835915 0.08680782 0.03776598
0.022120118 -0.1063838 0.0028504226 -0.046280447 0.0868574 0.054595977 -0.052760612 0.07224274

rnn.bias_hh f4 [192]
00000000: 86bd 89bc 01c3 ce3c d0f5 763d f8ac f13d
00000010: 8e01 9b3d 7c5e 84bd 1bcd d73d a00d aebd
00000020: b8f8 53bd 8323 873d c361 953c 3b10 8f3d
00000030: 610e e23d 0412 cd3d 5c3c e6bc 8a37 f8bd
00000040: a115 9b3d 332e 77bc 4995 f0bd 4ffd 083b
00000050: 2349 e4bb 513b b73d 8ebe d2bd a823 4bbc
00000060: d289 bc3d 8a0b b23d 5f04 1bbd df54 f8bd
00000070: a753 933c dd71 5a3d 9def efbd fbf5 8d3b
00000080: 4272 c93d 699c 033d ee89 bfbd 010d 8c3d
00000090: 52b7 0abd 08e8 e2bc 94ad c2bc f472 e93d
000000a0: 057f b13d ef74 8ebd cc55 be3d cd89 743d
000000b0: b131 d73c 15c8 753d a9ba 88bd 8971 553d
000000c0: dcbb bf3d dc3a debb 1364 b4bd 6476 a43d
000000d0: e867 2d3d 21ee 6dbc 9f0b c83d 16d3 e13d
000000e0: 9e70 bd3d 488f fcbd db28 f9bd a3ed eebc
000000f0: e076 0a3d 581c aa3d d06e 8f3d 577f ec3c
00000100: 1624 7b3d 7314 373d f0ab 533d 01db 8c3d
00000110: b0a9 e23d b8c9 c93d a730 aabd 3860 2b3d
00000120: 8651 153b cfdd f63d b65a b8bd 23f8 80bd
00000130: 6f34 73bd bb50 c0bd 09f7 e03d 23de e9bd
00000140: 7a2d 9abd 368b d03d a76d 51bd 8793 f4bc
00000150: 73b1 9a3d 3c81 1cbd 2e1b 36bd f322 ae3d
00000160: e8a8 953c 4134 5d3d 15fb 643d 5c92 803d
00000170: fd46 9f3c 1831 4b3d f0f9 7abd c77a 853d
00000180: 2f48 b83c 3fd1 bb3d 4f68 883d 019d dbbd
00000190: 215a 903d 0a20 f63c f79a b4bd 9b18 c63d
000001a0: add7 08bd 5e40 20bd 3da6 c6bd 7cbe 38bd
000001b0: b9f5 be3d 1a41 c33c 474c cc3d 2229 fbbd
000001c0: 0ceb 9bbc 5bc6 95bc 818d 053d 426f 8f3d
000001d0: 4865 3f3d b9bd 0e3d 64ee f1bc 9269 893d
000001e0: 73ed 0a3d b804 ca3d 97cb f73d 1788 e43c
000001f0: bedf dbbd b7a4 ca3d 6935 a53d bb22 773c
00000200: 16ed b3bd d94c 86bd ae01 22bd c518 683d
00000210: 73db c7bc e934 debd 64b3 12bc 8458 a53d
00000220: ed3d efbd 1a55 c6bc 79e5 1b3c 5b98 d4bd
00000230: 26c6 d73c 427e bb3d ec02 f1bc 3427 4b3c
00000240: c98e acba c965 e3bd 669b 6f3d ebd0 073d
00000250: 819b bfbd 1ad0 e6bd e540 babc 6a60 4d3d
00000260: f016 973c d337 82bd 75f2 333d 8aa5 403d
00000270: 6a2b c93d aa3f b4bd 7c6b e6bd c291 38bd
00000280: 5158 c3bd c1d7 43bd 5973 183d 2d6b 52bd
00000290: be21 bd3d 06a0 cb3d 3da3 28bd 61d3 a539
000002a0: 2321 953d 035e 67bd 7975 c3bd 3b41 da3d
000002b0: 9f8c 1f3d b280 fabc 594f f4bd 6f1f 953d
000002c0: 198b ebbc 8c93 9abd 3ba3 dfbb b164 02bd
000002d0: 463c 15bd e865 c73d defa 703d aaa5 d03c
000002e0: 5190 ccbd a098 adbd 2334 0cbd 90cb 9f3c
000002f0: 9ad6 743c b5bb 68bd 7e16 c8bd 1dca 84ba
-0.016814005 0.02523947 0.06029302 0.11800569 0.07568656 -0.06463334 0.10537168 -0.084986925
-0.05175087 0.0659857 0.018235093 0.069855176 0.11037899 0.10013202 -0.028104953 -0.12119968
0.07572485 -0.015086698 -0.11747224 0.0020902937 -0.0069667264 0.089468606 -0.10290252 -0.012398638
0.09205975 0.08693607 -0.037845965 -0.12125563 0.017984224 0.053331245 -0.117156245 0.0043323017
0.09836246 0.032131586 -0.0935248 0.06838418 -0.033866234 -0.027698532 -0.02376441 0.11398879
0.08666805 -0.06955897 0.09293708 0.05970173 0.026268812 0.060005266 -0.066762276 0.05211023
0.09362003 -0.006781919 -0.0880815 0.08030394 0.04233542 -0.014522106 0.097678415 0.110265896
0.09249996 -0.12332016 -0.12165996 -0.029166048 0.033804774 0.083061874 0.07003558 0.028869314
0.06131371 0.044697236 0.051677644 0.06877709 0.110675216 0.09852928 -0.08310061 0.04183981
0.0022784187 0.120540254 -0.09001677 -0.06297328 -0.059376176 -0.09390398 0.10984618 -0.11419322
-0.07528205 0.101828024 -0.051129963 -0.029855503 0.07553377 -0.038209185 -0.044459514 0.0850276
0.018269017 0.05400491 0.055903513 0.06277916 0.01944303 0.049607366 -0.061273515 0.065175585
0.022495357 0.0917077 0.0666052 -0.107233055 0.07048441 0.030044574 -0.0881862 0.09672662
-0.03340881 -0.039123885 -0.09699676 -0.045103535 0.093242116 0.023834754 0.09975486 -0.12263705
-0.019032978 -0.01828306 0.03260565 0.070036426 0.04672745 0.034848902 -0.029532619 0.06709589
0.033917855 0.09864181 0.120993786 0.027896924 -0.10736035 0.09894698 0.08066828 0.015083964
-0.08785455 -0.06557626 -0.039552383 0.056664247 -0.024396634 -0.108499356 -0.008953903 0.08073524
-0.11681733 -0.024210501 0.00951516 -0.10380622 0.026339602 0.09154941 -0.029420339 0.0123994835
-0.0013165112 -0.11103398 0.05849781 0.033158224 -0.09355832 -0.11270161 -0.022736022 0.050140776
0.018443555 -0.06358304 0.043932397 0.04703287 0.09822734 -0.088012055 -0.1125097 -0.04506088
-0.095383294 -0.04781318 0.03721938 -0.051371742 0.092349514 0.099426314 -0.0411713 0.00031628742
0.07281711 -0.05648614 -0.095438905 0.10656973 0.038952466 -0.030578945 -0.11929197 0.07281386
-0.02875285 -0.075476736 -0.0068248785 -0.031834308 -0.036434434 0.09736234 0.058832996 0.02546962
-0.09988464 -0.084763765 -0.03422941 0.019506246 0.014943743 -0.056819636 -0.09769915 -0.0010131035

fc2.weight f4 [9, 64]
00000000: 97af c2bd 119d ba3d be2f 8f3c 21fb aebd
00000010: 16d0 81bd 1b69 9ebd bc8e 26bd 9475 5bbd
00000020: 8dd0 f33c 14ea b13d bde7 133d 4f4a 96bd
00000030: fb54 a63d fe60 293d c41d bd3d 0d78 2dbd
00000040: 10d7 f4bd db3e b23c af1b 05bd 65cb 92bd
00000050: 0dc4 e3bc 3968 a3bd c840 5c3c 6d7b 2b3d
00000060: 8c58 a93d cbec e33d 52b3 fc3d ff7d 0b3d
00000070: a6c5 70bd dbca 5e3d 7095 b13d e37a 823d
00000080: 64e2 3c3d 2ca2 11bd 0e74 35bd ac67 8e3b
00000090: 379a bc3c 4d0a bebd 5f58 9a3d 2909 f6bd
000000a0: 88d0 cb3d dca1 183d f3b7 c23b 0ddf e23d
000000b0: 78db 283d a7b8 a3bd 445b febd 1317 fc3b
000000c0: 763f e3bc 43af 99bd 3f7f 4fbd 14f5 34bd
000000d0: d464 12bd 39cc 8b3c e630 843d 9ed6 c53d
000000e0: 2f42 c8bd 5837 b83c 26de f43d b3a1 93bc
000000f0: 46e1 cd3c 6482 f0bd 0aa9 b6bd 0cdf b23d
00000100: 9d25 fd3b bd62 523d b590 4cbd dddb ac3d
00000110: 5f2c 923d 3075 c5bd b8d8 8c3c be08 2cbd
00000120: eb5f d2bd 25b1 f3bd 0f65 9f3d bb55 e2bd
00000130: cbe0 363c 7068 ba3d 58b6 1dbd b00e ba3d
00000140: 5bab b9bd f712 873d 8ddd dd3d b064 debb
00000150: 2c32 9b3d b9fd 8cbd 1b0c 90bd a21e 67bd
00000160: 99b5 563d 3ff3 003e 6faf f5bb 5f6a 1cbd
00000170: f474 4abd 767d 3f3c 7a21 443d 5450 c83b
00000180: a906 bbbd 1265 1fbd f00f e5bc d81e 893d
00000190: a6a5 c1bd def6 2abc bf1b aabc 78ae 09bd
000001a0: 10c1 b73d a2ee f23b 6f98 ac3d 86b9 2abc
000001b0: 935d f9bd 7e72 2f3d d610 683d 444e 74bc
000001c0: c6a7 09bd f9e6 f9bd 6d58 e33d c17b 9a3d
000001d0: 634b ee3d 1a16 93bd cb84 20bd 1d30 763d
000001e0: 1e8e 03bd b9dd 913d 658d e5bd 846a 933d
000001f0: b459 b43d 0763 edbd 47b0 90bd 3cde 31bd
00000200: 7062 5b3d 39d9 dc3d e863 863d a27f 3f3d
00000210: ecbb 923d c52d 9abd 7f0d b83d 56b0 85bd
00000220: b0e7 71bd f4e6 3c3d 280c 733d 3ee8 abbd
00000230: f409 873d 2420 cb3d eaa1 06bd 45a2 f3bd
00000240: 7783 bc3d c781 2cbc 6c78 a53d a667 e43c
00000250: 2af7 f83d 93bf ddbd e7b3 763c a727 8c3d
00000260: 9601 85bc 8726 62bd e29b 203c c2e0 a53d
00000270: 8eca e0bd 38c6 fabd d759 1a3d 9d6c 223d
00000280: 1661 97bd 17d6 e0bd 629e f53d aeb5 973c
00000290: a244 d83d e3ed a9bd 7116 f83d e013 ff3d
000002a0: 92b9 923d ea3e 25bd 222c dcbc ff19 c93d
000002b0: fbd7 83bc aa27 b03d 63f4 633d 0adb 953d
000002c0: 2c4f 87bd bfe4 923d b085 d23c 1173 e13c
000002d0: fc6c e23d d72d d53c d5b8 ae3c 9df7 73bd
000002e0: 2e04 813d 45a2 25bd 32e3 cb3d 0341 bd3d
000002f0: 05ce fb3c dffc 9f3d 7652 d63d affb a1bd
00000300: 6ee3 373d 2eee bbbd 9d26 0dbd 318b b2bd
00000310: 5d62 df3d aaf0 043c 98ea e1bd 9ccd 46bd
00000320: fc2e eb3d 8197 8abc 53ff 0cbc 6a23 bb3d
00000330: 69a0 8b3d 3280 bebc ecf3 97bc 552a 69bd
00000340: cb98 e1bd 77f2 c3bd 887e d1bd b62e d8bd
00000350: b833 e03c f959 37bd d49d 0d3d 564e 003e
00000360: fac9 7a3c ac2d e2bc c4d9 fd3d 5cdc cd3d
00000370: 1194 1ebd 1c17 20bd f072 3fbd 512e 7ebb
00000380: 3a84 e2bd 9ed4 a5bc c0c5 ee3d d6ba fbbc
00000390: 7608 813c cb8d 743d 2ed0 a7bd 37de 08bd
000003a0: 2a48 963d bb22 d3bd da92 a03a 72b2 073d
000003b0: 49a0 b6bd cb88 443d a427 793d b90d 453d
000003c0: 987f 433d 08fc 6abc f78d 103d fca2 7c3c
000003d0: ff9b 33bd 4d11 fb3d 0770 e33d 4b9d f7bc
000003e0: aa77 fa3d b432 9ebd 4f44 79bd d097 a33d
000003f0: 44a5 d2bb 1a58 b43d 322c e43c e5d6 cc3d
-0.09506147 0.09111989 0.01747882 -0.08543993 -0.06338517 -0.07734891 -0.040663466 -0.053578928
0.02976253 0.08687225 0.036109675 -0.07338392 0.081216775 0.041352265 0.09234193 -0.042350817
-0.119550824 0.021758487 -0.032497104 -0.07167701 -0.027803445 -0.07978863 0.013443179 0.041865755
0.08268842 0.11129149 0.1233889 0.034055706 -0.058782242 0.054392677 0.08671081 0.06371095
0.04611434 -0.03555505 -0.04430013 0.0043458547 0.023022754 -0.092793085 0.07536387 -0.12013466
0.099518836 0.037263736 0.0059423386 0.110777 0.041224927 -0.07994204 -0.12419751 0.0076931803
-0.027740221 -0.07504132 -0.05065846 -0.044179037 -0.03574069 0.017065154 0.06454639 0.096600756
-0.097782485 0.022487327 0.11956434 -0.01802144 0.025131833 -0.1174362 -0.089189604 0.08733949
0.007725431 0.051363695 -0.04994269 0.08440373 0.07137369 -0.09641492 0.017193183 -0.042000525
-0.10272201 -0.11899022 0.07782947 -0.11051508 0.011161993 0.09101951 -0.038503975 0.09084833
-0.090658866 0.06595414 0.10833273 -0.006786905 0.07577929 -0.06884331 -0.07033559 -0.056425698
0.05241928 0.12592791 -0.00749772 -0.03818738 -0.04942794 0.011687627 0.04788349 0.0061130915
-0.0913213 -0.038914748 -0.027961701 0.06695336 -0.09455423 -0.010434834 -0.020765183 -0.033613652
0.089723706 0.007413701 0.08427512 -0.010420209 -0.12176051 0.042833798 0.05665668 -0.014911238
-0.033607267 -0.12202258 0.1110085 0.075431354 0.116354726 -0.0718195 -0.03918914 0.06010448
-0.032117955 0.07122368 -0.112086095 0.071980506 0.08806172 -0.115911536 -0.07064872 -0.04342483
0.053560674 0.107836194 0.06562024 0.04675258 0.071647495 -0.07528261 0.08986949 -0.06527774
-0.059058845 0.04611869 0.059337765 -0.08393906 0.06593695 0.0991824 -0.032869257 -0.11896185
0.092047624 -0.010528988 0.08079609 0.027881455 0.12156518 -0.108275555 0.0150575405 0.068435006
-0.016236108 -0.055212524 0.00980279 0.0809951 -0.10976134 -0.122448385 0.037683334 0.039654363
-0.073915645 -0.109783344 0.119931 0.018519249 0.10559966 -0.082973264 0.12113655 0.12454963
0.07164301 -0.040343203 -0.026876513 0.098194115 -0.016094198 0.08601315 0.055652987 0.07317169
-0.06606898 0.07172536 0.025698513 0.027520688 0.11055943 0.026022835 0.02132837 -0.059562314
0.06299625 -0.040437955 0.099554434 0.092409156 0.030737886 0.07811903 0.10464947 -0.07909333
0.04489463 -0.091762885 -0.034460653 -0.08717955 0.10907433 0.008114019 -0.11031073 -0.048535928
0.11483571 -0.016917946 -0.008605796 0.09137614 0.06817705 -0.023254488 -0.018548928 -0.056925137
-0.11015471 -0.09567731 -0.10229212 -0.105557844 0.027368411 -0.04476354 0.034574345 0.12529883
0.015306944 -0.027609669 0.12395051 0.10051796 -0.038715426 -0.03908454 -0.046740472 -0.003878493
-0.110603765 -0.020242985 0.116588116 -0.030728739 0.015751105 0.059705537 -0.08194004 -0.033415046
0.07337983 -0.10309359 0.0012250796 0.033129163 -0.08917291 0.04798202 0.06082882 0.04810879
0.047729105 -0.0143423155 0.03529164 0.015419718 -0.04384994 0.12259159 0.11105352 -0.03022637
0.12229855 -0.077245146 -0.06085616 0.0798794 -0.0064283926 0.088058665 0.027853105 0.100019254

fc2.bias f4 [9]
00000000: 9bba 8cbd ebdc 443d 7729 363d e7df bebc
00000010: 2d0e c1bd 814c f4bd 3c25 56bc 1551 87bd
00000020: 0f96 b33d
-0.0687153 0.048062246 0.044473138 -0.023300124 -0.09426532 -0.119286545 -0.013070401 -0.06607262
0.08768856
