model/coma/5m_vs_6m/0_critic_params.pkl (torch, 216855 bytes, 6 tensors)

fc1.weight f4 [128, 278]
00000000: f85f 5cbd 4c14 f3bc 035a 46bd ee9e 8fbc
00000010: 1613 cdbc 33a6 dabc a6f5 443d 8747 243d
00000020: 662a 573d 1ce6 08bd e60d 6d3c 5c04 b03a
00000030: fc04 2dbb 3537 38bd 2ec3 593d 373e fe3c
00000040: 5fc7 883c b94a 893c ae8a 51bc 479b 60bd
00000050: 1f9f d53c 2869 583d f049 a43c b125 9abb
00000060: 1ca5 35bc 62f0 08bc 7292 1ebd 2227 633d
00000070: f8ce 6dbd 92e3 b13b bef4 69bc 7569 3bbc
00000080: 7207 223d a49d 1cba b4a1 493c 867a 53bc
00000090: 56a2 023d d0d6 f33b ca85 263d cf6c 3f3d
000000a0: f80b edbc c53d 23bd 4a00 f63c 34f3 5a3d
000000b0: b84d f53b de25 02bd f197 4e3d ba2d 93bc
000000c0: 0568 6f3d eac5 5bbd 9865 c53a ed91 35bd
000000d0: 4258 e63c 549f 2b3d fd50 673d 58fa 8c3b
000000e0: 20b2 9d38 288b 60bd 1e35 b0bc f29e 99bc
000000f0: a040 063b 8419 5a3c 60bc a9bb 9fc8 a8bc
00000100: e213 5c3d dd1f 15bd bc43 8b3b e971 f0bc
00000110: 020e d83c 8581 4a3d 8aea ce3c 0211 22bd
00000120: 11a9 623c 6895 6bbd 0f50 5b3d f826 a93c
00000130: 463f e4bc f0c7 0b3d 3e29 c0bc 3821 abba
00000140: 9c1e 263c 3200 3abd c133 183d 01da 5dbd
00000150: b6ff 5fbd 2af1 02bd 6c3c 2d3d 15b6 343d
00000160: 4ceb cb3c a7cd 10bd d81e 2e3d 31c4 703d
00000170: e85d 653c 142d 68bc 6001 a23a eb60 46bd
00000180: e3fb 683d 8c28 b3bc ec2d 6f3a c4c7 773c
00000190: c1cd a5bc 758c 813c 04fc 3abd 148d 22bd
000001a0: 1588 bd3c 09e8 2ebd 03a0 d73b 40fd 81bc
000001b0: c787 ff3c 4cf0 693c fe76 cfbc 15e5 8bbc
000001c0: 72de 3a3d 5dd7 4c3d d1cc 11bd 1184 543c
000001d0: 8cba 583d e35e aebc d2c7 243d ee9c 173d
000001e0: 565e 9fbc 8938 94bc 1bad 103d 4c17 70bd
000001f0: 2cb2 91bc 0e8a c5bc 1cf3 74bc ff2e 193d
00000200: 6a0d a3bc 2805 48bd a972 873c 2ccf bb3c
00000210: d69a a33c acc0 2bbd 5ca8 793a fba7 cb3c
00000220: 3b1b 123d c2ab 0bbd de19 84bc 43fa 863c
00000230: 0f1f eeba d0bd 3b3d a496 5fbc c380 2dbd
00000240: 2ac2 24bd f10a 3a3d 6268 dfbc 0a08 68bc
00000250: d083 033d 05c6 a53c f43e d63c 7216 0f3d
00000260: b6b4 323d b11f 25bd 399a 4c3d d8ae 08bd
00000270: 7ee0 373d a132 663d 5e73 ceba 2465 e3bc
00000280: 5805 27bc ba50 d93c 5bb1 6bbd f5b1 36bd
00000290: 4c94 01bd 3a1e cb3c 7404 79bc e4a2 b0bc
000002a0: 922e e1bc 8eb7 4bbd 90f1 e3bc 0c5e 4c3c
000002b0: cb26 1abd 62fc fb3c 7255 b0bc d88d df3b
000002c0: 641b 4fbc 4223 24bd 541a 303d b4ce 6fbd
000002d0: 4e32 193c 25d0 febc aafb 273d 93d3 6ebd
000002e0: ec14 333c d834 a53b 7408 3d3c 2321 42bd
000002f0: 009e 8dbb 3c2a 313c d6b5 3c3d 2362 473d
00000300: e8cc be3c 7386 403d 724b ed3c 83cf 3f3d
00000310: 805e 26bc 9733 6c3d f64f 68bd 83b4 adbc
00000320: 52d2 e43c 20c8 db3c 16f4 b03b c6d6 483d
00000330: 2712 57bd 5de1 ecbb f912 393d 5485 b63c
00000340: e0ed 47bb 10ba 0a3b ccfe 193d df03 6e3d
00000350: f49a 203c 86be 61bc 4680 c13b f4bf ddbc
00000360: 7cad cb3c 3808 9bbc f0a9 d2bc b3bc 3f3d
00000370: 9864 2dbd c2bb c53c a452 7abc 85a3 573d
00000380: 228e e6bc ebc9 333d 3351 2cbd 50fe 8fbc
00000390: 2725 d7bc a05f 5b3d 4b8c 00bd 5d80 64bd
000003a0: f530 233d 751b 123d f0a6 f5bb 1847 e33b
000003b0: e9d9 093d d265 14bd 24a1 de3a 1bd3 9abc
000003c0: d93c 56bc db26 073d 4e08 96bc 94f4 483c
000003d0: b964 71bd e022 07bd f077 393d c893 92bc
000003e0: e832 a2bc bfff 65bd 3ade 49bd eb17 35bd
000003f0: 3f15 763d 9503 c1bc 1cdf 4c3c 506a 1fbc
-0.05380246 -0.029672764 -0.048425686 -0.017531838 -0.025033515 -0.026690578 0.04808583 0.040107276
0.05253067 -0.033422574 0.014468646 0.0013429034 -0.0026400676 -0.044974525 0.053164653 0.031035526
0.01669663 0.016759263 -0.0127894115 -0.054835584 0.026076851 0.05283466 0.020054787 -0.0047042
-0.011086728 -0.008358093 -0.03871388 0.05545724 -0.05805871 0.00542874 -0.0142795425 -0.011438717
0.03955788 -0.0005974418 0.012306619 -0.01290763 0.031893097 0.007441379 0.040654935 0.046734627
-0.028936371 -0.03985383 0.030029435 0.053454593 0.0074860714 -0.031774394 0.05043787 -0.01796614
0.05844881 -0.053655542 0.0015060185 -0.04432862 0.028118256 0.041899994 0.05647372 0.0043023042
7.519522e-05 -0.05482021 -0.021509703 -0.018752549 0.0020485297 0.013311747 -0.0051799268 -0.020603476
0.0537299 -0.03640734 0.004250018 -0.029351192 0.026373867 0.049439926 0.025258321 -0.039567
0.013834254 -0.05751553 0.053543147 0.020648465 -0.027862202 0.034126222 -0.023457166 -0.0013056165
0.010139134 -0.045410343 0.03715873 -0.054162983 -0.054687224 -0.031968273 0.04229395 0.04411896
0.024892472 -0.035352375 0.042509884 0.058780853 0.01399944 -0.014170904 0.0012360029 -0.048432272
0.056880843 -0.02186992 0.00091239694 0.015123311 -0.020239713 0.015814045 -0.045650497 -0.039685324
0.023136178 -0.042701755 0.006580354 -0.01586783 0.031192673 0.014278483 -0.025325295 -0.017077008
0.045622297 0.050010074 -0.03559572 0.01297094 0.05291228 -0.02128548 0.040229626 0.037014894
-0.019454163 -0.018093364 0.035321336 -0.058615968 -0.017785154 -0.024113681 -0.01495054 0.037398335
-0.019903857 -0.048833042 0.016534166 0.022925936 0.019971292 -0.041931793 0.00095236837 0.024860373
0.0356705 -0.034099348 -0.016125616 0.016476756 -0.0018167215 0.045835316 -0.013646755 -0.042359125
-0.04022423 0.04542059 -0.027271453 -0.014162073 0.032108128 0.020236025 0.026153065 0.034933515
0.04362937 -0.040313426 0.049951766 -0.03336987 0.044891827 0.056200627 -0.0015750935 -0.027758189
-0.010194145 0.026527751 -0.057542186 -0.044603307 -0.031635568 0.024794687 -0.015198816 -0.021562047
-0.027488027 -0.0497356 -0.027825147 0.012473594 -0.037634652 0.030759994 -0.021525118 0.006822329
-0.012640808 -0.040072687 0.04299386 -0.058546737 0.0093503725 -0.03110511 0.04101149 -0.05830724
0.010930281 0.0050417 0.01153766 -0.047394883 -0.0043218136 0.010813292 0.04607185 0.048677575
0.023291066 0.04700322 0.02896664 0.046828758 -0.0101543665 0.057666387 -0.05671688 -0.021204239
0.02793232 0.026828825 0.005400191 0.04903295 -0.052507546 -0.007229014 0.04518411 0.022280373
-0.0030506775 0.002116803 0.03759651 0.05810916 0.009802569 -0.0137783345 0.005905184 -0.02706907
0.024862997 -0.018924817 -0.025715798 0.046810817 -0.04233226 0.024137381 -0.015278492 0.05264618
-0.028143946 0.043893736 -0.042069625 -0.01757732 -0.026262833 0.053557992 -0.031383794 -0.05578648
0.03984161 0.035670716 -0.007496707 0.0069359653 0.03365508 -0.036229916 0.001698528 -0.018899491
-0.013076031 0.03299604 -0.018314507 0.012265343 -0.058933947 -0.032992244 0.045280397 -0.017892733
-0.019799665 -0.0561521 -0.049284197 -0.044212263 0.060078856 -0.023561278 0.012504365 -0.009729937

fc1.bias f4 [128]
00000000: 315c 033d 72f7 cc3c 23d2 5a3d f371 6ebd
00000010: 56cf a0bc 2c65 c4bc 4727 6a3d 3489 7fbc
00000020: 062b 203d e538 d3bc 5459 60bd 1902 38bd
00000030: 2076 9fbb b7de 363d c512 723c bcc2 6e3c
00000040: 9e4c 3b3d e577 35bc d8b1 1cbd 67a4 483d
00000050: d600 aebc 2cc8 3bbb 26fc 64bc ff08 433c
00000060: 6ba8 153d 7426 1e3d a688 553d f449 95bc
00000070: 7c1a a73b 7936 703d 5621 9d3c 0e84 ce3c
00000080: 58e0 4f39 634e 0e3d c18f 883c 481d 1ebd
00000090: a9b1 be3c 4a17 60bc e94b 673c 0b63 24bc
000000a0: 0258 48bc 7b70 60bd 75b9 7fbc 5c5d 8d3c
000000b0: 9de5 0c3d 3a39 78bd 1044 7cbc efe5 ab3b
000000c0: 674d 4a3d bb90 79bd 14a6 20bd 552e b83c
000000d0: 1745 923c cf02 253d db48 47bd 276c 873b
000000e0: fb75 45bd b29a 15bc e18a 0bbd a071 5fbd
000000f0: 3279 39ba 9a66 203d 937e 343d 624f 70bd
00000100: e024 333d c3c4 223d 6da1 1a3d 62be 53bc
00000110: c98c 02bc cd79 babc 9479 053a 0d2f 64bc
00000120: 9df4 073d d65e 433d 0bb9 d2bc 8768 593d
00000130: 7e45 213d 79b8 4ebd 8167 4fbd 147a 493c
00000140: 0f1f b8bc 9be6 b6bc d602 c43b a91c a3bc
00000150: 6ead 0cbd d17a 2a3d be4b b43b c8e3 12bd
00000160: 1cf1 043d a50b 9e3c 6e1a 483c e3a0 583d
00000170: 533b 073d f7c3 563b 55d3 8c3b 61f1 5ebd
00000180: bcfb cb3b 0dcc 533d 56ed ed3c 02b7 393d
00000190: f284 30bd ea60 073d fd2b 27bc 4fb9 fcba
000001a0: 55be 3d3d cfb8 3b3d 2f54 a9bc 2833 76bd
000001b0: 9e9f 1b3d ebc1 443d 62a2 22bd 8c00 6a3c
000001c0: 2a8a cfbc b11b 753c 497f 093d 9a30 253c
000001d0: 69b6 483c 59c6 903c 3087 f0bc 1999 79bd
000001e0: 0cc7 01bd fc9b 6d3d 700e 213d 0f9b 3f3d
000001f0: 3262 20bd b851 d0bc 6ca3 e6bc 078e 093d
0.032070342 0.025020335 0.05342306 -0.05821414 -0.019630115 -0.023974024 0.057166364 -0.015596677
0.03910353 -0.025783965 -0.05477269 -0.044923875 -0.0048663765 0.04464599 0.014774983 0.0145727955
0.045727365 -0.011075948 -0.038255543 0.04898491 -0.021240633 -0.0028653247 -0.0139761325 0.011904
0.03653757 0.03861089 0.05213227 -0.01822374 0.0050995927 0.0586457 0.019180935 0.025209453
0.00019824633 0.034742724 0.01667011 -0.038602144 0.023278074 -0.013677428 0.0141172195 -0.010033379
-0.012228014 -0.05479477 -0.015608181 0.017256431 0.034398664 -0.06060145 -0.015397087 0.005245916
0.049390223 -0.06092904 -0.039220884 0.02248303 0.01785521 0.04028588 -0.048653465 0.004132766
-0.048208218 -0.0091311205 -0.034067992 -0.05455172 -0.00070752495 0.03916035 0.044066023 -0.058669455
0.04373634 0.039738428 0.037751604 -0.012923809 -0.007968136 -0.022763157 0.0005091664 -0.013927233
0.033192266 0.047697864 -0.025723001 0.0530782 0.039372914 -0.050468896 -0.05063582 0.012297172
-0.022475747 -0.022326758 0.0059817834 -0.019911127 -0.034345083 0.041621033 0.0055021932 -0.03586176
0.032456502 0.019292662 0.012213333 0.05288781 0.03301556 0.0032770613 0.0042976537 -0.054429416
0.0062250774 0.05170827 0.029043835 0.045340545 -0.043095537 0.03305141 -0.010203359 -0.00192813
0.046324093 0.045830544 -0.020670025 -0.06010738 0.03799402 0.048036497 -0.03970564 0.014282357
-0.025334436 0.014960215 0.033568654 0.010082388 0.012250521 0.017672705 -0.029361337 -0.06093702
-0.031683967 0.058010086 0.03932041 0.046778735 -0.039156146 -0.025429592 -0.028154097 0.033582713

fc2.weight f4 [128, 128]
00000000: a4b5 f93c cebf 993d 772a 34bd a0c8 98bd
00000010: 22e4 8a3d 7521 a9bd 9ec7 be3c 3d98 94bd
00000020: 1402 9a3d 0e57 8fbd 69d7 b4bd a8d2 aebc
00000030: 78ee 9b3c ff36 273d d5dd ca3a 3bf6 f3bb
00000040: 50e5 d8bc 3df1 453d ef47 83bd 45be 14bd
00000050: 99df e13c 6fed 533d b4ba 81bd 6de7 18bd
00000060: 9354 afbc 2151 a7bd 432e d33c 44ff bfbc
00000070: 560c 3bbd ed3c 703c 9c8c 77bd fbb0 ec3b
00000080: 9870 8b3d d702 613d 233b 803d 4df3 f43c
00000090: a36f 3dbd 9f96 cf3c 740b 10bd 15d9 c63c
000000a0: c7d7 963d ebb9 8cbd 0e36 03bd 61d1 68bd
000000b0: be37 0d3d 5074 97bd c801 26bc 071a 9ebd
000000c0: 8ca0 d93b 77a8 403d 8e82 35bd 9cec 893d
000000d0: 90a0 aebd b19c 26bd 36fa f1bc 59ad 183d
000000e0: 9659 62bb af0f a23c 8f27 733d 383a 303c
000000f0: 5380 a2bc f638 a6bc b1c8 58bd e084 b0bb
00000100: 7b96 483d d6a8 72bd 80d6 51bc 034b 67bd
00000110: 8209 9ebd 531a 963d 2478 953d 1771 a1bb
00000120: 7f33 a8bd f935 883b d22a 88bd aca6 3fbd
00000130: 4c2d f6bc abd5 a33d 7080 3fbd 31d4 95bd
00000140: 0e1e 303d b045 153c 4121 af3b 487e 163d
00000150: f464 b0bd b9d2 533d 4f07 a1bd bb6e d5bc
00000160: 68ea 9ebd 389b 3b3b bc57 7c3c ccbc 90bd
00000170: 4972 403d ea17 63bd 26ba cbbc f95b 4fbc
00000180: 99e5 6a3d 9bad e8bc 097a eabb 3864 e2bc
00000190: a46e 69bd f456 b1bd 27c8 fc3c 9b1d 3c3b
000001a0: bf40 a33d 56f3 5fbd fa23 a63d cab6 8bbd
000001b0: 4e14 b1bd 239e 863c 59b0 72bb afe4 4fbd
000001c0: 575a 84bd 9c3c 6cbb 8856 3b3c 7359 a93c
000001d0: 6d10 aabc 2706 a03d ed16 653d 39b4 883d
000001e0: 12ff 67bc e785 aa3d d871 3bbd 2378 65bd
000001f0: 0a3b ae3c 2834 643d 135e ab3d d006 c73c
00000200: 208c d7bc 20d6 553d def4 b33d 06ed 5c3c
00000210: 323d e5bc 7be0 993d 7215 2dbd 6a20 b2bc
00000220: 2265 7b3c 4c4e f3bc 9d86 63bd 2e44 06bc
00000230: 346e f33c d1c1 163d d401 8dbd b978 6d3d
00000240: 5850 523d 8a20 3b3d ae73 3e3d b10a 32bd
00000250: efda 64bd 61b5 a8bd 6bbc 85bd aa37 493d
00000260: 19af 753d 0c4e 9dbd 6267 4bbd f3a5 f5bc
00000270: d362 7a3d 37f0 ab3d d973 97bd b0a3 823d
00000280: 24fe bcba abd3 d63c 729f 803d 0917 58bd
00000290: 93f0 a1bd bcd1 6abc db02 31bc 4042 e4bc
000002a0: f4db 89bd f2f3 47bd 52f4 2cbd b893 68bd
000002b0: 1b81 993d a970 8bbd c54b 04bd 5d5a a3bd
000002c0: df0e 6d3d 692f cb3c 8cd2 89bd 0b47 6e3d
000002d0: c974 8dbd 01ad 70bd 5994 833d f7ef 6cbd
000002e0: 8896 1e3c a795 a4bd d899 5139 eb8f 453d
000002f0: 7860 35bd b4de 0ebd e580 3cbc 6b69 0f3c
00000300: ff89 30bc 7cc8 983c c890 8b3d 6228 34bd
00000310: 080a 213d fe64 a1bd 06c3 85bc 43e9 a5bd
00000320: 307a eebc 7f96 693d b13e 33bd 8687 58bd
00000330: 4c03 4e3d 2e36 90bd b409 76bd 1521 873d
00000340: 9e3f 75bd 139b 66bc bd74 763c 581d 59bd
00000350: b8e2 373c f794 9e3d 065f 963d 84c4 053d
00000360: 211f 9ebd d312 483d cf40 9b3c 59c5 32bd
00000370: cf62 f53c 467a 3f3d 4d01 53bd c755 a93d
00000380: 57ef 86bd f828 4a3d c2d8 2a3d a9ee 9a3d
00000390: b7c8 8fbd 17ad b23d 746c a4bd f323 78bc
000003a0: 33bb ae3d 4342 84bd c3d2 973d 240d 733a
000003b0: c72e 6cbc cb5d 623d 1698 0abd e300 893d
000003c0: 26fc 6a3d e81f 8f3d 6843 153d 18d9 403d
000003d0: 6b10 d5bc bc5a 99bd ca62 a83d ea70 533d
000003e0: 5bb3 7f3c 32ab 8b3b b59e 69bd c14c 1f3d
000003f0: 75a3 54bd 4822 16bd 839c 99bc 4b01 c53c
0.03048212 0.07507287 -0.04398581 -0.07460141 0.06781794 -0.082583345 0.023288544 -0.072556
0.075199276 -0.06999026 -0.08830149 -0.021340683 0.01903461 0.040823933 0.0015477488 -0.0074451244
-0.026476532 0.048325766 -0.064102046 -0.036314268 0.02757244 0.051740106 -0.06334439 -0.03733008
-0.021402633 -0.08169771 0.025778895 -0.02343715 -0.04566606 0.014662963 -0.06043683 0.007223246
0.06808585 0.05493435 0.062612794 0.029901171 -0.046249043 0.025340376 -0.035167173 0.024273435
0.07365375 -0.068713985 -0.032033972 -0.056840304 0.034476988 -0.07395232 -0.010132261 -0.07719808
0.006641453 0.04703566 -0.04431396 0.06734583 -0.085267186 -0.040676776 -0.029538255 0.037274692
-0.003453826 0.01978287 0.059363898 0.010756068 -0.01983658 -0.020290833 -0.05292577 -0.0053869337
0.048971634 -0.059243046 -0.012807488 -0.05646802 -0.07716657 0.0732924 0.07298306 -0.0049268114
-0.08212947 0.0041568247 -0.06648792 -0.04678981 -0.030050896 0.07999738 -0.046753347 -0.07315863
0.042997412 0.009110853 0.0053445403 0.036741525 -0.08613005 0.051714633 -0.07862722 -0.026053777
-0.07759553 0.0028626453 0.015401777 -0.0706726 0.04698399 -0.055442728 -0.024869036 -0.012656205
0.057347868 -0.028403094 -0.007155661 -0.027635679 -0.05699028 -0.08659163 0.030857159 0.002870417
0.07971334 -0.054675423 0.08112331 -0.068219736 -0.08646451 0.016432827 -0.003703138 -0.0507552
-0.064625435 -0.0036046868 0.011434205 0.020672536 -0.020759786 0.078136735 0.055930067 0.06675
-0.014159935 0.08326321 -0.045762867 -0.056022774 0.021268386 0.055713803 0.083675526 0.02429524
-0.026311934 0.05220616 0.08786939 0.013484245 -0.027983282 0.075135194 -0.04225678 -0.021743972
0.015343936 -0.02970042 -0.0555483 -0.008194966 0.029715635 0.03680593 -0.06885114 0.05797646
0.051346153 0.04568533 0.04649704 -0.043467227 -0.055872854 -0.0823772 -0.065300785 0.04912535
0.05998144 -0.07680902 -0.04965914 -0.029986357 0.061129402 0.08395427 -0.07395143 0.06378877
-0.0014419002 0.026223978 0.06280412 -0.052756343 -0.07907214 -0.014332231 -0.010803903 -0.027863622
-0.06731406 -0.04881663 -0.04222519 -0.0567815 0.07495328 -0.068085976 -0.032298822 -0.0797622
0.05787551 0.02480288 -0.06729612 0.05817322 -0.069070406 -0.05875874 0.064247794 -0.057846036
0.009679444 -0.080363564 0.00019989104 0.048232954 -0.044281453 -0.034880355 -0.01150534 0.008753161
-0.010775088 0.018650286 0.06814724 -0.043983825 0.039316207 -0.07880591 -0.016328346 -0.08101132
-0.029110998 0.05702829 -0.04376096 -0.05286362 0.050296113 -0.07041584 -0.060067847 0.06598107
-0.059875123 -0.0140750585 0.015042481 -0.0530065 0.011223488 0.077432565 0.07342343 0.032658115
-0.07720781 0.048846077 0.018951802 -0.043645237 0.029954342 0.04674747 -0.051514912 0.08268314
-0.06588619 0.049355477 0.041710623 0.07565052 -0.07020705 0.087244205 -0.08028498 -0.01514529
0.08531799 -0.06457951 0.074132465 0.00092716725 -0.014415449 0.05526523 -0.033836447 0.06689622
0.057369374 0.069885075 0.036441237 0.047082037 -0.026008805 -0.07488009 0.082219675 0.051621355
0.0156067265 0.0042623514 -0.05703612 0.038891558 -0.051913697 -0.036653787 -0.018751388 0.024048468

fc2.bias f4 [128]
00000000: abfe 933d 3b61 973d 79d5 1b3c 2326 e5bc
00000010: 8471 933d ae4d eebc f9eb a43c 7eb1 193c
00000020: 32a0 d8bb 2efc a43d e26a 4b3d ae90 b2bd
00000030: 126c 66bd eba2 14bd 6335 9dbc 8d5e 65bd
00000040: 6e7b 3c3d c335 fc3a 02da 153d 46a3 dabb
00000050: d1c9 393d f3c9 383d 8c2d 8b3d 12f1 ee3c
00000060: 8335 9f3c 574b d1bc 577f 9e3d 3068 30bd
00000070: 80b9 68bd 3ad6 4bbd b089 19bc b9b7 9f3d
00000080: 1593 05bd 07b7 4b3c ecc1 bf3c 7ec4 1dbd
00000090: 99b6 24bd b459 b4bd 6be4 95bd 2898 d6bc
000000a0: 0783 13bd 5acd 8bbd b283 b2bd aaf7 323d
000000b0: 9d5b b9bc e609 0e3d e9ad d4bc 4197 9e3d
000000c0: aeb2 463d 15ac 4bbd 439d a03d 7d70 133c
000000d0: 2ef3 6ebd 1e4f ab3d 86e0 9cbd 2f1d b2ba
000000e0: 9c04 32bd 55c8 833d 9626 a0bd d7fa b63c
000000f0: 6897 143d cb96 1d3d d585 a8bd fbec a7bc
00000100: 9763 1cbd 95cf 623c 9ba5 a93d 8247 a9bd
00000110: ce67 923d b8b8 3d3d e8e6 82bd 6980 933d
00000120: ed91 99bd c8ac 91bc c567 473d afe5 a8bd
00000130: ce8b 1fbc e910 073d cd3e 41bd d067 ae3b
00000140: 662f 913c e60d 323d 3a1b 793d 625b d63c
00000150: 8856 89bd 8989 1bbd bc5a 8fbd 973a 20bd
00000160: fc8e af3d ca68 a5bd 7c1c e73c 5fdb 3fbd
00000170: 3b3d 07bd 57ba cabc bcf8 1f3c adf5 65bc
00000180: 4017 abbc 9e27 a43d 8673 18bd 4635 b33d
00000190: 803d b63d c24e 99bd 193d c8bc 65ee f83a
000001a0: a1be 9ebd 38dc d53b 00c9 8d3d f4ba afbc
000001b0: d034 8e3c d52d 96bd 793e 8f3c 19d6 893d
000001c0: 20ec 423d 790c e6bc eca7 9a3d ec75 adbd
000001d0: 6edb b03d 7af5 033d b1f0 223d 0c65 cb3b
000001e0: b45f a5bd 7096 463d 6e1c 403c 4a88 063d
000001f0: e899 e73c 13e6 573d 88c0 3abb 24d1 d9bc
0.072263084 0.07391592 0.009511345 -0.027972287 0.07199386 -0.029089775 0.020132052 0.009380696
-0.0066108936 0.08055912 0.04966248 -0.08719002 -0.056255408 -0.036288183 -0.019190496 -0.055998374
0.04601615 0.0019242096 0.03658486 -0.0066722957 0.045358483 0.04511447 0.06795797 0.029167686
0.019434696 -0.02554862 0.07739132 -0.04306811 -0.05681753 -0.04976485 -0.009371206 0.07798714
-0.03261097 0.012433774 0.023407899 -0.038517468 -0.0402132 -0.08806172 -0.07318958 -0.0261956
-0.03601363 -0.06826277 -0.08716525 0.043693222 -0.022626692 0.03467741 -0.025961833 0.07743693
0.048510246 -0.049724657 0.07842495 0.008998987 -0.058337383 0.083647 -0.07660012 -0.001358902
-0.043461427 0.06434695 -0.0781986 0.022336407 0.036277205 0.038473886 -0.082286514 -0.020498743
-0.038180914 0.013843437 0.0828354 -0.08265592 0.071487054 0.04631874 -0.06391698 0.07202227
-0.07498536 -0.017782584 0.048682947 -0.08246934 -0.009737922 0.03297511 -0.047179032 0.005322434
0.017722797 0.043470286 0.06081698 0.026166622 -0.06705958 -0.03797296 -0.06999728 -0.039118376
0.08572194 -0.080766276 0.028211825 -0.046840068 -0.03301738 -0.024747057 0.009763893 -0.014035624
-0.02088511 0.08015369 -0.037219547 0.087503955 0.08898449 -0.07485725 -0.024443196 0.0018991946
-0.07751203 0.0065264963 0.06923103 -0.02145145 0.017359167 -0.073329605 0.017485844 0.06730289
0.047588468 -0.02808212 0.0755156 -0.084697574 0.08635603 0.032216527 0.039780322 0.006207114
-0.080748945 0.048483312 0.011725528 0.03284482 0.02827163 0.05270965 -0.0028496105 -0.026588984

fc3.weight f4 [12, 128]
00000000: 8886 183c f6d8 a53d c705 57bc ba8d afbd
00000010: b082 c9bc aea0 203d 6096 58bd 89fa 7d3d
00000020: efa2 99bd 0a0a 55bd 8951 a83d a527 883d
00000030: 2faa adbd ffb8 ad3d a6b5 e8bc 687b 46bc
00000040: 4f90 04bd 46b4 25bd 0247 41bd 0e91 e2ba
00000050: 8439 a13d 6073 84bd 58cf 533d fe2f 9f3c
00000060: 6c77 e03c 398d eabc 9c2c 9c3c 88a5 933c
00000070: bbc0 a23d aba9 0fbd 3b90 fcbc 3d91 8ebd
00000080: 1003 aebd c0e5 a93d ef94 4a3d 4038 173d
00000090: 7118 c33c b368 d2bc fe2d 3b3d 2388 323d
000000a0: 422d b0bd ac7f e53c a8bc 5e3a 8da2 b63d
000000b0: 4041 7d3d a81a cf3c 71d2 16bd 190d b2bd
000000c0: c7df 8cbd 06f7 a4bd e612 ad3d 74be 92bb
000000d0: 3285 ecbc dc99 db3c 5c8d a3bd 84d0 aabd
000000e0: 6d45 6f3d c978 18bd 989b a2bd 5e92 903d
000000f0: 0cfc d63b 55e3 28bd f433 4abd 7aa7 1a3d
00000100: b3e7 b1bd e2a6 dd3c 8599 a4bd d530 7f3d
00000110: 47e8 8cbd 89f8 243d c794 973d 0914 99bd
00000120: 9420 803d e3f3 8e3d b257 a23c f4e7 c23c
00000130: 7443 463c abca e2bc 00ba b53a b417 963c
00000140: 1763 0abd 8ecc 9a3d b9c7 a53d 7145 683d
00000150: 3ec1 d6bc bd98 9cbd a575 373c 00c2 6ab9
00000160: 5ae8 083d 3afc 47bb e96d fabc 1349 8a3d
00000170: 2c89 9e3d 70b1 613d 243c 09bd c5bf 6f3d
00000180: 8979 3dbd 775e 433d a3da a73d f58e a33c
00000190: 5e22 a53d 4d29 96bd 5a42 f83a ec8a a43d
000001a0: bc4b e2bc 74e2 e33c 7c2f 933d 3a0f 11bd
000001b0: d717 47bc 7603 583d 3ea8 453d abbe 5f3d
000001c0: fb5a ec3c ef29 a03d d31f b7bc 8394 9c3d
000001d0: 0630 a2bd faab 7f3d 4b07 adbd 8232 70bd
000001e0: 037d 6bbc 6663 d5bc 377c 93bd dbd9 66bd
000001f0: ba34 573d e73d 3b3d 4a79 583d 4d45 1f3d
00000200: 1dee 20bc 030a fbbc 91e7 4cbd 5e4c 5d3d
00000210: 4d15 85bd e434 bc3c d663 4e3d fcd7 abbd
00000220: 3464 483d 9f2f 78bc ff2b 0f3d 3170 933c
00000230: b46c a53c fccd d73c e650 9bbd 5dd6 0f3d
00000240: 2ac8 b33d a81b 9e3d f69d 533c ed04 50bc
00000250: 0447 7e3d 55c0 433d cfba 23bd c5ed 913d
00000260: 8b0d 2cbd caf3 a03d 49aa 9f3b 36ae 74bc
00000270: a4a8 19bc 64ae f63b 589f afbd 0ffc 933a
00000280: b8b7 4abb 9fb3 afbd a6eb aebd 38ec a0bd
00000290: a0c7 e9bc 75e2 b0bd d4e1 983d d740 d4bc
000002a0: 8ced 8fbd badd b3bd 39f7 dabc f247 a23d
000002b0: afb7 443d d5ef 85bd 93f8 96bd e2e8 cf3c
000002c0: 4922 743d 4aca 393d 825f 353c efca b0bc
000002d0: 1eda 0d3d 5ae7 4c3d 7836 f53c d0f2 e93c
000002e0: 00cc 16bd 4582 6dbd 62bd 6d3d 6db6 e23b
000002f0: df09 91bd d581 09bd 8b93 adbc 0efc 69bc
00000300: 00f2 263a 9a05 89bd 2f09 c1bc 8bcf 17bc
00000310: 123f 9c3d db5c 643c 849d 703a 3ad0 d9bc
00000320: f025 4abd e450 873c 8826 c9bc 9aad 66bd
00000330: c34d 1a3d 583d 953d e2f6 233d b8f2 c93c
00000340: 915f 64bd dcfa 4fbd 329a 45bc 76bb a03d
00000350: b128 113d b621 56bd 6ecb 3e3b 5ef6 5f3d
00000360: 79ee 723d 8806 fb3c 6e1a 1cbd 1ea3 f5bc
00000370: fd8c 843d 39af 373d 5600 49bd 60ad 313b
00000380: defd 1a3d 7262 213c d10e 853d 5b00 2cbd
00000390: 7ea6 52bd 747d 93bc 8344 98bd c24e 81bd
000003a0: 1813 a9bc c86a 993d 9857 433d 3052 ae3d
000003b0: dcb6 fc3c d21f 4a3d 0921 a23b 76ec 033d
000003c0: 5f50 bfbc 0c45 03bc b620 1e3d b754 833d
000003d0: c097 7e3d 7131 863d 40ab 3a3c 2814 74bc
000003e0: ec00 5f3d b5e7 1abd c279 8bbc 339c 403c
000003f0: 1185 68bd 7847 d93c 0feb 5abd 8a94 873d
0.0093094185 0.08098023 -0.013123936 -0.08571954 -0.02459845 0.039215736 -0.052877784 0.062006507
-0.0750178 -0.052011527 0.082186766 0.066481866 -0.084797256 0.08482551 -0.02840693 -0.012114383
-0.032364186 -0.040455125 -0.04718686 -0.0017285661 0.07872298 -0.064673185 0.05171141 0.019432064
0.027400695 -0.028631793 0.01906424 0.018023267 0.07946917 -0.035073917 -0.030830493 -0.06961296
-0.08496678 0.082957745 0.04945844 0.03691888 0.023815366 -0.02568469 0.04569816 0.04358686
-0.08602382 0.02801498 0.000849674 0.08917723 0.061829805 0.025281265 -0.036821786 -0.086939044
-0.0687862 -0.080549285 0.0845087 -0.00447827 -0.028872106 0.026806764 -0.079859465 -0.083405524
0.05841582 -0.037224565 -0.079398334 0.07059167 0.006560808 -0.041232426 -0.049365953 0.037757374
-0.08686771 0.027057115 -0.08037094 0.06230243 -0.06880241 0.040276084 0.07401424 -0.074745245
0.06256214 0.069801114 0.019817207 0.023792244 0.012101043 -0.02768453 0.0013864636 0.01832185
-0.033785906 0.07558547 0.08094735 0.05670685 -0.026215192 -0.0764632 0.011197482 -0.0002238825
0.033424713 -0.003051533 -0.030569987 0.06752219 0.07741007 0.05510086 -0.03350462 0.058532495
-0.046258483 0.04769751 0.081959985 0.019965628 0.08063196 -0.07332096 0.0018940673 0.0803431
-0.027624004 0.027817942 0.07186791 -0.03541491 -0.01215168 0.052737676 0.04825615 0.054625195
0.028851977 0.07820498 -0.022354042 0.07645514 -0.07919316 0.06241987 -0.08448657 -0.058641918
-0.014373067 -0.026048373 -0.072014265 -0.056360107 0.05254052 0.04571333 0.052850045 0.03888445
-0.009822396 -0.030644422 -0.050025526 0.054027908 -0.064982034 0.022974439 0.05038818 -0.08390805
0.048923686 -0.0151480725 0.034954067 0.017997833 0.020193435 0.026343338 -0.075837895 0.035116542
0.08778413 0.07720119 0.012916079 -0.012696487 0.062079445 0.047790844 -0.039973076 0.07125429
-0.042005103 0.07858999 0.0048725945 -0.014934113 -0.009378586 0.007528113 -0.08575314 0.0011290329
-0.0030932259 -0.08579182 -0.0854104 -0.07857555 -0.028537571 -0.08636943 0.07464948 -0.025909824
-0.0702773 -0.08782525 -0.026729213 0.07923879 0.048026737 -0.06539885 -0.073716305 0.025379602
0.05960301 0.045358934 0.011070134 -0.021581141 0.03463184 0.05002532 0.0299332 0.028558165
-0.036815643 -0.057985563 0.058041938 0.0069187195 -0.07081961 -0.033571083 -0.021188518 -0.014281286
0.0006368458 -0.066905215 -0.02356395 -0.009265791 0.07629217 0.013938154 0.0009178745 -0.026588548
-0.049352586 0.016518064 -0.024554506 -0.056317903 0.037671816 0.07287091 0.040030368 0.02465187
-0.0557552 -0.050776348 -0.012060689 0.07848255 0.035439197 -0.052278243 0.0029112953 0.054678313
0.059309456 0.030642763 -0.038111143 -0.029985007 0.06472204 0.04484484 -0.049072586 0.0027111396
0.037839763 0.009850131 0.06496967 -0.041992527 -0.05142831 -0.018004157 -0.074349426 -0.0631385
-0.020638987 0.0749107 0.047690958 0.0851177 0.030848913 0.049346752 0.0049477858 0.03220793
-0.023353754 -0.0080120675 0.038605414 0.064126424 0.06215644 0.06552399 0.011393368 -0.014897384
0.05444424 -0.03781863 -0.017025832 0.011755991 -0.056767527 0.026523337 -0.053446826 0.066201285

fc3.bias f4 [12]
00000000: 9653 0cbd f20d 6bbb 3306 8cbc f112 98bd
00000010: 8fb7 31bd 6921 383d 3ab5 233d 5810 89bd
00000020: 0078 3db8 cb03 b63d 63b9 64bd cdb7 b33d
-0.0342594 -0.0035866466 -0.0170928 -0.07425488 -0.043387946 0.044953737 0.039967753 -0.066925704
-4.517287e-05 0.08887442 -0.05584086 0.087752916
